CNN Model Checkpoints/model5.pth (torch, 387015 bytes, 20 tensors)

features.0.weight f4 [32, 3, 3, 3]
0.2325062 -0.12450724 0.21408528 0.119229995 0.14124608 -0.008610021 -0.25532717 0.14419402
0.0024791071 -0.09194655 0.4469268 0.0011759339 -0.113280535 -0.26978025 0.20597993 0.3022135
0.17807347 0.42865115 0.18495359 -0.09103077 0.28040287 0.14360702 -0.23582946 -0.5704162
-0.15846199 -0.11586653 0.0128895445 0.36043698 0.14072326 -0.046889815 -0.0021901848 0.13464904
-0.012711676 -0.11043666 0.19099319 0.09536636 0.04809538 -0.1023537 0.20960417 0.22709405
0.48519105 -0.36267507 0.13936979 0.20088191 0.0015290397 0.3063518 -0.18418165 0.014661718
0.31957677 -0.1430774 -0.2724136 0.087491475 0.09923898 0.23237889 -0.42838857 -0.19708048
0.02076881 0.12028393 -0.11676685 0.19470756 0.24505204 -0.017440047 -0.0011935193 0.23009096
-0.24369042 -0.57988083 -0.07333781 0.06330634 -0.574641 0.08593052 -0.3966141 0.11020934
0.15857776 0.408586 0.05732585 0.43775553 -0.028099194 -0.27146554 -0.33407924 -0.2730472
-0.4216338 -0.13715568 -0.300587 -0.008774493 -0.5499526 0.027177451 -0.028714254 0.28042418
0.11382454 -0.2140884 0.107417874 -0.181587 0.13533229 -0.1685711 0.5432985 0.14279614
0.5713376 -0.3425154 0.014201311 -0.20271695 0.098236315 -0.09556994 0.005568289 -0.1115704
-0.27118245 0.46929944 -0.09186716 0.09027928 0.020914057 0.025843827 -0.21515468 -0.12003667
0.15243794 -0.3755793 0.04020519 0.020427978 -0.18782237 -0.6178201 -0.053765595 -0.0017371502
0.021909224 0.5059207 0.20255293 -0.086394496 -0.0070761275 -0.02018909 0.19689603 0.20561096
-0.51504964 -0.10201007 0.7442568 -0.027143002 -0.25163686 0.47543678 -0.12730516 0.100574076
-0.07898232 -0.47896084 -0.09823522 -0.49049437 -0.12229545 -0.3838908 0.13147734 0.34201932
-0.0317002 0.25476745 -0.18421938 0.016780363 -0.21462184 0.30678418 -0.24753504 0.20281246
-0.29804784 -0.10549819 -0.33357444 0.34142718 0.20921908 0.40066358 0.2290323 0.3102014
-0.14997964 0.05873892 -0.03433444 -0.117035925 -0.14139771 0.35863486 0.20914194 0.4559444
0.15705757 0.47856113 0.2744786 -0.1185275 -0.42765468 0.1983555 -0.30585995 -0.10611125
0.12280661 0.3950575 0.7396213 -0.010327961 -0.10214756 0.28487512 0.88021207 -0.21158946
0.038481887 -0.055527963 -0.071721666 0.90099424 0.17370914 -0.30369785 -0.24116953 0.22182974
-0.104617134 -0.3109743 -0.08483343 0.26706347 -0.23293518 0.02837691 0.2658174 -0.11049896
0.2683168 -0.121186115 -0.095840104 -0.19347344 -0.3424084 -0.24292646 0.014138907 -0.29376957
0.47671437 -0.083987445 -0.02564068 0.34254673 0.28870624 -0.16513997 0.112297855 -0.07219915
0.28724927 0.24568932 -0.07767652 -0.07226317 0.08273668 0.19527361 0.018543677 0.213249
0.25116166 -0.5797001 0.023262639 0.38426837 -0.027443746 0.08561849 -0.16366285 0.016252337
-0.23773271 0.2683814 -0.46705815 0.1700715 0.16924472 -0.8096163 -0.38055477 0.19430745
-0.1535852 -0.34487328 0.2669995 0.24688978 0.19813746 0.21516006 -0.22126842 0.44090113
0.3282461 0.23663856 0.21477209 -0.26372308 -0.17814977 -0.27075884 0.13603292 0.03823615
00000000: 1b16 6e3e a7fd febd 2c39 5b3e db2e f43d
00000010: d0a2 103e 0c11 0dbc 3eba 82be 99a7 133e
00000020: 8478 223b 794e bcbd 97d3 e43e cb21 9a3a
00000030: a0ff e7bd a320 8abe 67ec 523e babb 9a3e
00000040: e458 363e 2a78 db3e 7964 3d3e 576e babd
00000050: f790 8f3e b80d 133e 477d 71be cc06 12bf
00000060: dc43 22be 6e4b edbd ab2e 533c 328b b83e
00000070: c219 103e 890f 40bd 3489 0fbb 70e1 093e
00000080: a244 50bc 9e2c e2bd b893 433e 704f c33d
00000090: a9ff 443d d19e d1bd 7aa2 563e 588b 683e
000000a0: f66a f83e 8cb0 b9be f4b6 0e3e fdb3 4d3e
000000b0: 0f6a c83a 25da 9c3e 1d9a 3cbe b437 703c
000000c0: 919f a33e e282 12be cc79 8bbe bb2e b33d
000000d0: ce3d cb3d bbf4 6d3e bf55 dbbe 77cf 49be
000000e0: 5a23 aa3c 6c57 f63d 7523 efbd 6b61 473e
000000f0: ecee 7a3e 6ede 8ebc dd6f 9cba f79c 6b3e
00000100: fb89 79be 1273 14bf 2232 96bd c1a6 813d
00000110: ac1b 13bf 57fc af3d 0111 cbbe 6fb5 e13d
00000120: 3562 223e 2f32 d13e 83ce 6a3d 7e21 e03e
00000130: 4830 e6bc 88fd 8abe 6f0c abbe d8cc 8bbe
00000140: 63e0 d7be 8a72 0cbe 8ae6 99be e4c2 0fbc
00000150: b2c9 0cbf 3fa3 de3c 283a ebbc c293 8f3e
00000160: d71c e93d fd39 5bbe e7fd db3d f1f1 39be
00000170: 8c94 0a3e e79d 2cbe 9c15 0b3f 2739 123e
00000180: 2e43 123f 2e5e afbe 9eac 683c 0895 4fbe
00000190: 1f30 c93d 2cba c3bd 3276 b63b 067f e4bd
000001a0: 6dd8 8abe 0448 f03e d924 bcbd 58e4 b83d
000001b0: f553 ab3c 6fb6 d33c 8251 5cbe c9d5 f5bd
000001c0: b118 1c3e ee4b c0be 33ae 243d 9358 a73c
000001d0: 8254 40be 7529 1ebf 5039 5cbd 17b1 e3ba
000001e0: f97a b33c 0584 013f 096a 4f3e 99ef b0bd
000001f0: dcde e7bb 9763 a5bc 1d9f 493e ae8b 523e
00000200: 4bda 03bf a8ea d0bd 9d87 3e3f 005b debc
00000210: 8cd6 80be 736c f33e 495c 02be c8f9 cd3d
00000220: 7cc1 a1bd 5b3a f5be 8c2f c9bd 1422 fbbe
00000230: 0976 fabd 568d c4be ffa1 063e 281d af3e
00000240: 12d8 01bd e170 823e 01a4 3cbe f976 893c
00000250: d4c5 5bbe d112 9d3e d379 7dbe 12ae 4f3e
00000260: ba99 98be 6f0f d8bd 45ca aabe 8bcf ae3e
00000270: 873d 563e c723 cd3e 7187 6a3e b8d2 9e3e
00000280: 4394 19be 3998 703d 45a2 0cbd 88b0 efbd
00000290: 90ca 10be fd9e b73e 4e29 563e 8b71 e93e
000002a0: b3d3 203e f705 f53e 7688 8c3e 8cbe f2bd
000002b0: 8ef5 dabe b41d 4b3e ad99 9cbe db50 d9bd
000002c0: 0882 fb3d fa44 ca3e d257 3d3f 9c36 29bc
000002d0: bd32 d1bd 27db 913e 9455 613f e8aa 58be
000002e0: 2f9f 1d3d 4a71 63bd cfe2 92bd 8fa7 663f
000002f0: cfe0 313e 497e 9bbe 25f5 76be 5627 633e
00000300: 8241 d6bd 0638 9fbe 26bd adbd 8bbc 883e
00000310: 8f86 6ebe b276 e83c 3819 883e 474d e2bd
00000320: d260 893e 6d30 f8bd d147 c4bd e71d 46be
00000330: 2750 afbe b7c1 78be e0a6 673c f768 96be
00000340: e813 f43e 9c01 acbd 670c d2bc 4962 af3e
00000350: 4ed1 933e 741a 29be 6bfc e53d 26dd 93bd
00000360: 5612 933e fb95 7b3e de14 9fbd b6fe 93bd
00000370: d971 a93d cef5 473e e9e8 973c f25d 5a3e
00000380: 4398 803e 3a67 14bf 4a91 be3c d3be c43e
00000390: b5d1 e0bc bf58 af3d 3c97 27be 9f23 853c
000003a0: 3470 73be 4969 893e 3f22 efbe 3927 2e3e
000003b0: 7d4e 2d3e 0443 4fbf 13d8 c2be 88f8 463e
000003c0: 7045 1dbe 3b93 b0be 29b4 883e add0 7c3e
000003d0: 8ce4 4a3e eb52 5c3e 3094 62be cbbd e13e
000003e0: df0f a83e 6151 723e 37ed 5b3e b606 87be
000003f0: e56c 36be e7a0 8abe 374c 0b3e 829d 1c3d

features.0.bias f4 [32]
-0.0058188937 0.034828432 -0.03003856 -0.020630406 0.09511461 0.011144555 0.044801567 0.046115592
0.020211248 -0.021976335 -0.025782691 -0.0022708278 0.018888628 0.037722282 0.05644929 -0.0345043
0.06791626 -0.023279874 0.03438661 -0.0063333344 -0.013865814 0.034779824 0.030233607 0.019135594
0.009770964 0.033050146 -0.0132793635 -0.054900456 0.03524519 -0.036661558 0.06108552 0.022951823
00000000: 6bac bebb 42a8 0e3d 6d13 f6bc 1901 a9bc
00000010: 73cb c23d a797 363c d981 373d b4e3 3c3d
00000020: 0f92 a53c b707 b4bc 3936 d3bc 2bd2 14bb
00000030: 53bc 9a3c ae82 1a3d 5f37 673d 6254 0dbd
00000040: ae17 8b3d 6fb5 bebc f9d8 0c3d dc87 cfbb
00000050: 702d 63bc 4a75 0e3d 78ac f73c 40c2 9c3c
00000060: 6516 203c 975f 073d b091 59bc 4ddf 60bd
00000070: 435d 103d 6e2a 16bd cf34 7a3d 7605 bc3c

features.1.weight f4 [32]
0.88524634 0.9334927 1.1292684 0.88254195 1.082739 1.0960093 0.947653 1.0451012
1.1219007 0.982979 0.9650713 1.0695208 1.0028577 0.9483101 0.8626914 1.0572819
1.0887811 0.96240485 1.1576279 0.9197611 1.02044 0.8805103 1.1526399 1.0313171
0.9621919 1.0667709 0.982699 0.91747856 0.9491718 0.8713002 1.1467227 0.96155316
00000000: 819f 623f 61f9 6e3f de8b 903f 45ee 613f
00000010: 3197 8a3f 084a 8c3f 6399 723f e0c5 853f
00000020: 719a 8f3f 83a4 7b3f ea0e 773f 0fe6 883f
00000030: a45d 803f 73c4 723f 58d9 5c3f 0355 873f
00000040: 2e5d 8b3f 2a60 763f 272d 943f 7775 6b3f
00000050: c79d 823f 1f69 613f b489 933f 3302 843f
00000060: 3552 763f f38b 883f 2992 7b3f e0df 6a3f
00000070: ecfc 723f 880d 5f3f cfc7 923f 5928 763f

features.1.bias f4 [32]
-0.070560455 0.05385165 0.0020097508 0.070703365 0.07775219 0.020170026 -0.041070424 -0.022392677
0.015546678 -0.096635886 -0.11361562 -0.025099218 -0.064600594 0.074960455 -0.03873369 0.18146801
-0.060069844 0.047693554 0.06896545 -0.0149707785 -0.032577805 -0.0858363 -0.020152591 0.0028153392
-0.16604172 -0.050226897 -0.018147688 -0.052061003 -0.047740508 0.07707361 -0.18192567 -0.050347965
00000000: 0082 90bd 8c93 5c3d 06b6 033b edcc 903d
00000010: 8a3c 9f3d 9c3b a53c 7639 28bd d970 b7bc
00000020: 7eb7 7e3c 09e9 c5bd 4eaf e8bd e09c cdbc
00000030: 514d 84bd de84 993d 38a7 1ebd c0d2 393e
00000040: cc0b 76bd 515a 433d c23d 8d3d ff47 75bc
00000050: 4e70 05bd f1ca afbd 0c17 a5bc 8e81 383b
00000060: d706 2abe b8ba 4dbd 76aa 94bc eb3d 55bd
00000070: 8d8b 43bd c5d8 9d3d b94a 3abe ab39 4ebd

features.1.running_mean f4 [32]
0.23906766 0.67085266 -0.57978046 -0.06738804 0.12596251 -0.008241612 1.3555161 -0.121864535
-0.21812172 0.8902722 0.29628274 -0.09172146 0.38571712 0.073022015 0.47147012 -0.38858894
0.15142712 0.83651155 -0.7283826 0.21669643 -0.15080285 0.8650069 -0.07764545 -0.8752043
0.3710508 0.12820451 -0.13891464 -0.2676264 0.8795097 -0.12038768 -0.22238953 1.2735279
00000000: 27ce 743e 00bd 2b3f 7e6c 14bf be02 8abd
00000010: 51fc 003e d407 07bc 8d81 ad3f 1d94 f9bd
00000020: 4d5b 5fbe e1e8 633f 5fb2 973e 76d8 bbbd
00000030: b77c c53e 918c 953d 8864 f13e 21f5 c6be
00000040: b60f 1b3e 9f25 563f 4877 3abf abe5 5d3e
00000050: 106c 1abe 1871 5d3f 9404 9fbd 640d 60bf
00000060: 5ffa bd3e 0b48 033e a43f 0ebe 5406 89be
00000070: 8c27 613f d18d f6bd 15ba 63be f602 a33f

features.1.running_var f4 [32]
0.14786178 0.14089637 0.2478317 0.080703095 0.040928364 0.12114226 0.19733222 0.10559101
0.11570398 0.1190579 0.248487 0.041473426 0.16338776 0.070712864 0.15740915 0.087405086
0.08353179 0.17073046 0.49274185 0.054850776 0.12499712 0.2064957 0.16646619 0.20490159
0.09905666 0.032076374 0.02921841 0.04697982 0.1545445 0.051202834 0.13781823 0.41248146
00000000: 1469 173e 2347 103e 98c7 7d3e aa47 a53d
00000010: 80a4 273d 6f19 f83d 7511 4a3e 1940 d83d
00000020: 35f6 ec3d a1d4 f33d 6073 7e3e 0ae0 293d
00000030: 1f4f 273e e8d1 903d dd2f 213e 7001 b33d
00000040: b712 ab3d f7d3 2e3e a948 fc3e 35ab 603d
00000050: 7dfe ff3d 9c73 533e 1d76 2a3e b9d1 513e
00000060: 38de ca3d 8462 033d 725b ef3c e96d 403d
00000070: ea40 1e3e 10ba 513d 3920 0d3e c530 d33e

features.4.weight f4 [64, 32, 3, 3]
-0.1273505 0.034193836 0.15602696 0.0020498496 -0.09016003 0.10057858 -0.031842794 -0.008614343
-0.034708552 -0.027529823 -0.114856936 -0.03758331 -0.05210131 0.14770797 0.01538765 -0.076307334
-0.04043382 0.05738552 0.0369197 -0.08968331 -0.06100624 -0.16610493 -0.067153566 0.1251217
0.06413517 0.038847875 -0.047524873 -0.13107215 0.0330167 0.061946318 0.0548107 0.030158253
0.05110073 -0.07133663 -0.091749854 0.017484246 0.14252205 -0.0061877514 0.07761913 0.0942075
-0.06673227 0.24206105 0.12063443 0.0801595 0.027371023 -0.2321567 -0.16848081 0.01698993
0.058950357 -0.37157658 0.022734122 0.1208408 -0.07252798 -0.10819991 -0.040793914 -0.035658035
-0.01757892 -0.12851478 -0.074973255 0.0836755 0.07839014 -0.08641793 -0.017289512 0.014059305
0.10337672 -0.03383342 0.1211976 0.069792785 0.036129035 0.059162997 0.033425815 0.10180938
0.124071546 0.11964414 -0.069234215 -0.07924641 0.13724986 0.079218544 -0.2701989 0.0034926888
0.04464991 -0.067308 -0.004360137 -0.08217517 0.027219294 -0.030354204 -0.020028742 -0.085811324
0.07948296 0.02680689 0.051028367 0.0231037 -0.08482869 0.0010976376 -0.049727224 -0.040065005
0.102749445 -0.04283867 0.15122528 0.031283963 -0.15279414 0.049544286 0.0001277561 -0.09313384
-0.117634 -0.0109629035 -0.0432819 -0.11738311 0.12402637 0.0801582 -0.0948066 0.076238036
0.070080996 0.052739043 -0.07338397 0.005508021 -0.04043157 -0.059911966 0.08781542 0.016735466
-0.0073336866 -0.15429695 -0.0991744 0.042568248 0.09274534 0.044271193 -0.066712946 0.056002144
-0.031929094 -0.009024863 -0.028431213 -0.03896943 -0.037671577 -0.062818445 0.001794127 0.018653993
-0.07249501 0.095325656 -0.10028098 0.2160844 0.06965777 -0.03265945 -0.011192541 -0.047838386
-0.032809135 -0.06512081 -0.016726995 -0.08850375 -0.10924326 -0.01954588 0.10411801 0.08316861
0.024468428 -0.12535514 -0.04528707 -0.03411868 0.0731312 -0.20110385 0.024095515 0.06772735
-0.03285084 -0.029554665 -0.016034909 -0.021734904 0.092862874 -0.05935138 -0.08403215 -0.11470662
-0.07997148 -0.12679994 0.06464195 0.021390663 0.030257437 -0.029915625 -0.26506275 -0.047551252
-0.034707002 0.018957725 -0.015894966 -0.039316863 0.13275674 0.074999146 -0.13867952 0.040791046
0.20301585 0.12042006 0.06214708 -0.018782062 0.2118459 0.09908985 0.061669882 -0.0085923355
-0.011796504 0.15109594 0.043730125 -0.10569458 -0.06863465 0.054594815 -0.007366246 -0.19436714
-0.14486364 0.0650046 -0.14070503 0.03401051 -0.078482375 -0.08068403 0.032777537 0.0022248337
0.21708658 -0.08825803 -0.018531721 0.022947218 -0.10432458 -0.054722916 0.1279876 0.022681376
-0.10134473 0.11140892 -0.04508055 0.015323742 0.1287407 0.0841628 -0.16747363 0.077658765
0.046773758 -0.12722525 -0.22526297 0.011228232 0.04943744 -0.09755627 0.060300436 0.01811698
-0.080899864 0.0070265927 0.0011664649 -0.06529221 0.08167082 -0.0025080063 0.0077435407 -0.14874521
-0.08858331 0.13641068 -0.17864208 0.029386716 -0.039181232 0.077500045 -0.08267843 0.023079908
-0.00085311785 0.039063744 0.10865184 0.07794249 0.010151549 0.12720127 0.0039942316 0.03632781
00000000: 2b68 02be d60e 0c3d 88c5 1f3e c556 063b
00000010: d2a5 b8bd 24fc cd3d 976d 02bd 2c23 0dbc
00000020: 8e2a 0ebd 3986 e1bc 1d3a ebbd f5f0 19bd
00000030: 2f68 55bd c240 173e 7b1c 7c3c 0547 9cbd
00000040: ef9d 25bd 140d 6b3d 1d39 173d e2ab b7bd
00000050: aee1 79bd 6917 2abe cf87 89bd e71f 003e
00000060: 4d59 833d f31e 1f3d 71a9 42bd c737 06be
00000070: 853c 073d 6cbb 7d3d 2f81 603d 710e f73c
00000080: 004f 513d f018 92bd 59e7 bbbd 1f3b 8f3c
00000090: 4df1 113e 9fc2 cabb c7f6 9e3d ddef c03d
000000a0: eeaa 88bd dade 773e 2f0f f73d aa2a a43d
000000b0: 3239 e03c 7cba 6dbe 3c86 2cbe 772e 8b3c
000000c0: ee75 713d 493f bebe e93c ba3c 627b f73d
000000d0: 8d89 94bd ea97 ddbd 8517 27bd 290e 12bd
000000e0: ab01 90bc 6199 03be 948b 99bd 0f5e ab3d
000000f0: 028b a03d e2fb b0bd bca2 8dbc 0059 663c
00000100: 2cb7 d33d ea94 0abd 7336 f83d 85ef 8e3d
00000110: 0afc 133d e654 723d 82e9 083d 7081 d03d
00000120: 3919 fe3d fd07 f53d abca 8dbd f14b a2bd
00000130: 3a8b 0c3e 553d a23d 8357 8abe 98e5 643b
00000140: d3e2 363d c7d8 89bd 7bdf 8ebb 754b a8bd
00000150: fffa de3c 61a9 f8bc 5113 a4bc d9bd afbd
00000160: f6c7 a23d 1f9a db3c 1f03 513d f843 bd3c
00000170: aaba adbd 9bde 8f3a c6ae 4bbd 341b 24bd
00000180: 4d6e d23d 9a77 2fbd cdda 1a3e 9d23 003d
00000190: 1176 1cbe f3ee 4a3d 44f6 0539 f4bc bebd
000001a0: 18ea f0bd c09d 33bc 5d48 31bd 8e66 f0bd
000001b0: 8a01 fe3d fb29 a43d f629 c2bd b022 9c3d
000001c0: a086 8f3d e504 583d 564a 96bd a17c b43b
000001d0: 939b 25bd 4066 75bd 92d8 b33d d118 893c
000001e0: 6c4f f0bb 0500 1ebe f31b cbbd 0b5c 2e3d
000001f0: 45f1 bd3d b655 353d cca0 88bd 8162 653d
00000200: 15c8 02bd 05dd 13bc 93e8 e8bc 699e 1fbd
00000210: 834d 1abd f5a6 80bd ea28 eb3a 42d0 983c
00000220: 4478 94bd 193a c33d 1d60 cdbd 3b45 5d3e
00000230: bca8 8e3d eac5 05bd eb60 37bc 2ff2 43bd
00000240: df62 06bd 0f5e 85bd 0d07 89bc 7441 b5bd
00000250: eeba dfbd ae1e a0bc d33b d53d 4e54 aa3d
00000260: 0372 c83c 195d 00be ef7e 39bd 07c0 0bbd
00000270: d0c5 953d 2bee 4dbe f563 c53c a3b4 8a3d
00000280: 9a8e 06bd a01c f2bc a45b 83bc 660d b2bc
00000290: e42e be3d 6f1a 73bd 0c19 acbd 4eeb eabd
000002a0: 16c8 a3bd d8d7 01be 0063 843d 793b af3c
000002b0: 72de f73c 9d11 f5bc 4eb6 87be 1ac5 42bd
000002c0: ee28 0ebd 3b4d 9b3c 2936 82bc b80a 21bd
000002d0: 62f1 073e 2799 993d 0102 0ebe 8314 273d
000002e0: 63e3 4f3e cb9e f63d f08d 7e3d d7dc 99bc
000002f0: 22ee 583e 9fef ca3d 8f99 7c3d dec6 0cbc
00000300: 2046 41bc e5b8 1a3e 5c1e 333d 6676 d8bd
00000310: 5390 8cbd d09e 5f3d 8d60 f1bb 2e08 47be
00000320: 2257 14be 2221 853d fb14 10be 9b4e 0b3d
00000330: 5ebb a0bd ab3d a5bd bd41 063d 84ce 113b
00000340: f24b 5e3e a0c0 b4bd d6cf 97bc cefb bb3c
00000350: 20a8 d5bd 2325 60bd 2e0f 033e 4bce b93c
00000360: d38d cfbd 5c2a e43d 62a6 38bd 6f10 7b3c
00000370: 9ad4 033e 8c5d ac3d 357e 2bbe 8f0b 9f3d
00000380: d795 3f3d 5647 02be 56ab 66be 9ef6 373c
00000390: ea7e 4a3d 95cb c7bd 97fd 763d 106a 943c
000003a0: d4ae a5bd 553f e63b 11e4 983a ecb7 85bd
000003b0: 0843 a73d 5d5d 24bb 87bd fd3b aa50 18be
000003c0: 2b6b b5bd 3eaf 0b3e f3ed 36be 69bc f03c
000003d0: 807c 20bd 58b8 9e3d 4f53 a9bd 1312 bd3c
000003e0: c5a3 5fba 4e01 203d db84 de3d 50a0 9f3d
000003f0: af52 263c 0d41 023e 0be2 823b 78cc 143d

features.4.bias f4 [64]
-0.031938218 0.015534253 -0.06246596 0.0159312 -0.018892305 0.015020871 -0.0051956056 -0.056868713
0.013262955 0.0053862003 0.008114448 -0.032203164 -0.009928545 0.006630417 -0.015120831 0.00030653278
-0.03573862 0.023847431 -0.015889555 -0.033655953 0.03768427 0.045572508 -0.03178016 0.0003599967
0.028556712 0.03778861 -0.05147571 0.05850381 -0.026637204 0.007809092 1.6877804e-05 0.08258579
-0.00594324 -0.053177223 -0.031200085 0.008490234 -0.028960852 -0.01583618 0.017159184 0.0072393655
-0.001202633 0.050884735 0.00036852615 -0.014143792 0.0414062 -0.04544946 0.020519454 0.04834457
0.0022735698 -0.0057945354 -0.038524248 -0.04165659 -0.046722475 0.0024760275 -0.06686535 -0.01610238
0.020615686 0.020602658 0.025437763 0.00590473 0.03140704 0.022615332 -0.054447103 0.002753221
00000000: a6d1 02bd 6183 7e3c 4edc 7fbd 2682 823c
00000010: 09c4 9abc 191a 763c e63f aabb 2bef 68bd
00000020: dd4c 593c b97e b03b 76f2 043c 77e7 03bd
00000030: 56ab 22bc f843 d93b 5dbd 77bc 22b6 a039
00000040: a962 12bd b05b c33c d02a 82bc d3da 09bd
00000050: d25a 1a3d 3daa 3a3d ea2b 02bd f0bd bc39
00000060: c4ef e93c 3bc8 1a3d 32d8 52bd b1a1 6f3d
00000070: 4436 dabc 69e3 ff3b cf94 8d37 bd22 a93d
00000080: 83bf c2bb 5cd0 59bd 5297 ffbc 9f1a 0b3c
00000090: 4f3f edbc e0ba 81bc 6b91 8c3c 3338 ed3b
000000a0: aba1 9dba 836c 503d be36 c139 5dbb 67bc
000000b0: 8c99 293d 3729 3abd 6a18 a83c f504 463d
000000c0: 2c00 153b 16e0 bdbb 9acb 1dbd 1aa0 2abd
000000d0: 1160 3fbd d944 223b b3f0 88bd 23e9 83bc
000000e0: 3ae2 a83c e8c6 a83c db62 d03c 777c c13b
000000f0: aba4 003d ca43 b93c ed03 5fbd 626f 343b

features.5.weight f4 [64]
1.029202 1.0343808 0.9070096 1.0300584 0.93308115 0.9370221 0.99146813 0.9905256
1.1019877 0.97632736 1.018855 0.96144956 1.159476 1.0227091 0.9942773 0.9302537
0.95515007 0.82664007 1.0003124 0.9410579 1.0314587 1.0287358 0.9682742 1.1192769
1.0400217 1.0518817 1.0726482 0.8555772 0.93988353 1.0839449 0.8937729 0.91856164
0.9383192 1.0875556 0.93509656 1.0198638 1.0493609 1.0526197 1.001559 1.0769392
0.97271883 1.01411 0.92513657 1.0553823 1.0735111 0.86109877 0.9433618 0.9895337
0.9325247 0.96625 1.0340338 0.9201713 0.9359837 0.9242752 1.0639518 0.92359155
1.0348684 1.0839545 1.127867 0.8842594 1.0477194 1.0593777 1.1082734 1.0455611
00000000: e4bc 833f 9766 843f c831 683f f4d8 833f
00000010: 68de 6e3f aee0 6f3f dbd0 7d3f 1693 7d3f
00000020: ef0d 8d3f 97f0 793f d769 823f 8f21 763f
00000030: b669 943f 22e8 823f f588 7e3f 1b25 6e3f
00000040: b784 743f af9e 533f 3d0a 803f 2ce9 703f
00000050: d706 843f 9dad 833f d1e0 773f 7744 8f3f
00000060: 6e1f 853f 0fa4 863f 894c 893f 1b07 5b3f
00000070: 359c 703f b5be 8a3f 4dce 643f db26 6b3f
00000080: b035 703f 0635 8b3f 7d62 6f3f e68a 823f
00000090: 7551 863f 3ebc 863f 1633 803f 25d9 893f
000000a0: 1a04 793f 5bce 813f c0d5 6c3f c416 873f
000000b0: d068 893f f870 5c3f 2980 713f 1552 7d3f
000000c0: f0b9 6e3f 295c 773f 385b 843f 5990 6b3f
000000d0: a19c 6f3f 4d9d 6c3f 932f 883f 7f70 6c3f
000000e0: 9176 843f 05bf 8a3f f25d 903f d35e 623f
000000f0: ab1b 863f b099 873f e7db 8d3f f2d4 853f

features.5.bias f4 [64]
-0.17870508 -0.09971957 -0.13767616 -0.12540032 -0.057976898 -0.33533087 -0.07849235 -0.29344258
-0.24475604 -0.23420513 -0.20085634 -0.0902247 -0.2827765 -0.11646821 -0.10897421 -0.21573855
-0.18375444 -0.118490644 -0.06584574 -0.22355668 -0.16844682 -0.111146994 -0.30220374 -0.11700552
-0.15638433 -0.2858155 -0.2147379 -0.17269485 -0.06540988 -0.19785695 -0.20699364 -0.11099568
-0.24413514 -0.018607453 -0.118079565 -0.023550458 -0.11999618 -0.00598172 -0.2564858 -0.08737815
-0.11839652 -0.09672113 -0.3049312 -0.12565045 -0.08837891 -0.17908864 -0.15462582 -0.12526482
-0.094728805 -0.27959612 -0.12097474 -0.1981293 -0.26627886 -0.11946919 -0.036347345 -0.1309658
-0.05746064 -0.17985292 -0.29472584 -0.2861067 -0.17197524 -0.18446475 -0.22932613 -0.17367035
00000000: 77fe 36be c639 ccbd fbfa 0cbe f168 00be
00000010: 2f79 6dbd 7db0 abbe 99c0 a0bd 1b3e 96be
00000020: 54a1 7abe 78d3 6fbe 49ad 4dbe bac7 b8bd
00000030: 15c8 90be e386 eebd df2d dfbd 91ea 5cbe
00000040: 202a 3cbe 39ab f2bd 22da 86bd 0bec 64be
00000050: 537d 2cbe 09a1 e3bd 73ba 9abe 97a0 efbd
00000060: 3723 20be 6956 92be 41e4 5bbe ebd6 30be
00000070: 9df5 85bd 039b 4abe 24f6 53be b451 e3bd
00000080: 90fe 79be a86e 98bc b3d3 f1bd e4ec c0bc
00000090: 8fc0 f5bd 4e02 c4bb 1b52 83be 51f3 b2bd
000000a0: e079 f2bd ba15 c6bd f11f 9cbe 83aa 00be
000000b0: 0100 b5bd 0363 37be 3b56 1ebe 6c45 00be
000000c0: 2d01 c2bd 3927 8fbe 9bc1 f7bd 68e2 4abe
000000d0: b455 88be 43ac f4bd f4e0 14bd e61b 06be
000000e0: d95b 6bbd 5d2b 38be 4ee6 96be 947c 92be
000000f0: 471a 30be 54e4 3cbe 78d4 6abe a4d6 31be

features.5.running_mean f4 [64]
-0.65976214 -1.2084324 -0.19705497 0.78648645 -0.48356584 0.442521 -0.11942382 0.5992267
0.50994414 -0.0063905865 0.5769947 -0.16508324 -0.43085822 -1.0283405 -0.7128246 1.3228233
0.021424457 2.296657 -1.3552125 0.43132326 -1.5671523 0.008304388 0.48263204 -0.17108594
-0.7451014 -0.2448265 -0.50127935 0.7395903 -0.644597 -1.3079971 0.041964363 0.48178634
0.6174493 -1.3455592 0.50392276 -1.4697101 -0.60400736 -0.6010034 -0.65344507 -0.13992575
0.58402956 -0.037101842 1.2484361 -0.35152256 -1.3511678 -0.8274375 -0.001386227 -0.09534529
0.4464299 1.2614825 -1.194489 0.2962538 -0.25406125 0.44892788 -2.374027 1.7520207
-0.42891526 0.61753786 0.20346302 -0.69641197 -0.2667833 -0.7493018 -0.42342675 0.57539594
00000000: 2ce6 28bf eaad 9abf c7c8 49be 2d57 493f
00000010: f195 f7be 1d92 e23e 7a94 f4bd ec66 193f
00000020: b38b 023f 2068 d1bb edb5 133f 950b 29be
00000030: 7399 dcbe a9a0 83bf ac7b 36bf 4652 a93f
00000040: 5882 af3c 6efc 1240 9a77 adbf 67d6 dc3e
00000050: 7298 c8bf 210f 083c 8c1b f73e 2731 2fbe
00000060: f7be 3ebf ccb3 7abe d853 00bf ca55 3d3f
00000070: 4f04 25bf 736c a7bf d3e2 2b3d b3ac f63e
00000080: 2811 1e3f 493b acbf 1501 013f 761f bcbf
00000090: 3aa0 1abf 5cdb 19bf 2d48 27bf b248 0fbe
000000a0: f682 153f 1af8 17bd c1cc 9f3f c4fa b3be
000000b0: 11f3 acbf f2d2 53bf 0fb2 b5ba 6444 c3bd
000000c0: 7692 e43e 4278 a13f 04e5 98bf 94ae 973e
000000d0: 5114 82be e0d9 e53e 0ff0 17c0 3742 e03f
000000e0: c89a dbbe f616 1e3f 9c58 503e 0e48 32bf
000000f0: d297 88be 3ed2 3fbf 64cb d8be 264d 133f

features.5.running_var f4 [64]
0.6694167 2.0740116 1.1124686 3.1783457 1.3550363 0.6385422 1.4026114 2.3878956
2.8755336 1.4932748 1.5919582 1.206248 2.230787 2.1343727 1.7181848 2.3197174
1.2484349 3.2812467 0.99051136 1.3405114 1.826897 1.2586867 1.2370847 1.2318163
1.2694496 1.7705019 1.75376 2.3502676 1.1409264 0.77372515 1.093563 1.3556874
1.8276402 2.630104 2.04852 3.113044 0.9690206 1.207463 0.9478898 1.2561094
1.6264061 1.8114315 1.1573645 0.83191544 2.0263329 1.1374297 3.184287 1.0975833
0.59551436 4.1149025 1.8223782 1.2940506 1.2790463 2.1327775 1.4193832 2.5598452
1.8339351 2.5008779 3.2062943 1.6393135 1.8054086 2.0399635 0.95396996 2.9171045
00000000: e55e 2b3f 9bbc 0440 5f65 8e3f 046a 4b40
00000010: d471 ad3f 8077 233f c588 b33f 48d3 1840
00000020: be08 3840 a123 bf3f 49c5 cb3f 5666 9a3f
00000030: 37c5 0e40 9099 0840 7bed db3f 4076 1440
00000040: b7cc 9f3f f2ff 5140 2792 7d3f e195 ab3f
00000050: c3d7 e93f a51c a13f cb58 9e3f 28ac 9d3f
00000060: 537d a23f ce9f e23f 357b e03f c96a 1640
00000070: e009 923f da12 463f dff9 8b3f 2a87 ad3f
00000080: 1df0 e93f a053 2840 f41a 0340 1d3c 4740
00000090: bc11 783f 268e 9a3f e8a8 723f 31c8 a03f
000000a0: 132e d03f fddc e73f 8524 943f 69f8 543f
000000b0: 70af 0140 4c97 913f 5ccb 4b40 9c7d 8c3f
000000c0: a173 183f 48ad 8340 b043 e93f 73a3 a53f
000000d0: cab7 a33f 6d7f 0840 59ae b53f 81d4 2340
000000e0: 63be ea3f 620e 2040 ed33 4d40 06d5 d13f
000000f0: a117 e73f c38e 0240 6037 743f d7b1 3a40

features.8.weight f4 [128, 64, 3, 3]
-0.048836924 0.022249041 0.047624625 -0.009625476 -0.043422543 0.12587784 0.09024212 -0.021867285
0.15228355 -0.003649783 0.07724479 0.050087247 0.09039925 -0.008917309 0.13719322 -0.07778205
0.06842347 -0.11788914 0.21173415 -0.0034012955 -0.046505556 0.13803568 0.038736265 -0.06620169
0.08165741 0.041646324 0.044288486 0.14375937 -0.063705795 0.21128802 -0.053665765 -0.08041169
0.09676631 0.019125795 0.024272526 0.050330807 -0.011725901 -0.013038414 0.15871462 0.031957824
0.02058918 0.0966775 0.100671425 0.03668061 -0.05231122 0.039393473 0.022686707 0.042678326
0.018429434 0.01734848 -0.0066723195 -0.11316139 0.08657662 0.038063142 -0.043268986 0.020813597
-0.0026885576 0.06836512 -0.07515541 0.09055245 -0.12346079 0.02989229 -0.18342102 0.15522575
0.0640391 -0.13158251 -0.00010336124 0.016476389 -0.033879634 0.029699901 -0.0323029 0.014531047
-0.112904124 -0.01869001 0.02054662 0.15722038 0.13544147 0.05529843 0.05853404 0.09359877
0.07868811 0.043478068 0.14104743 -0.06448314 -0.012699876 -0.043955196 0.021296216 -0.12560897
0.009222749 0.023115316 -0.059327926 -0.051812068 0.027720692 0.17787904 0.045385323 -0.090305984
-0.03060803 0.08521027 0.021275671 0.06029627 -0.045390055 0.068645544 -0.14627452 -0.009581143
-0.05780182 -0.061671417 0.104289986 0.015203203 -0.020025857 -0.038628317 -0.08330232 0.067634396
0.09639766 0.042065036 0.011374345 0.13951072 -0.13668473 0.0637724 0.053885136 -0.14329395
0.090535715 -0.036864787 -0.05384425 -0.05762094 0.033697598 -0.0018526198 0.02206483 -0.04871101
-0.08640813 0.09652725 -0.046549827 0.062817976 -0.060782257 0.03722443 -0.11078561 0.08324857
0.10983536 0.037288312 -0.056312364 -0.057540927 0.042647194 0.01616934 -0.08605749 -0.042880807
-0.22476724 -0.017254485 -0.07121752 -0.023962338 0.035099745 -0.1196529 0.021223374 0.0118407225
0.01984731 0.017686533 -0.017400566 -0.009915101 -0.031785995 0.011121077 0.036513485 0.032181427
-0.0558932 0.09640916 0.14105795 -0.033700395 -0.06270101 -0.067413464 0.07909448 -0.0072123026
0.0078407 0.016943369 -0.016233772 0.13507973 -0.0550668 0.016985623 -0.07941873 0.027621891
-0.059290852 -0.06374862 0.17648244 0.035625014 0.014277197 -0.007156599 -0.042572282 0.11015102
0.026983112 -0.040022127 -0.041812517 0.07391005 0.00978075 -0.0628659 0.10613353 -0.004440566
0.0012066142 -0.05996509 -0.07242365 -0.09903909 0.042329792 0.036548547 -0.025956148 -0.084658675
0.0040534367 -0.06277512 0.107912704 -0.002861599 -0.08001064 0.032945864 -0.1429787 -0.15527993
0.074741036 0.031138262 0.044533443 -0.034372646 -0.08324841 -0.039704803 -0.04676187 -0.08190387
-0.0042268476 0.08402365 -0.09769649 0.021094264 -0.033091906 0.0032729395 -0.0573465 -0.09306547
0.015494736 0.06807644 -0.09357361 -0.014494052 -0.11427795 -0.067458056 0.052167967 0.064988725
-0.0010006967 -0.02160937 0.041489244 -0.08329109 0.046779484 0.012267871 0.024178741 0.0060999044
0.06369337 0.00096461375 0.078749634 -0.039864846 0.05717327 -0.15289041 0.08872642 -0.017100736
0.009984764 0.01591945 0.082946666 -0.015954932 -0.077281125 0.080989175 -0.0060175806 0.040615123
00000000: 3a09 48bd 9f43 b63c 0a12 433d 2cb4 1dbc
00000010: d6db 31bd 1fe6 003e dcd0 b83d 0523 b3bc
00000020: 38f0 1b3e 3331 6fbb 8432 9e3d 4928 4d3d
00000030: 3e23 b93d e819 12bc 617c 0c3e 324c 9fbd
00000040: 9b21 8c3d dd6f f1bd d6d0 583e 45e8 5ebb
00000050: 9c7c 3ebd 3a59 0d3e eba9 1e3d c094 87bd
00000060: 003c a73d 5695 2a3d d867 353d a835 133e
00000070: 2f78 82bd e35b 583e a2d0 5bbd e2ae a4bd
00000080: 6a2d c63d b3ad 9c3c 2dd7 c63c ad27 4e3d
00000090: fe1d 40bc 129f 55bc 1686 223e 35e6 023d
000000a0: a4aa a83c dafe c53d d22c ce3d 683e 163d
000000b0: 4a44 56bd 0d5b 213d 79d9 b93c 78cf 2e3d
000000c0: 53f9 963c 661e 8e3c 79a3 dabb 29c1 e7bd
000000d0: 154f b13d 19e8 1b3d d23a 31bd 4781 aa3c
000000e0: 8332 30bb 0303 8c3d 14eb 99bd 9073 b93d
000000f0: 03d9 fcbd ade0 f43c b8d2 3bbe 80f3 1e3e
00000100: ef26 833d 91bd 06be a5c3 d8b8 7ef9 863c
00000110: 5fc5 0abd 354d f33c 0c50 04bd a113 6e3c
00000120: 473a e7bd cb1b 99bc 6351 a83c 61fe 203e
00000130: 2bb1 0a3e 9b80 623d 64c1 6f3d b6b0 bf3d
00000140: 3b27 a13d 0f16 323d bd6e 103e bd0f 84bd
00000150: 2413 50bc 5d0a 34bd 6775 ae3c a39f 00be
00000160: 031b 173c 555c bd3c d701 73bd e438 54bd
00000170: 8116 e33c ec25 363e f6e5 393d 58f2 b8bd
00000180: b1bd fabc b982 ae3d 514a ae3c 39f9 763d
00000190: ecea 39bd 0996 8c3d fdc8 15be 3afa 1cbc
000001a0: 9ac1 6cbd 2b9b 7cbd fd95 d53d db16 793c
000001b0: 440d a4bc ba38 1ebd 689a aabd e783 8a3d
000001c0: 236c c53d 634c 2c3d 765b 3a3c e6db 0e3e
000001d0: 15f7 0bbe 1b9b 823d a9b6 5c3d a6bb 12be
000001e0: ca6a b93d 88ff 16bd ca8b 5cbd ef03 6cbd
000001f0: 7e06 0a3d 9bd3 f2ba 4dc1 b43c 3285 47bd
00000200: bff6 b0bd 14b0 c53d 08ab 3ebd b6a6 803d
00000210: d1f6 78bd a578 183d 91e3 e2bd 3a7e aa3d
00000220: 5cf1 e03d a1bb 183d cba7 66bd 09b0 6bbd
00000230: d3ae 2e3d 9075 843c e93e b0bd c9a3 2fbd
00000240: 6229 66be 4759 8dbc 7eda 91bd aa4c c4bc
00000250: c0c4 0f3d 940c f5bd a4dc ad3c 97ff 413c
00000260: d396 a23c 59e3 903c a28b 8ebc f372 22bc
00000270: 0832 02bd 2e35 363c 2a8f 153d acd0 033d
00000280: 45f0 64bd 2a72 c53d 7f71 103e 6d09 0abd
00000290: 6369 80bd 1210 8abd 49fc a13d 2e55 ecbb
000002a0: 4876 003c d2cc 8a3c b0fc 84bc 5752 0a3e
000002b0: ba8d 61bd 6f25 8b3c 4aa6 a2bd 4e47 e23c
000002c0: f7da 72bd a38e 82bd d0b7 343e 89eb 113d
000002d0: e8ea 693c e781 eabb 4660 2ebd dc96 e13d
000002e0: b00b dd3c 3eee 23bd 9a43 2bbd 275e 973d
000002f0: 703f 203c d6bf 80bd 895c d93d 2b82 91bb
00000300: 4127 9e3a f49d 75bd da52 94bd 02d5 cabd
00000310: 0162 2d3d eeb3 153d fda1 d4bc 8761 adbd
00000320: b1d2 843b 3e90 80bd 5601 dd3d aa89 3bbb
00000330: 9edc a3bd 3ef2 063d 0269 12be b401 1fbe
00000340: d411 993d ab15 ff3c b368 363d 55ca 0cbd
00000350: 247e aabd 81a1 22bd 6089 3fbd 37bd a7bd
00000360: 5e81 8abb 9714 ac3d 1915 c8bd e1cd ac3c
00000370: 618b 07bd d07e 563b 2ae4 6abd 1c99 bebd
00000380: a2dd 7d3c a96b 8b3d 85a3 bfbd 7678 6dbc
00000390: 8f0a eabd 7327 8abd 14ae 553d cf18 853d
000003a0: cf29 83ba 2206 b1bc a0f0 293d 8594 aabd
000003b0: d89b 3f3d 2eff 483c 7f12 c63c b5e1 c73b
000003c0: ab71 823d 22de 7c3a 7d47 a13d 5249 23bd
000003d0: 852e 6a3d 4e8f 1cbe 33b6 b53d d816 8cbc
000003e0: 2397 233c 8269 823c f1df a93d ebb3 82bc
000003f0: 9145 9ebd a7dd a53d 202f c5bb 0b5c 263d

features.8.bias f4 [128]
0.00047222155 -0.0006312524 -0.0072402386 -0.0009857198 8.541121e-05 0.007232642 0.0026894065 0.0023741643
-0.0075692777 0.0033804644 0.004259715 0.0051125074 -0.006739217 0.0057904623 -0.0073574693 -0.0040848246
0.0007922118 -0.004594676 0.005464753 0.0026147044 0.0019464487 0.005099863 -0.0013233498 0.004963283
-0.0018308172 0.0069614993 -0.005069944 0.003533075 0.011636933 -0.0010372276 -0.0004858286 -0.010225949
0.004239004 -0.008823507 0.0077072815 0.0099988915 -0.0046053394 -0.0026413584 -0.0035779404 -6.922151e-05
0.004343088 -0.00048645952 -0.0028134754 0.0010644728 0.007310171 0.01158156 0.01170862 -0.0015041884
0.0054104184 0.001613582 0.0005624766 -0.00402431 -0.0056822407 0.0051432694 0.0056704534 -0.005259915
-0.0014497131 -0.0073939185 -0.008959185 -0.0019010784 -0.0005099207 0.0044752145 -0.003087882 0.0012701951
0.0028379567 0.004868587 0.010260557 0.008539079 -0.0077595334 0.0041818023 -0.005357181 -0.008604105
0.010532958 -0.0003140866 0.00406269 0.0076308404 0.020217702 -0.0070093884 -0.012139234 -0.004247678
0.005974486 0.0017455673 -0.012866159 -0.0022663078 -0.0010894181 0.002044807 0.0023610205 0.0037106234
-0.00086731015 0.00044667308 -0.0002219751 0.01066543 -0.014739801 -0.0033077018 -1.1653194e-05 0.0006714008
-0.0019999598 -0.0056687105 -0.0008916454 0.0017625901 -0.00035161883 -0.001955326 0.005642566 0.007320662
-0.009608338 -0.008595891 -0.0015103958 -0.0025625012 -0.016289549 0.0024506394 -0.002458368 0.0022752741
0.0065361406 -0.0053281584 -0.005234135 0.004152082 0.0044084913 -0.0058816085 0.00054199155 -0.018576723
0.00245695 -0.010173863 0.009426491 0.003179505 0.00037329263 0.009338298 -0.0024923158 0.0053040753
00000000: 8194 f739 a27a 25ba 863f edbb 4533 81ba
00000010: cb1e b338 ccff ec3b c140 303b de97 1b3b
00000020: b407 f8bb c88a 5d3b 1495 8b3b d286 a73b
00000030: a6d4 dcbb ebbd bd3b ed16 f1bb fed9 85bb
00000040: 6fac 4f3a f08e 96bb ac11 b33b 765b 2b3b
00000050: fb1f ff3a c01c a73b 4074 adba 09a3 a23b
00000060: 08f8 efba 4a1d e43b c621 a6bb 2a8b 673b
00000070: d6a8 3e3c 95f3 87ba d0b6 feb9 bd8a 27bc
00000080: 58e7 8a3b 7990 10bc 5d8d fc3b 64d2 233c
00000090: 63e8 96bb a41a 2dbb e17b 6abb 042b 91b8
000000a0: 7650 8e3b 7e0b ffb9 4962 38bb c885 8b3a
000000b0: 298a ef3b 95c0 3d3c 83d5 3f3c 3028 c5ba
000000c0: e149 b13b d47e d33a 2a73 133a 5cde 83bb
000000d0: 1732 babb df88 a83b 36cf b93b 5d5b acbb
000000e0: 4d04 beba af48 f2bb 8cc9 12bc 9b2d f9ba
000000f0: 33ac 05ba d2a4 923b 105e 4abb ad7c a63a
00000100: 03fd 393b ab88 9f3b e51b 283c 7ee7 0b3c
00000110: af43 febb 8007 893b 4b8b afbb 3bf8 0cbc
00000120: 6e92 2c3c fdab a4b9 5020 853b 210c fa3b
00000130: 989f a53c 03af e5bb a3e3 46bc 1b30 8bbb
00000140: 9fc5 c33b 85cb e43a 95cc 52bc 5686 14bb
00000150: ceca 8eba 2b02 063b 5abb 1a3b ee2d 733b
00000160: 335c 63ba 722f ea39 fdc1 68b9 0ebe 2e3c
00000170: 357f 71bc 07c6 58bb 1682 43b7 f200 303a
00000180: c211 03bb 97c0 b9bb 4fbd 69ba b606 e73a
00000190: 7b59 b8b9 ed24 00bb 46e5 b83b 2ae2 ef3b
000001a0: 4a6c 1dbc c8d5 0cbc 79f8 c5ba a3ef 27bb
000001b0: a971 85bc e89a 203b 921c 21bb c41c 153b
000001c0: 1f2d d63b d597 aebb 1b83 abbb 300e 883b
000001d0: 1b75 903b 82ba c0bb 7014 0e3a 362e 98bc
000001e0: c804 213b 46b0 26bc 9271 1a3c 3e5f 503b
000001f0: 7db6 c339 a9ff 183c 1f56 23bb cfcd ad3b

features.9.weight f4 [128]
1.1613752 1.2242556 1.1495383 1.2238771 1.1283773 1.2089994 1.1047028 1.2114465
1.1328498 1.1810733 1.1888946 1.1118824 1.1750325 1.1469654 1.1827489 1.0882248
1.2256559 1.2043042 1.0330662 1.2179495 1.2511469 1.1273115 1.2148861 1.1734828
1.1870629 1.2212013 1.1519125 1.1856612 1.148155 1.1047901 1.1751931 1.1730481
1.1499182 1.2307334 1.176116 1.184343 1.1900004 1.1999307 1.1696252 1.257493
1.1752867 1.1609827 1.1742177 1.2135394 1.2061068 1.1902014 1.2153567 1.1848516
1.1172763 1.2334653 1.2258224 1.2166599 1.215256 1.135943 1.1960057 1.1784692
1.1915437 1.169358 1.1965009 1.2277441 1.2229155 1.1120169 1.1384579 1.1624869
1.2089536 1.1148345 1.1828812 1.2047276 1.3080152 1.1925168 1.22621 1.1455786
1.1205041 1.0846558 1.2494825 1.1934453 1.2181425 1.2036378 1.1232976 1.098788
1.1814976 1.1430058 1.1743456 1.2154491 1.1973817 1.2293841 1.2383839 1.1402462
1.2574073 1.1607573 1.1380186 1.1709507 1.1659412 1.1457939 1.2591777 1.1998147
1.1723397 1.1624329 1.1103313 1.1924604 1.2193379 1.1901371 1.1104873 1.1745363
1.1649994 1.3096663 1.130901 1.1659887 1.2134905 1.1628362 1.2054558 1.2018545
1.089531 1.1794089 1.1634324 1.2249315 1.1658983 1.1733744 1.1530849 1.1607374
1.0939872 1.1396371 1.2549704 1.0929685 1.2063727 1.101816 1.1649827 1.2127068
00000000: f1a7 943f 68b4 9c3f 1224 933f 01a8 9c3f
00000010: ab6e 903f 7ec0 9a3f e766 8d3f ae10 9b3f
00000020: 3901 913f 692d 973f b32d 983f 2a52 8e3f
00000030: 7767 963f c3cf 923f 5164 973f f34a 8b3f
00000040: 4be2 9c3f a426 9a3f 833b 843f c5e5 9b3f
00000050: 9525 a03f be4b 903f 6381 9b3f af34 963f
00000060: adf1 973f 5350 9c3f de71 933f bfc3 973f
00000070: bef6 923f c369 8d3f ba6c 963f 7126 963f
00000080: 8530 933f ac88 9d3f f88a 963f 8d98 973f
00000090: ef51 983f 5497 993f 47b6 953f 88f5 a03f
000000a0: cb6f 963f 159b 943f c44c 963f 4255 9b3f
000000b0: b561 9a3f 8558 983f cf90 9b3f 38a9 973f
000000c0: e902 8f3f 31e2 9d3f c0e7 9c3f 83bb 9b3f
000000d0: 828d 9b3f 9566 913f b716 993f 14d8 963f
000000e0: 8184 983f 86ad 953f f126 993f b826 9d3f
000000f0: 7f88 9c3f 9256 8e3f fdb8 913f 5fcc 943f
00000100: febe 9a3f e6b2 8e3f a768 973f 8434 9a3f
00000110: 0b6d a73f 64a4 983f 73f4 9c3f 52a2 923f
00000120: ae6c 8f3f 00d6 8a3f 0bef 9f3f d1c2 983f
00000130: 18ec 9b3f ce10 9a3f 37c8 8f3f 16a5 8c3f
00000140: 503b 973f 044e 923f f550 963f d693 9b3f
00000150: ce43 993f 755c 9d3f 5d83 9e3f 96f3 913f
00000160: b9f2 a03f b293 943f 98aa 913f b6e1 953f
00000170: 903d 953f 60a9 923f bc2c a13f 8793 993f
00000180: 3a0f 963f 9aca 943f 561f 8e3f 8ba2 983f
00000190: 4413 9c3f 6a56 983f 7324 8e3f 3557 963f
000001a0: b31e 953f 25a3 a73f 5dc1 903f 1e3f 953f
000001b0: a853 9b3f d1d7 943f 604c 9a3f 5ed6 993f
000001c0: c075 8b3f dff6 963f 5aeb 943f 8eca 9c3f
000001d0: 283c 953f 2231 963f 4998 933f 0b93 943f
000001e0: c607 8c3f a1df 913f dfa2 a03f 64e6 8b3f
000001f0: 6c6a 9a3f 4f08 8d3f 271e 953f fa39 9b3f

features.9.bias f4 [128]
-0.015901538 -0.017482862 0.022839561 -0.011070342 -0.021145115 0.017708655 -0.010249918 0.006208623
-0.047609683 -0.029447477 -0.018495498 -0.019408425 0.013646728 0.01919362 0.016359124 0.013255083
-0.0016051594 0.0026949535 -0.020736376 -0.06371804 -0.04283877 -0.023126218 -0.0109274145 -0.019905563
-0.008819726 0.007267356 -0.0246898 -0.01103021 0.031085856 -0.016062886 -0.023570724 -0.024631327
-0.00055804267 0.0152703505 -0.0012766434 -0.02765588 0.0066919453 -0.007124939 0.0039782086 -0.052787088
-0.043576833 -0.040759705 -0.0033687872 -0.0078101824 -0.009984314 -0.027197871 -0.020029657 0.010023284
-0.050929636 0.007296461 0.014125201 -0.030326702 0.018632399 -0.0012146261 -0.016126994 -0.026141051
-0.032939747 -0.020939957 -0.0013031395 -0.0201804 -0.007853456 9.63749e-05 -0.023259185 -0.00904347
-0.01948201 -0.0058888537 -0.03452879 -0.06229413 -0.022698868 -0.036536675 0.00589739 -0.004410116
-0.029598294 -0.007823529 -0.0010765241 -0.00446257 -0.022603028 0.038619228 0.0029402403 -0.038875192
-0.013594114 -0.016343003 -0.027859021 -0.009741677 -0.00723716 -0.03958212 0.024555808 -0.013085871
-0.030264497 0.013144075 -0.0382164 0.016118718 -0.04620829 0.017908582 0.003457829 -0.0009797334
-0.008411718 0.018831402 -0.02878368 0.0072763623 0.015495657 -0.011171463 -0.017466972 -0.031317852
-0.029110925 -0.0015569006 0.0013848804 -0.02649933 -0.01602915 0.011783799 0.0077536837 0.0027461187
-0.014802787 0.013548341 -0.02754285 -0.033432156 -0.015069375 -0.028100839 0.0032013417 -0.009779581
0.0020108335 -0.021465242 -0.008001421 -0.033632204 -0.016287519 -0.030611666 0.0051203924 -0.039234538
00000000: f143 82bc 3838 8fbc 081a bb3c 6160 35bc
00000010: 8538 adbc be11 913c 46ef 27bc b471 cb3b
00000020: 5f02 43bd d63b f1bc df83 97bc 6bfe 9ebc
00000030: 8796 5f3c f03b 9d3c 9203 863c d92b 593c
00000040: 3664 d2ba d19d 303b 55df a9bc 9b7e 82bd
00000050: b577 2fbd 3273 bdbc e608 33bc fe10 a3bc
00000060: 9d80 10bc 0023 ee3b 4342 cabc 0eb8 34bc
00000070: c4a7 fe3c 5096 83bc 6417 c1bc a3c7 c9bc
00000080: 9c49 12ba 7e30 7a3c 0b55 a7ba 968e e2bc
00000090: 1b48 db3b 5278 e9bb a25b 823b 4637 58bd
000000a0: 9f7d 32bd a6f3 26bd dfc6 5cbb 8fec ffbb
000000b0: 4095 23bc 12ce debc 3c15 a4bc b338 243c
000000c0: 989b 50bd 2717 ef3b 636d 673c b46f f8bc
000000d0: f9a2 983c 1734 9fba c21c 84bc c225 d6bc
000000e0: d4eb 06bd 468a abbc 1bce aaba 5e51 a5bc
000000f0: c8ab 00bc e11c ca38 0c8a bebc 102b 14bc
00000100: bc98 9fbc 49f7 c0bb 0f6e 0dbd 2128 7fbd
00000110: faf2 b9bc 7ba7 15bd e53e c13b bc82 90bb
00000120: 1f78 f2bc 422e 00bc 281a 8dba c03a 92bb
00000130: fc29 b9bc 322f 1e3d 0cb1 403b 983b 1fbd
00000140: d9b9 5ebc c3e1 85bc 9a38 e4bc 8e9b 1fbc
00000150: b325 edbb dc20 22bd 4329 c93c 1f66 56bc
00000160: 40ed f7bc 3f5a 573c cd88 1cbd 670b 843c
00000170: e744 3dbd 05b5 923c be9c 623b 666a 80ba
00000180: 4dd1 09bc 5044 9a3c c1cb ebbc 8d6e ee3b
00000190: 7fe1 7d3c 8308 37bc e516 8fbc 2647 00bd
000001a0: 097a eebc ea10 ccba e084 b53a 1f15 d9bc
000001b0: 904f 83bc d610 413c 9d12 fe3b 3af8 333b
000001c0: 6487 72bc dcf9 5d3c 8ba1 e1bc 28f0 08bd
000001d0: 8ae5 76bc bb33 e6bc 9acd 513b 893a 20bc
000001e0: 30c8 033b e0d7 afbc 6418 03bc ecc1 09bd
000001f0: 676d 85bc 51c5 fabc f7c8 a73b 65b4 20bd

features.9.running_mean f4 [128]
1.0954405 0.9981008 -0.44752908 0.6697271 0.6364824 0.27008605 -0.21058875 -0.38834265
0.7175992 -0.0042707827 0.9736111 -0.11593673 -0.4242569 -0.7041194 0.35916582 -1.038751
0.24156317 0.33986264 0.2538928 0.9998753 1.3977976 -1.0429899 0.34187627 0.5880499
0.12476279 0.008571393 0.6309172 0.6536497 -0.25697592 0.5784979 -0.19217986 0.5904462
0.11052328 0.40901676 0.4856492 0.23534167 0.7355279 1.1299483 0.87049615 1.3391415
0.2092217 0.8213675 -0.009339903 0.10762219 0.2260985 0.637957 0.34788984 0.20961428
0.20425989 0.48406148 0.007539628 0.8734572 -0.8462097 -0.52432835 1.3490081 0.8345271
0.8104849 0.25054562 0.3140735 1.1703566 0.43725184 -0.42894804 0.93608576 1.1422751
-0.27874535 0.035278123 0.445264 0.06938211 -0.46772394 -0.3640033 -0.0042324057 0.53412277
-0.18846986 0.31078044 0.037568733 0.71853185 0.58243847 -1.0159768 0.471203 1.2498348
0.13344719 0.007348189 1.9652426 -0.8450097 0.76500505 -0.048495118 -0.091367066 0.24483266
0.8754429 0.020039834 0.32884523 0.3913625 0.27757853 -0.33949918 0.4638409 0.46013737
0.7832894 -0.069507934 1.1129495 -0.67146015 -0.107299864 0.14251556 0.3673037 -0.18845375
0.6522559 0.42589584 -0.17277187 0.26427013 -0.33989143 -0.43352154 0.59984994 -0.4689964
0.07855158 -0.83003116 -0.004305048 0.51852804 0.1958615 1.4439436 -0.96810347 0.14129475
0.3582591 -0.36461738 1.0776999 1.6514356 1.4776195 0.38356 0.40043676 0.6415432
00000000: 6537 8c3f 8983 7f3f 8822 e5be 3c73 2b3f
00000010: 83f0 223f b848 8a3e 94a4 57be d9d4 c6be
00000020: 95b4 373f ecf1 8bbb 943e 793f 3c70 edbd
00000030: 3338 d9be 2b41 34bf 95e4 b73e cbf5 84bf
00000040: 565c 773e 7a02 ae3e 3dfe 813e d4f7 7f3f
00000050: 08eb b23f b180 85bf 680a af3e 708a 163f
00000060: a283 ff3d 076f 0c3c ca83 213f 9655 273f
00000070: 5992 83be 7018 143f ccca 44be 7b27 173f
00000080: 085a e23d a56a d13e 03a7 f83e 68fd 703e
00000090: 8e4b 3c3f 25a2 903f d6d8 5e3f fd68 ab3f
000000a0: 373e 563e 2445 523f 6406 19bc 0669 dc3d
000000b0: 5d86 673e 2651 233f 9e1e b23e 20a5 563e
000000c0: 8129 513e e8d6 f73e fc0e f73b e49a 5f3f
000000d0: 33a1 58bf 623a 06bf 4cac ac3f 91a3 553f
000000e0: f07b 4f3f 8447 803e 3ece a03e 3fce 953f
000000f0: 79df df3e 149f dbbe 51a3 6f3f 1236 923f
00000100: b6b7 8ebe cb7f 103d a5f9 e33e 3518 8e3d
00000110: 8379 efbe a45e babe feaf 8abb 45bc 083f
00000120: 3efe 40be 9d1e 9f3e ace1 193d b4f1 373f
00000130: b01a 153f 870b 82bf 8541 f13e 96fa 9f3f
00000140: 61a6 083e 14c9 f03b 128d fb3f 8e52 58bf
00000150: 5fd7 433f d1a2 46bd a81e bbbd 6ab5 7a3e
00000160: 071d 603f 942a a43c 675e a83e aa60 c83e
00000170: c61e 8e3e d6d2 adbe 8e7c ed3e 2097 eb3e
00000180: a785 483f 2d5a 8ebd 2175 8e3f d0e4 2bbf
00000190: 08c0 dbbd 99ef 113e 3b0f bc3e 05fa 40be
000001a0: 3efa 263f 050f da3e 1ceb 30be 6a4e 873e
000001b0: 4006 aebe 89f6 ddbe c48f 193f 4c20 f0be
000001c0: a7df a03d ec7c 54bf 5c11 8dbb 41be 043f
000001d0: eb8f 483e 25d3 b83f a1d5 77bf 92af 103e
000001e0: bd6d b73e 21af babe 12f2 893f 3e62 d33f
000001f0: a322 bd3f fa61 c43e 0c06 cd3e 2d3c 243f

features.9.running_var f4 [128]
1.188123 0.5343628 0.8697878 0.8233036 0.6088852 1.2377576 0.8136934 0.8041075
0.7741354 0.6943634 0.882541 0.9748735 1.3769947 0.9734042 1.1233649 1.0727283
1.1502514 0.6671854 1.0225977 0.84958327 1.324065 0.84615564 0.57591385 0.80026406
0.66691923 1.1359767 0.7461733 1.0385833 0.6195805 0.8833505 0.83586115 0.95914
1.1838938 0.9204503 1.3052152 0.7642606 1.0886083 1.3549325 0.75486815 0.90712816
0.91057813 0.87758374 1.1440066 0.6960878 0.5388944 0.98471785 1.0221742 1.9121171
0.8396797 1.7216882 1.3526255 0.6598048 1.5111239 0.9158956 1.1566404 0.8992227
0.68784 0.81308746 1.1997149 0.53617674 0.7169389 0.835659 0.88311994 1.229507
0.65797204 1.6722139 0.56962705 0.6893094 0.6554629 0.8694545 0.6156614 0.9885115
1.5829268 0.89752096 0.70094156 0.76974267 0.7458569 0.63327825 0.61099094 0.91548645
0.6240536 1.0426 1.3318261 1.1237415 1.022086 0.6224165 1.4699895 0.6896158
1.4799521 0.9736677 0.70202225 0.85053927 0.70316535 0.8720108 0.89905035 1.0312725
0.8467112 1.3590724 0.9210373 1.0955 1.4015518 0.79103786 0.79823506 0.6847033
0.9445309 0.49392334 1.0780184 0.9965331 1.3837466 0.5885102 1.1775148 1.1733891
1.0749404 0.8110045 1.0003189 0.8333715 1.2939571 0.8311344 0.88652015 0.7638662
0.9880564 0.763809 1.0127605 1.5457226 0.97706807 0.7842726 1.4718992 1.0383579
00000000: 6a14 983f 00cc 083f 6aaa 5e3f 06c4 523f
00000010: e7df 1b3f d76e 9e3f 364e 503f fdd9 4d3f
00000020: bd2d 463f cdc1 313f 35ee 613f 4f91 793f
00000030: 5d41 b03f 0531 793f 6cca 8f3f 294f 893f
00000040: 703b 933f aacc 2a3f 7be4 823f 4a7e 593f
00000050: f67a a93f a89d 583f 176f 133f 1bde 4c3f
00000060: 38bb 2a3f af67 913f 3705 3f3f 4cf0 843f
00000070: d49c 1e3f 4223 623f fffa 553f 338a 753f
00000080: d589 973f a2a2 6b3f 4b11 a73f 95a6 433f
00000090: 8457 8b3f 6e6e ad3f 0a3f 413f 8d39 683f
000000a0: a61b 693f 54a9 603f cf6e 923f cf32 323f
000000b0: fcf4 093f 7816 7c3f 9bd6 823f 41c0 f43f
000000c0: 40f5 563f 4760 dc3f d522 ad3f f8e8 283f
000000d0: 826c c13f 2278 6a3f cb0c 943f 7533 663f
000000e0: 4816 303f 8026 503f 4290 993f e142 093f
000000f0: 4f89 373f c0ed 553f 2614 623f 7c60 9d3f
00000100: db70 283f 1b0b d63f 14d3 113f 9576 303f
00000110: 6bcc 273f 9294 5e3f fc9b 1d3f 170f 7d3f
00000120: 589d ca3f efc3 653f e870 333f db0d 453f
00000130: 7af0 3e3f 861e 223f e769 1c3f 525d 6a3f
00000140: fac1 1f3f eb73 853f 4779 aa3f c3d6 8f3f
00000150: b7d3 823f b056 1f3f 9e28 bc3f a98a 303f
00000160: 126f bd3f 4942 793f bbb7 333f f1bc 593f
00000170: a502 343f 1a3c 5f3f 2a28 663f bd00 843f
00000180: 11c2 583f 16f6 ad3f 1ac9 6b3f 5839 8c3f
00000190: 0d66 b33f 7581 4a3f 2259 4c3f b748 2f3f
000001a0: c7cc 713f 85e3 fc3e 82fc 893f cb1c 7f3f
000001b0: 9c1e b13f 9ba8 163f ceb8 963f 9d31 963f
000001c0: a697 893f fe9d 4f3f 730a 803f d657 553f
000001d0: 63a0 a53f 39c5 543f fcf2 623f bc8c 433f
000001e0: 44f1 7c3f fd88 433f 23a2 813f 3dda c53f
000001f0: 2221 7a3f 17c6 483f 3167 bc3f e9e8 843f
