CNN Model Checkpoints/model3.pth (torch, 387015 bytes, 20 tensors)

features.0.weight f4 [32, 3, 3, 3]
00000000: e5de ffbd 82ed 013e aea9 99bc 2327 4c3b
00000010: fa55 3abe 9165 143c 30da b13c 2617 323e
00000020: 6b57 b43e 5337 663d 5ab5 a5be 1b41 8c3d
00000030: cc89 ca3e 86a0 c9be 2dcd bc3e beb1 cabd
00000040: 15b8 92be e4f6 d9be aef0 d1bd 3d0f 7e3e
00000050: 01ae a93e a9ff 053e cc5c 6a3e b9d8 be3d
00000060: 09e8 c53e eca6 48bb 918c 9d3e bcb5 aa3c
00000070: 8637 a53e 7265 433f 138a 08bd 22b5 703e
00000080: f887 8d3e 4da9 813e 17c2 993e 755f 543e
00000090: 4ef8 483d a401 103d c1e2 a9be c53e 533e
000000a0: 6d94 99be 864d 17be 66a9 55be 2981 2bbe
000000b0: 56b8 6e3d 2090 bdbe bb71 aa3c 8e8a b23e
000000c0: d31b 8dbe 9970 f0be ce8e a9be 0a0a be3d
000000d0: 83ef 70bd 69a9 323e e65c a7be 75eb 7cbd
000000e0: bafd e43d bdf1 91bd 96a4 59be 801d b3bd
000000f0: 1975 35bf ba23 793e 197b 7d3e 5cda f5be
00000100: 6b30 55be e8c3 c13e d1f1 5a3d e37d 01be
00000110: 2780 133f 8514 dcbe 43fe d63d 7c10 c5bd
00000120: f967 27be 3c4e 6bbc c4a4 833b 65ca 153f
00000130: f84c b03d d301 babe ad4e 0c3e ea22 f13d
00000140: ab59 98bd d8f5 c8be 058f 97be ff63 06be
00000150: bdd3 5abe 4c25 023c cd3e 5fbd 6fb6 8a3e
00000160: 03af 14be c8c1 d83d 0236 9abd be40 37be
00000170: cf9c f9bd 03bf efbd c0cd 06be d541 e8bd
00000180: ba8b 503e fda4 dabe 2260 b23e fbdc a93e
00000190: 71d9 1b3e 23e3 17be e44e 353c 05b6 02bf
000001a0: a9df 963e 9570 f53e d8e3 533e eb3b abbe
000001b0: d8d8 72be 0392 503e fcb6 003b 67e4 fcbd
000001c0: e31e 303e 9d96 133e c03f bb3e 94e4 a23e
000001d0: f68d 5d3e 37b4 613e 566d 74bd e23c 433e
000001e0: deea 40bd b468 dd3e 3808 cc3e 4f75 d33e
000001f0: 6116 05be 3ece 2b3b 3d37 2fbe a85e acbd
00000200: ebba a33e 5e1d 333d a375 c7be 710f 913e
00000210: a65b 203d 035b 1d3d 3d62 1d3e 5e83 443e
00000220: abf3 033e 600a c6be 80eb df3d 3f11 043e
00000230: 7fb8 99be 9b0f 383d ffe4 1b3e 2220 1b3e
00000240: 3560 dd3b 41c0 0e3e ee05 a73e d275 31bd
00000250: 8ec0 033f 2d59 1e3e b57d 913e 6f57 bfbe
00000260: 9d05 403e cbe1 86bb 22d8 9c3e 0744 ca3d
00000270: 6a69 98bc 088d 18be b213 803e e3a1 9d3d
00000280: 5688 b9be 8cae abbe 0a7e 583e 68fb 823e
00000290: dc58 9bbe e8cc 53be d6dc b73d ef94 94bd
000002a0: ab9d fdbd 1c8d 9abd 1ee6 053f 9572 bebd
000002b0: aeb7 4abd a8e1 05be d75d 57bd 9a57 6d3d
000002c0: f2f0 903e e754 49be 4a92 2b3d dc42 3b3c
000002d0: 77dd 8ebe 0d42 6e3e d653 ecbe 5041 2dbe
000002e0: 8339 e4be 9ed2 fabe 7537 f3bd dcc0 37be
000002f0: 6c7b 9dbe e137 843c f212 b63d 9f7a 7a3d
00000300: a368 cabd 5e67 f33c 1007 bd3d dba0 1ebe
00000310: bd04 663e dc41 103e 4d62 123e 30ce 09be
00000320: 2c5d bb3e c36a b6be 91c7 f9be dc39 07bd
00000330: 6877 b7be 8700 0c3e e187 133e cf7c 153e
00000340: 738c 2abe 32e4 bc3e 34ff 9fbe c50f a6be
00000350: 5109 1dbe dcc6 27bf eadc 1b3f 5c85 083e
00000360: e691 78bd 57cf f93d a675 92be d3ff c33e
00000370: 06a5 e2bd 026c 3e3e 3328 b8be 7fa2 523e
00000380: 5ce4 15be 8e30 f03e 0b35 27be da83 9e3e
00000390: 65ca 43bb e9d9 f53d 3513 593d ae34 033f
000003a0: 65ad 113d bbf0 723f 1c2a e53e 0be1 e3be
000003b0: 501b 85be baed 2bbe 074c 2bbf 72d5 06bf
000003c0: 131e 07bd 48bb 95be 8f95 553d 4799 1ebe
000003d0: 026d f3bb a3b4 8b3e 09f1 b53e b5da ebbc
000003e0: c1da a0bd dcb9 0fbe 641e 663e 85e3 19be
000003f0: f7ba 69be 657c d0bd e47d d2bd d556 98be
-0.12493686 0.12688258 -0.018757667 0.0031151257 -0.1819686 0.009057418 0.021710485 0.17391643
0.35222945 0.056205105 -0.32364923 0.068483554 0.39558256 -0.39380282 0.36875287 -0.09897183
-0.28656068 -0.42571175 -0.10250984 0.248105 0.33140567 0.13085808 0.22886962 0.0931868
0.3865359 -0.0030617071 0.30771306 0.02083861 0.32268924 0.7632667 -0.033334803 0.23506597
0.27642798 0.2532448 0.3003089 0.20739539 0.049064927 0.035157815 -0.33180812 0.20629413
-0.29996052 -0.14775667 -0.20865402 -0.1674849 0.058281265 -0.3702402 0.020806184 0.34871334
-0.2756029 -0.46960905 -0.33116764 0.092792585 -0.058822166 0.17447437 -0.32688063 -0.061747987
0.11181207 -0.07126186 -0.21254191 -0.08745861 -0.708818 0.24330035 0.2475399 -0.48018157
-0.20819251 0.37844777 0.05345327 -0.12645678 0.5761742 -0.42984405 0.10497715 -0.09622285
-0.16348256 -0.014361914 0.0040174443 0.58511955 0.086084306 -0.36329517 0.13701887 0.117742375
-0.07438978 -0.39250064 -0.29601303 -0.13124083 -0.21369834 0.007943463 -0.05450325 0.2709231
-0.14519887 0.10583836 -0.075298324 -0.17895791 -0.12188112 -0.117063545 -0.13164425 -0.113406815
0.20365801 -0.42704 0.3483897 0.33176407 0.15219666 -0.1483274 0.011066172 -0.5105899
0.29467514 0.47937456 0.20692384 -0.3344415 -0.23715532 0.20368199 0.0019640317 -0.12348252
0.17199282 0.14412923 0.36572075 0.31815016 0.21636185 0.22041403 -0.059674583 0.19066194
-0.047098987 0.43243945 0.3985002 0.41300437 -0.12996818 0.002621546 -0.17110915 -0.08416492
0.31978545 0.04372918 -0.38956937 0.28332093 0.039149903 0.038416874 0.15369506 0.19190738
0.1288592 -0.3867979 0.1093359 0.12897204 -0.30023572 0.044936758 0.15224074 0.15148976
0.0067558535 0.13940527 0.32621711 -0.043325253 0.5146569 0.15463705 0.2841622 -0.37371394
0.18752141 -0.004116272 0.30633646 0.098762564 -0.018604953 -0.14897549 0.25015026 0.07696893
-0.3623683 -0.33531606 0.2114183 0.25582433 -0.30341232 -0.20683634 0.08977668 -0.07254969
-0.123835884 -0.07546446 0.52304256 -0.092991985 -0.049491577 -0.13074362 -0.052579727 0.05794487
0.28308827 -0.19661294 0.04188756 0.011429515 -0.2790334 0.23267384 -0.46157712 -0.16919446
-0.44575128 -0.48988813 -0.11875812 -0.17944664 -0.30758226 0.016139926 0.08890332 0.061152097
-0.09883239 0.029712375 0.09229863 -0.15491049 0.22462745 0.14087623 0.14295311 -0.1345756
0.36594522 -0.35628328 -0.4878507 -0.033014163 -0.35833287 0.13672076 0.14407302 0.14598392
-0.1665514 0.3689285 -0.31249392 -0.32433906 -0.15335585 -0.6553781 0.60883963 0.13332123
-0.060686015 0.1219775 -0.28605384 0.38281116 -0.11066632 0.18595889 -0.3596817 0.205698
-0.14637893 0.46912044 -0.16328828 0.3095997 -0.0029875275 0.12004454 0.052996833 0.5125226
0.035565753 0.94898576 0.4475869 -0.44507632 -0.259974 -0.16789904 -0.66912884 -0.5266944
-0.032987665 -0.29244447 0.052144583 -0.15488158 -0.007428766 0.27286252 0.35535458 -0.028790811
-0.07854224 -0.14035743 0.2247253 -0.15028198 -0.22825228 -0.101799764 -0.10277918 -0.29753748

features.0.bias f4 [32]
00000000: 8dbf 733d 6bd8 0ebd 520a 043d f670 83bc
00000010: 7b18 ce3c 5ffc 513d a5da c6bb 9b72 81bb
00000020: d8d4 3d3c 248d 023d 763c 8dba 3648 bfbc
00000030: 55e2 56bc 6897 7bbc b48a 983d 4e60 c93b
00000040: 8433 02bd e473 88bb 22b5 a33c 6f27 d4bc
00000050: 1e74 303d e81c bc3c 96d1 073d 1d69 b2bd
00000060: 58a8 b1b9 fd2f f73c f3b0 d0bc 8b76 61bd
00000070: 763b 613c bcec 85bc f9cf cf3d 37ad c63b
0.05950885 -0.03487436 0.032236405 -0.016045075 0.025158158 0.05126607 -0.006068545 -0.0039504296
0.01158639 0.031872883 -0.0010775465 -0.023349863 -0.013115485 -0.015355922 0.074483305 0.0061455136
-0.03178741 -0.004164206 0.019983832 -0.02589771 0.043079488 0.022963002 0.03315886 -0.08711455
-0.00033885497 0.03017425 -0.025475001 -0.055044692 0.013747087 -0.016348235 0.101470895 0.0060631293

features.1.weight f4 [32]
00000000: 4eba 903f 5c5d a13f 9fb9 803f 8000 843f
00000010: a29c 633f cee4 6f3f ef20 6e3f dc10 863f
00000020: f551 803f 65fd 893f 215e 8e3f 1b80 803f
00000030: 4548 893f d72c 773f 8215 793f c0aa 623f
00000040: fab4 6e3f 860c 793f cfb8 653f 151c 7d3f
00000050: 2332 8b3f 3556 5d3f 76e3 7b3f 4e5b 763f
00000060: 8a3e 693f 6201 7f3f c64e 843f bc4c 7b3f
00000070: 2b1e 813f 0d9c 843f ef00 7d3f 2adb 803f
1.1306856 1.2606616 1.0056647 1.0312653 0.8891088 0.93708503 0.93019 1.0473895
1.0025011 1.0780455 1.1122476 1.0039095 1.072518 0.96552795 0.97298443 0.88541794
0.932449 0.97284734 0.8973512 0.98870975 1.0874676 0.86459666 0.9839395 0.9623307
0.9111105 0.99611485 1.033654 0.9816396 1.0087332 1.0360123 0.9882955 1.0066884

features.1.bias f4 [32]
00000000: d3a3 17be 3d04 173d d68c c13d a11c e6bd
00000010: 4794 02bd d1b0 22be 302a 98bd c344 08be
00000020: 3edd 8abe c4eb d1bc 2d81 56bd 5636 e63c
00000030: 40c8 353e e45d 8c3d b387 96bc d28e b63b
00000040: bcba 5c3c 9f6d e2bd 634f 223d b0d4 44bd
00000050: ca6a 44bd 7dfc dabc 7d41 bbbc c118 febc
00000060: fefe 42be 36df 5dbd b46d 0a3e bb8e 683e
00000070: ed29 c6bc c4b0 86bd 0d66 b9bd cdaa d5bb
-0.14808588 0.036869276 0.094506904 -0.11235929 -0.03187969 -0.15887763 -0.074299216 -0.1330748
-0.2712192 -0.025625117 -0.052369285 0.028102081 0.1775217 0.06853846 -0.018375253 0.0055712247
0.013472255 -0.11056065 0.03962649 -0.048054397 -0.047953404 -0.026731724 -0.022858376 -0.031017663
-0.19042584 -0.05416795 0.13518411 0.22710697 -0.024189914 -0.06576684 -0.09052668 -0.006520605

features.1.running_mean f4 [32]
00000000: 7774 153f 74c3 c63d a080 29be 4862 86be
00000010: 6857 513f b6ee cd3e 0c2f 47bf 3899 3cbe
00000020: c3a0 a0bd d993 75bf b679 2cbf 7e28 bdbe
00000030: 67bc d23e d575 64bd 7a81 0d3f 88c8 a2bd
00000040: d2a1 b33e f4fd 21bd 7782 d73d fcca b7be
00000050: e873 383e 0873 0b3f 9277 423e 41a5 903e
00000060: beb1 ce3e 448f 02bd d60a 2abe 7a5b 243f
00000070: 8a90 f03c 285b 343e 1552 6abe e214 c1be
0.58380836 0.097052485 -0.16552973 -0.26246858 0.81773996 0.40221184 -0.7780616 -0.18417823
-0.07843163 -0.9592872 -0.67373216 -0.36944956 0.41159365 -0.055776436 0.5527569 -0.079484046
0.35084397 -0.03954883 0.10522931 -0.35897052 0.18012965 0.544724 0.18990925 0.2825108
0.40369982 -0.03187491 -0.16605696 0.6420208 0.029365797 0.17612898 -0.22882874 -0.37711245

features.1.running_var f4 [32]
00000000: 8718 0a3d 1b76 633e e016 cf3d ae69 e73d
00000010: 2b46 a63e 85b4 2d3e cdbe c93d f701 5f3d
00000020: 2853 da3e 2f9d 8a3e 3dca 043e 06e7 543d
00000030: 1625 263e ef3d 2e3d c9e0 a63d 751d a43d
00000040: af03 673e e406 423e 3dc6 d33d 4531 aa3e
00000050: 6e7a 243d 43df 9e3d a088 c93c b4b0 3b3d
00000060: 3fa4 b53e a4f3 613d 4404 963d e7aa e13d
00000070: 9a37 8f3d bbc0 0c3e fa5f ca3d e401 4a3d
0.033714797 0.22213022 0.10111785 0.11299454 0.3247541 0.16963394 0.098508455 0.054445233
0.42641568 0.27073047 0.12967773 0.051978134 0.16225085 0.042539533 0.08148343 0.08013431
0.22559999 0.18947941 0.10340545 0.33240715 0.04015582 0.077574275 0.02460128 0.045822814
0.35476872 0.055163994 0.07325032 0.11018925 0.06993027 0.13745396 0.09881587 0.04931821

features.4.weight f4 [64, 32, 3, 3]
00000000: 1731 e6bb 17fd a13d 4246 02be 4f37 0c3d
00000010: a6b5 cb3c 9e17 3abc 8151 c63d 3b4b 4e3d
00000020: 6468 1d3e cbb8 0ebe 3164 613d 21e5 6dbe
00000030: 4ca9 e3bc 2efe 99bc acbc 4d3c 4165 e7bd
00000040: cb02 45bd e506 5abd ff8b 92bc f2ce 9a3d
00000050: 9fe7 833d c2c7 bf3d 41a1 c8bd 5f91 db3c
00000060: 26a3 9c3d 8675 6cbd 36de d33d 00eb 31bd
00000070: 602b 603d 614d d1bd c0ad dd3d 44cf da3c
00000080: 68c2 2ebe 7f7d 0ebe 8c04 03be b550 b2bd
00000090: 3c31 40bd cf6a ff3c b3ab f6bd 30df 9bbd
000000a0: a469 18be 286c a73d 8bdb af3c bf1b 38be
000000b0: 6e04 3ebd 622c db3d 7b6a 8abd 9415 aabb
000000c0: 601d 9cbd e279 b53d a485 403d 82cd 013e
000000d0: c1b7 1d3d a8d6 a5bd 325a 39be a958 533d
000000e0: bb06 41ba a63a 1ebd 8cb0 da3c cde8 963b
000000f0: e378 ee3d 445f 923d e1ac 303d 4fa7 3cbd
00000100: 0084 0dbe 714f d8bd da2d 72bd 06cb f03c
00000110: 72da 58bc bb6f 1f3d 4106 333d 7d03 2abd
00000120: 18c1 9ebd 9266 2c3c f34c bbbc 0ab8 86bc
00000130: d75e 86bc a1f4 13bd 85b1 e23d dd51 4c3d
00000140: 28e6 a73d 64ba 703d c1f2 ed3a 37c5 38bd
00000150: edf1 6a3d ca94 01be 4ee7 583c d13f 0b3d
00000160: cdb0 22bd d27f f8bc b5f6 07be 0576 0ebe
00000170: 9210 c0bd a654 d13c 05e5 f3bd 3747 923d
00000180: 0129 10be 4823 f53c 5c9f acbd 32b6 1abc
00000190: 5e1e 1a3d 2ef0 2a3d f5d5 b63d b5aa 0cbe
000001a0: 3caa 073d a63f 18be 2119 4cbe 0bae e7bd
000001b0: 9afb 013d 548d c3bc df43 113e d499 2ebd
000001c0: 4c23 573d 2a20 173d 774c f83a 05c0 e3bc
000001d0: 1f04 5e3c 8207 43bd 60c6 e4bd 1052 bc3b
000001e0: 26a3 d5bc f2c2 29bd 8373 33bd 8256 bf3c
000001f0: b141 913d 52ea 00be 355b 7fbc 7961 26be
00000200: 0377 d7bc 7028 98bd 7856 c5bc 354e b2bd
00000210: e3e2 7abc da36 b9bd 46dc 873d 6fba ae3d
00000220: 66dd 013d af9f c83c 1f27 4d3e fbd7 ae3c
00000230: 07ee e1bd c2cb 71bd 2715 cbbd b7cc 6d3c
00000240: e8b1 303d d1d1 13be 710c 7d3d aefb f13d
00000250: a367 8a3d 6b83 393d fb74 8139 8729 9dbd
00000260: 466f 043c 3882 d13d fedf e83d a448 a4bd
00000270: c2b0 dabd 1a53 d6bd 7e49 52be d5df c83d
00000280: 31e1 fdbd 12b7 c4bd 318a 64be 5c46 c6bc
00000290: 7591 1abd 1d11 693e 6a37 a63c cfbc 09be
000002a0: 44df afbd 4014 5cbc 1143 3e3d 7c29 433c
000002b0: 6916 6ebd 122f b03d b7bf d3bc 315d 1e3d
000002c0: 5db5 c53c 1934 7a3b e77a aabd 32b6 b9bb
000002d0: f39f f1bd 14b3 77be 9df7 ca3d dd95 9bbd
000002e0: 114a ddbd 95b2 ea3c 595c 6bbe 8d0e b83c
000002f0: 8814 aaba 31c7 06be a2cc b13b 9c6e 603e
00000300: 7f82 47bd 5dbf a2bd 2b6a a4bc 9d5d 2f3d
00000310: 06a5 d6bd 850c 75bd 7ed5 8ebd 2727 0b3d
00000320: 567d 8ebd 7124 013e 36e9 65bd 221a 76bd
00000330: cd45 c4b9 6278 2a3d 4f90 4dbe d1f7 15be
00000340: 42e1 65bb cdef f63c aad5 a33d 46fb 063c
00000350: 38c9 75bd 34c0 aabd a36c 68bd 38af 16bd
00000360: 5d0a c8bd fc04 633d 078f 3d3d c2b0 a33c
00000370: 5b17 94bb 486d cebc 8b28 7a3d ce75 1c3d
00000380: c115 bfbc 167f 11bd 2730 40be cf6c 53bd
00000390: 00a7 44bc 7b11 c43d 0bae d53c 7084 6a3d
000003a0: b86e 0cbd 43e2 a8bd 18ce 51bd 8707 3cbe
000003b0: f667 eebd 3281 1d3d 5c8c 623c 65ef f63b
000003c0: ef76 403d 3cd2 09bd c1c3 0f3b 213d 24be
000003d0: c8d7 41bd 5d24 b0bc 3ff4 cb3d e15c 5c3d
000003e0: 134c 03be 36b0 8cbc c15c 4a3c 8714 1bbd
000003f0: fc97 bb3d 6fbb ed3c 0c22 92bd cede 64bd
-0.007024895 0.07909601 -0.12722114 0.034232434 0.02486689 -0.01135817 0.096835144 0.050364714
0.15371853 -0.1393768 0.05502719 -0.23231937 -0.027790688 -0.01879796 0.01255719 -0.112986095
-0.048098367 -0.05322923 -0.017889021 0.07559003 0.064406626 0.09364273 -0.09796382 0.026802717
0.076483056 -0.057729267 0.10345118 -0.043437004 0.054728866 -0.10219837 0.10824156 0.02671016
-0.17066348 -0.1391506 -0.12794703 -0.087068 -0.046921954 0.03117886 -0.12044468 -0.07610929
-0.14884049 0.08174926 0.021466991 -0.17979334 -0.046390943 0.10701825 -0.06758591 -0.0051905606
-0.0762279 0.08861138 0.04700245 0.12676051 0.03850532 -0.08097583 -0.18100813 0.051598225
-0.00073633686 -0.03863015 0.026695512 0.0046053887 0.11644151 0.07147077 0.04313362 -0.046057995
-0.13819885 -0.10562027 -0.05912576 0.029393684 -0.013235675 0.038924914 0.043707136 -0.041507233
-0.077516735 0.010522502 -0.02286384 -0.016445179 -0.016402645 -0.03612197 0.110690154 0.04988276
0.08198196 0.058771506 0.0018154011 -0.045109954 0.057359625 -0.12654415 0.013238741 0.033996407
-0.03971939 -0.030334387 -0.13277705 -0.13912208 -0.093781605 0.025553059 -0.119089164 0.071424894
-0.14078142 0.02992405 -0.08428833 -0.009442853 0.037626617 0.04173296 0.08927528 -0.13736995
0.033121333 -0.1486803 -0.19931461 -0.11312493 0.031734087 -0.023871101 0.14186047 -0.04262717
0.052523896 0.03689591 0.0018943687 -0.027801523 0.013550787 -0.047614582 -0.111706495 0.0057470873
-0.026078772 -0.04144568 -0.043811332 0.02335668 0.07092608 -0.12589386 -0.01558571 -0.1624812
-0.026301866 -0.07429588 -0.024089083 -0.08706323 -0.015312883 -0.09043665 0.06633811 0.08531653
0.031705283 0.024490206 0.20034455 0.021343222 -0.11031728 -0.05903221 -0.09916144 0.01451414
0.043138415 -0.14435507 0.061779443 0.11815582 0.067580484 0.045291346 0.00024691955 -0.07673936
0.00808317 0.102299154 0.11370848 -0.080216676 -0.10678245 -0.10465069 -0.20535848 0.098083176
-0.123964675 -0.096052304 -0.22318341 -0.024203472 -0.037736375 0.22760434 0.020290095 -0.13450931
-0.085875064 -0.013432562 0.04645068 0.011911746 -0.05812684 0.08602728 -0.025848253 0.038663093
0.024134332 0.0038178025 -0.08324223 -0.0056674713 -0.11798086 -0.24189407 0.0991051 -0.075969435
-0.10805143 0.028649608 -0.22984447 0.022467876 -0.001297609 -0.13161923 0.0054260055 0.21917194
-0.048708435 -0.07946656 -0.020070156 0.042813886 -0.104806945 -0.059826393 -0.06974314 0.033972885
-0.069575 0.12611558 -0.05613061 -0.060083516 -0.0003743604 0.041618712 -0.2007458 -0.14645316
-0.003507689 0.030143643 0.079997376 0.008238619 -0.06000635 -0.08337441 -0.05674423 -0.036788195
-0.09767602 0.055424675 0.04627898 0.019981746 -0.0045193858 -0.025198594 0.06107382 0.038198285
-0.023325803 -0.03552159 -0.18768369 -0.05161744 -0.0120027065 0.09573647 0.026083967 0.05725521
-0.034285277 -0.08246281 -0.051221937 -0.18362246 -0.11640923 0.03845329 0.01382741 0.0075358623
0.046988424 -0.03364776 0.0021936747 -0.16038944 -0.047324926 -0.021501714 0.099586956 0.053799514
-0.12821989 -0.017173868 0.012351216 -0.037861373 0.09159848 0.02902004 -0.071354 -0.055876546

features.4.bias f4 [64]
00000000: 6b41 abbc 7f91 5a3c e4a3 4bbc f92d eebc
00000010: 3067 b13c 3bc0 b0bd d643 213c 9885 16bc
00000020: 3ef0 f53c adf0 253d 243e 193c e012 6c3d
00000030: 057b c9bd a48e 473d cace ee3c e241 b03c
00000040: 210a 2cbd d2d5 12bd 9e7b 16bd 5e9a a63d
00000050: b3f2 7ebb 4663 1f3c f33c 79bc 6287 50bd
00000060: 44ef 023d 9ff3 4dbd e5b1 aebb 8b2a 203c
00000070: 3766 63bc 2c57 54bb 5050 a23c f683 de3c
00000080: 15a7 11bc 8841 3bbd 1ec0 9d3d dc8f 6a3b
00000090: 3402 dbbc 4c84 f5b9 8c00 c83c ba67 0d3d
000000a0: 6f94 cebc 5ddc 2e3c ba09 e7bc c2f5 cf3b
000000b0: 9cf3 dfbc 4634 9dbc e8e2 0c3d c572 90bd
000000c0: f13b b4bb f9d8 3ebc 186c 3fbd 0f0f 1f3d
000000d0: 4541 d0bb 3908 143c 65d5 e0bb 5a31 ee3c
000000e0: 02cc 5fbc 3f4b e63c 98ef 06bc 0b71 833d
000000f0: 6b50 b73d ce3d 3bbd e3dd a8bd 5016 763c
-0.020905217 0.013340353 -0.012429211 -0.029074656 0.021655649 -0.08630415 0.0098428335 -0.009187125
0.030021783 0.04051273 0.009353194 0.057635188 -0.09837917 0.048720017 0.02915134 0.02151579
-0.042001847 -0.035848446 -0.036738984 0.08134912 -0.0038901984 0.0097282585 -0.015212285 -0.05091036
0.031966463 -0.050281163 -0.0053312653 0.009775768 -0.01387935 -0.0032400591 0.019813687 0.027162533
-0.008889933 -0.045716792 0.07702659 0.0035791313 -0.026734449 -0.0004682861 0.024414323 0.03452275
-0.025217263 0.010672656 -0.02820288 0.0063464353 -0.027337842 -0.019189965 0.034396082 -0.070531406
-0.0055003096 -0.01164841 -0.046733946 0.03883272 -0.006355437 0.009035164 -0.006861376 0.029076267
-0.013659479 0.028112052 -0.008235835 0.064180456 0.089508854 -0.04571324 -0.082454465 0.015019968

features.5.weight f4 [64]
00000000: 05c7 8a3f 7431 8b3f 3dab 6d3f bfa4 853f
00000010: 125f 783f 4ce2 623f c962 813f 7de0 833f
00000020: 09fc 813f 4357 783f 9e59 763f 94e3 8d3f
00000030: 33c8 803f 3029 873f d400 863f ad75 5b3f
00000040: 1beb 7c3f dc90 803f aed4 7e3f 26e4 853f
00000050: 32f0 843f 78f6 733f bf5a 8c3f 62c8 853f
00000060: 1515 7d3f 1e80 7b3f cd71 7e3f c792 793f
00000070: ccc0 703f bd99 6d3f f056 793f fdc2 7f3f
00000080: 0aca 613f 220a 693f 56e9 863f ad87 893f
00000090: 6444 893f 96ee 823f 2230 703f 19b2 903f
000000a0: 4dc8 793f 001e 733f 4544 893f 4aee 843f
000000b0: 2441 783f a2f4 6e3f 0240 723f 6878 7f3f
000000c0: be6f 723f 1009 813f 3ca8 873f cb5c 813f
000000d0: 602a 813f d21d 833f 2ffe 7a3f d589 813f
000000e0: 5ead 843f 306d 773f b3a6 803f 562a 603f
000000f0: 0442 803f a418 7f3f 3edd 883f 9d60 703f
1.0841986 1.0874467 0.92839414 1.0440902 0.97020066 0.8862655 1.0108272 1.0302883
1.015504 0.9700815 0.96230495 1.1085076 1.0061096 1.0559444 1.0469003 0.85726434
0.9879624 1.0044208 0.99543273 1.046025 1.0385802 0.95297956 1.0965194 1.0451777
0.98860294 0.98242366 0.99392396 0.9748959 0.94044185 0.9281271 0.9739828 0.99906904
0.8819891 0.91031086 1.0539958 1.074453 1.0723996 1.0229061 0.93823445 1.1304351
0.9757126 0.9496765 1.0723959 1.038522 0.96974397 0.9334203 0.9462892 0.997931
0.94701755 1.0080891 1.0598216 1.0106443 1.0091057 1.0243475 0.98044103 1.0120188
1.0365407 0.9665098 1.0050873 0.875646 1.0020146 0.99646974 1.0692518 0.9389742

features.5.bias f4 [64]
00000000: 9193 29bd a823 3abe c1a1 4dbe c3e3 94be
00000010: b841 763b de92 14bd db4e d8bd 3ec3 40be
00000020: 940a 21be 3b8a 38be 7f18 16be e442 25be
00000030: d026 a5be 672a 0bbe 950f 53be 1a36 15be
00000040: bdec 11be da74 72bd b4b6 13be cec6 1fbe
00000050: 7e99 14be 7c9d 89be ae57 4bbe 9aca 73be
00000060: 2377 3cbe d44f 1bbe 6b6b 54be 9053 86be
00000070: 9d5b 76be 37c5 32be cb87 27bc 105d e1bd
00000080: 78a2 23be 712e 4cbe c7f6 6abe 6cbf c5bd
00000090: 1ec9 30be 3859 80be 0c9a 62be a700 9dbe
000000a0: 7b11 4fbe 52df 11be da1c 32be eb6c debd
000000b0: 6fec 6dbd 528a 6ebe 0bce 88be d561 0bbe
000000c0: e2f6 81be 90b8 09bd e635 92be 4175 47be
000000d0: 9e34 21be 0289 34be 9bc4 08be c92c 4fbe
000000e0: e26b d5bd eb25 83bd 2745 1fbe 10e3 b6bd
000000f0: f80d 6abe 165a 0fbe 1f53 43bd 2cae 34be
-0.041400496 -0.18177664 -0.20081235 -0.29080018 0.0037575793 -0.036272876 -0.105619155 -0.18824479
-0.15726691 -0.1802148 -0.14657782 -0.16138798 -0.32256174 -0.13590394 -0.20611413 -0.1457142
-0.14250465 -0.05919347 -0.14425164 -0.15603182 -0.14511678 -0.26877964 -0.19857666 -0.23807755
-0.18404822 -0.15167171 -0.20744102 -0.26235628 -0.24058385 -0.17458044 -0.010225247 -0.110040784
-0.15979946 -0.19939591 -0.229457 -0.096556515 -0.1726422 -0.25068069 -0.22129077 -0.3066456
-0.20221512 -0.14245346 -0.17393818 -0.10860618 -0.05808681 -0.23294953 -0.26719698 -0.13611539
-0.2538367 -0.03362328 -0.28556746 -0.19478323 -0.15742728 -0.1763039 -0.13356249 -0.20231928
-0.10420968 -0.06403717 -0.15553723 -0.089300275 -0.22856891 -0.13999209 -0.047686692 -0.17644566

features.5.running_mean f4 [64]
00000000: ca95 56c0 1b9d b7bf 5ac6 b33e 8633 623e
00000010: cf4f a1bf c436 d2be 96ed dabe d8bb 3bbe
00000020: 8516 e0bd 5a94 20bf 7690 7dbf 5335 82bf
00000030: 7949 2abf 9e0a 11bf ac1a 25bf 8b58 d9be
00000040: 36ea 90be 6dc7 d4bf d83b 0fbf 3130 a5be
00000050: 68a5 b8be b974 0cbf 1978 8abe 98d9 d53d
00000060: 41a2 3dbe b28a a2bf 1415 193f 376d 883e
00000070: 53ae 3040 6b64 b13f 56dd 53bf 8354 c83f
00000080: bfe7 2e3f 8e21 dabe 1a19 d8be d410 58bf
00000090: 9ec1 34bf cb85 48bf 54c9 4a3f b6ac 01be
000000a0: 48f5 903d 7a34 ebbd f0f9 18bf 58c9 92bf
000000b0: ee6b 01be fcc0 303f 1859 323f 1815 09bf
000000c0: 1be2 09be 4f5a 0ebf b8f9 c33e 3cb4 9c3f
000000d0: 884a 39bf 0a8e 003f 4698 5bbe a3ba 0dbf
000000e0: 7b8f 083e ca34 03bf 26bc fdbe 8dd0 98bc
000000f0: bf9d 4abf 8b99 bbbe a74f 46be a7ba b03e
-3.3528924 -1.434482 0.35112268 0.22089967 -1.2602481 -0.41057408 -0.4275939 -0.18333375
-0.10941795 -0.62726367 -0.99048555 -1.0172523 -0.6651836 -0.56656826 -0.64493823 -0.42450365
-0.2830369 -1.662336 -0.5595069 -0.3226333 -0.36063695 -0.54865605 -0.27044752 0.10441893
-0.18518926 -1.2698576 0.5979779 0.26645824 2.76064 1.385877 -0.82759607 1.5650791
0.68322366 -0.42603725 -0.4220665 -0.8440068 -0.70607936 -0.7832915 0.7921345 -0.1266354
0.07078034 -0.114846185 -0.59756374 -1.1467695 -0.12638828 0.6904447 0.69667196 -0.5354781
-0.13465159 -0.5560655 0.38276458 1.2242503 -0.7237935 0.50216734 -0.21444806 -0.5536291
0.13335983 -0.51252425 -0.49557608 -0.018654132 -0.7914695 -0.3664058 -0.19366322 0.34517404

features.5.running_var f4 [64]
00000000: c0ab 3940 3f97 a440 6c23 0c40 2506 1840
00000010: eed2 e23f 4d49 313f 70d6 be3f a4e7 f33f
00000020: ab08 a83f 8166 ad3f c6c3 5f3f 8110 763f
00000030: 2fb5 e73f e73f a13f 6151 c33f 0afc 523f
00000040: 32a9 a33f 13c6 0140 a561 4b3f 9659 a83f
00000050: 18ff 6f3f b5d3 743f 40fb df3f 23a0 3f40
00000060: c7fd 8f3f 99c3 0b40 8576 a43f d486 863f
00000070: de5c 9c40 7359 0940 7e53 8b3f b73b 0440
00000080: 7f53 ad40 7354 523f fcf1 963f 3fb8 f33f
00000090: a4df 9f3f a276 7e3f f273 ad3f c395 3e40
000000a0: de6b ba3f b150 9f3f 3bda 523f 54a8 dc3f
000000b0: 1235 0740 33ee a63f b196 9f3f 006a 6d3f
000000c0: 2c0b 633f a553 be3f eabf 3040 57cd 1240
000000d0: f9ad ae3f fbda c93f 8030 ac3f 11de c53f
000000e0: a0cf 483f daf2 993f 8ad7 853f a60d 563f
000000f0: 558b 773f a02f b43f 42e7 f43f e68d 903f
2.9011078 5.1434627 2.189662 2.375375 1.7720621 0.69252473 1.4909191 1.9055066
1.3127645 1.3546907 0.874081 0.9611893 1.8102168 1.2597626 1.525921 0.8241583
1.2786009 2.0277145 0.7944587 1.315234 0.9374862 0.9563554 1.749855 2.994149
1.1249322 2.1838133 1.2848669 1.0509896 4.8863363 2.1460845 1.0884855 2.0661447
5.4164424 0.8216011 1.1792598 1.9040602 1.2490125 0.9939977 1.3551009 2.9778907
1.4564168 1.24465 0.82364243 1.723887 2.1126142 1.3041443 1.2467862 0.9273987
0.8868892 1.4869276 2.7617135 2.293783 1.3646842 1.5769953 1.3452301 1.5458394
0.7844181 1.2027237 1.0456402 0.83614576 0.9669698 1.4077034 1.9133074 1.1293304

features.8.weight f4 [128, 64, 3, 3]
00000000: ddd0 4d3c 8e3f b7bc c324 533d 561d 86bd
00000010: 7f88 91bc 3b8d 3dbc f14e afbd ded7 0c3c
00000020: 02da 1dbe cb94 1cbd 2575 763d f53c 013d
00000030: fba6 a13c 97f6 953d 9373 183d cb03 4f3c
00000040: 0870 7ebd c299 fa3b 70a3 16bd ca34 8e3d
00000050: 77d4 453c 7f59 083e 453a c9bc f49f a4bd
00000060: 9756 123c e995 7b3d 8c1b 813c 664f e5bc
00000070: 681a b6bb ea68 ed3c 3348 0e3d 8f56 51bd
00000080: 60fb 72bd 2c2e cb3d 20f5 30bd 97b0 86bd
00000090: 30fe 4539 3197 e43b 8a03 263d ec02 e2bc
000000a0: 27e0 d53c 2659 cebb a6b8 c73d b153 633e
000000b0: 65aa 4b3d 4262 823d da55 713d bd76 21be
000000c0: c85c de3d 957d 863d dda6 853d 7009 a83b
000000d0: b59b 223d efb7 1dbe 1b59 503d 4028 653c
000000e0: e27f 96bd 612f a5bd 2fb3 e43d 341c 2c3d
000000f0: 719e 1dbc c8b3 aa3c 8b01 f4bd d54a a2bd
00000100: a499 77bd 17f3 9dbd 7199 953b 9cc6 bc3d
00000110: 81e8 a73c cbac d8bb 5a33 61bb 7559 a23c
00000120: a8ea 91bd 1edc 8abd 2f35 98bc 1f17 3fbd
00000130: f645 233c c927 35bd f9d1 adbd 5757 983d
00000140: f083 30bd 8102 dbbd c827 edbd 951c 75bc
00000150: dab1 563e 84e5 ddbd 4852 3b3e bccc 20bd
00000160: 1682 bd3b a8f6 1c3e 405e 91bc 5a96 aabc
00000170: 1b52 103c bf47 cfbc eef8 693c 2bee 28bd
00000180: 9068 08bc 0dc9 3abd f273 81bd 6edf 0b3e
00000190: 48a2 f7bc c258 d03c ab56 00b9 b35b 6fbd
000001a0: ec42 30bc a36b 8f3d 5c39 583b cd0a d33d
000001b0: c322 2cbd 243c 45bd 0296 1f3c 7533 11be
000001c0: cd8b 013b 007e 24bd 1e50 f2bc c354 8fbd
000001d0: e319 783d 4758 9dbc 0aa2 aa3c 8073 283d
000001e0: 351e 9d3d fe58 003d c093 e3bd 7169 bdbd
000001f0: 2e25 47ba 8a37 fc3d ced2 dbbd ce3c e3bb
00000200: 0959 6bbc 972d 91bd ebc0 2fbe dd41 d93b
00000210: bf55 a8bc 9743 1cbd 7325 f4bd a8d7 f03c
00000220: 7052 e4bd 823d 80bc 3a90 393d c9ae d8bd
00000230: 3e14 4a3d b3ac 16be ead7 7ebd e3a4 6ebd
00000240: 8836 43bd 12ed 08bc b66f a0bd 7abc 843d
00000250: a7e5 e7bb 9625 ec3c a9d8 29bc efc5 76bb
00000260: 4f3a a9bb 15a8 adbd 9a01 213d 0676 92bd
00000270: 1412 ff3c 6d60 103d 3dbf a63d f7e8 a6bc
00000280: 7c0d 5c3d 8405 5c3d a78b 4a3d 853e 4abd
00000290: 23cb 95bc c050 2abd 09df 823d 8561 1ebc
000002a0: 6d6e 5e3d 9d1a 413e c448 1c3d 3780 343d
000002b0: 07e0 763d 6f54 823c 2f24 12bc 5388 4dbd
000002c0: c21e 803d 9f19 b2bc 25e0 35bd 3527 cebd
000002d0: e9e4 a83c 2aba 253e bec1 cdbd dd04 afbd
000002e0: a228 323d a2f8 05be 2655 92bd 5103 713d
000002f0: f93f ab3c e1c0 b4bc 8a92 80bd 54a9 9c3c
00000300: ac48 a1bd 016b 04bd 0238 8dbc 6540 c23d
00000310: bc5c dfbd 4551 52bd 8788 2abd 5190 f9bc
00000320: 7e40 9c3a 46a6 9abc 0782 28be ec0c 32bc
00000330: 1f7c 8f3d fae8 a53d 437f 9bbd b985 28bd
00000340: c205 abbd b53d b53c c73f a03c fa5f b5bd
00000350: eec5 b73a 6de9 ffbb d591 463c af85 f23d
00000360: a15c 6fbd 8976 793d a884 c1bc 9cbd b0bc
00000370: 8b3e d33d 8a41 eebd 9e88 eb3c b2be 9fbd
00000380: de01 b3bc 832c a73d 703d 633a 2284 aabd
00000390: e310 fa3d 7d60 903c 740a 2e3d 2bd3 383d
000003a0: e458 ceb9 2771 40bc 1551 dfbc 8d1e 1f3d
000003b0: 78af 8dbc 5e75 b53e 7328 cabc 5300 443d
000003c0: 7ded 8d3c 6ea3 cebd f5d2 19be ae61 e9bd
000003d0: 7ab3 b1bd 95d7 5c3c 4487 19bd 579a 823c
000003e0: c47f 82bd 3497 35bc b610 98bc b10a 73bd
000003f0: 9b75 803d f525 38bd 2e13 c9bc 4ecc 543d
0.012562004 -0.022369172 0.05154873 -0.06548564 -0.017765282 -0.0115693165 -0.08559979 0.008596389
-0.15415195 -0.038227838 0.06017031 0.031552274 0.019732943 0.07322424 0.037219595 0.012635182
-0.06211856 0.007647724 -0.03677696 0.069436625 0.012074581 0.1331539 -0.024563918 -0.08038321
0.008931777 0.061422262 0.015760206 -0.027991962 -0.005557347 0.028980691 0.034736823 -0.05110794
-0.05932176 0.09920916 -0.04320252 -0.065766506 0.00018882076 0.006976031 0.04053072 -0.027589284
0.02610786 -0.0062972484 0.09752016 0.22199894 0.049723048 0.063663974 0.058919765 -0.15767951
0.1085754 0.065669216 0.06525967 0.005128078 0.039699275 -0.15402196 0.050866228 0.013986647
-0.073486105 -0.080656774 0.11166989 0.042019084 -0.009620295 0.02083768 -0.11914357 -0.07924429
-0.060449257 -0.07712381 0.004565411 0.09217569 0.020496609 -0.0066123954 -0.0034362883 0.019818047
-0.07124835 -0.06780265 -0.018580047 -0.04665291 0.00996541 -0.044227395 -0.08487315 0.07438534
-0.043094575 -0.10693837 -0.11579853 -0.014960428 0.20966282 -0.10834792 0.18293107 -0.03925775
0.0057833297 0.15328467 -0.017745137 -0.020823646 0.008808638 -0.025302766 0.014280541 -0.04124276
-0.008325711 -0.045601893 -0.06320943 0.1365945 -0.030228749 0.025432948 -0.00012239318 -0.05843706
-0.010758143 0.07002952 0.0032993173 0.103047945 -0.04202534 -0.048153058 0.0097403545 -0.14179786
0.0019767166 -0.040159225 -0.029579218 -0.06998589 0.060571562 -0.019207133 0.02082922 0.041125774
0.07671777 0.03133487 -0.111121655 -0.09248627 -0.0007596788 0.12315281 -0.10733567 -0.0069347387
-0.014364489 -0.07088774 -0.17163436 0.006630166 -0.0205487 -0.038150396 -0.11921205 0.029399708
-0.11148536 -0.01565433 0.04530356 -0.105802126 0.04933571 -0.14714317 -0.06221763 -0.058262717
-0.047659427 -0.008357303 -0.07833807 0.064812616 -0.0070769372 0.028826516 -0.010366597 -0.0037654599
-0.0051644216 -0.08479325 0.039308168 -0.071514174 0.03113655 0.03524821 0.081419446 -0.020374758
0.053723797 0.053716198 0.04944959 -0.04937603 -0.01828534 -0.041580915 0.06390197 -0.009666805
0.05430453 0.18857808 0.038155332 0.044067588 0.060272243 0.015909402 -0.00891976 -0.050178837
0.062558666 -0.021740733 -0.044403214 -0.10066072 0.020616965 0.16184297 -0.10046719 -0.085458495
0.04349578 -0.13083127 -0.07145147 0.058841053 0.020904528 -0.022064628 -0.0627795 0.01912371
-0.07875189 -0.03232861 -0.01723862 0.094849385 -0.109063596 -0.051347036 -0.04163411 -0.030464323
0.0011921076 -0.018878113 -0.16455851 -0.010867339 0.07006096 0.081010774 -0.075926326 -0.041143153
-0.083507076 0.02212415 0.019561661 -0.08856197 0.001402078 -0.007809809 0.01211973 0.11841904
-0.058437947 0.06090406 -0.023622826 -0.021574788 0.103146635 -0.11633594 0.028751668 -0.07800044
-0.021851476 0.08162787 0.00086685177 -0.083259836 0.12210252 0.017624134 0.042490438 0.04512326
-0.0003935761 -0.011745728 -0.027260343 0.038847495 -0.017295584 0.35441107 -0.02467749 0.04785187
0.017325157 -0.100897655 -0.1502188 -0.11395584 -0.086768106 0.013479133 -0.037482515 0.015942736
-0.063720256 -0.011083413 -0.018562656 -0.059336368 0.062724315 -0.044958074 -0.024545278 0.051952653

features.8.bias f4 [128]
00000000: 3200 043c c36c ccba 211a c4bb b085 aebb
00000010: cf27 42bc 65aa b1ba ee4a 1bb9 a531 533a
00000020: 6bf7 f43b 2893 4c3c 0a65 e2ba e83e e3bb
00000030: 0f4a e8b9 1f2b a23a d714 96bb 2aa8 033b
00000040: da7a 8a3c a2e1 50ba f02a de3a a366 0ebb
00000050: 876c f03b 8630 0dbc bc4b 663a 2fb7 8638
00000060: 6ad2 113a 1d0e 393c 467b ad3b 6b5b 9bbb
00000070: 2756 91ba 67c7 bd3b abbc d939 6c95 1c3c
00000080: 736f 073c 8123 51bb b524 00bc 4151 98bb
00000090: e740 2e3b 5035 b9b9 b86d 5fb8 add8 cabb
000000a0: 9bb9 e0ba eaa4 b23b 3c0e 6b3a 5d1b 96ba
000000b0: 8f34 873a 1d9a 12bc 6f0b 6eba ca92 a338
000000c0: fd3d ba3b 4cc3 213c 976a a5bb 44dd 173b
000000d0: cbb9 c23b 8663 93bb 0224 253c a573 993b
000000e0: f807 c8bb faa8 2d3c 2e45 5abc d2b1 db3b
000000f0: 4172 50bc b5c1 0b3c bcfc eabb 5e4e fe3b
00000100: b37d 51bb a347 aebb 7b26 913b 4287 243b
00000110: 2e0b 233c 97db e93a 6509 8d3b 35fe 12bc
00000120: b783 03bc 058f 17bc 5a31 83bb 9fc4 aaba
00000130: 7ad4 f139 2554 213b 0498 833a a6fa a239
00000140: 24f1 42b9 eeda d2bb 700a 0e3a f7ef 85bb
00000150: 478e ae39 3b5b bfba 889d 7fb9 9ecb 8bba
00000160: 3c0c 093c 8b62 3ebb e545 18b8 7b3d 623c
00000170: 9876 033c 5d96 463b 99a8 1abb 8b23 a33a
00000180: 3b16 80ba 81d0 a83a 90bd 3abc 8f84 caba
00000190: 6f48 90bb ec7e 83bc 99a6 19bb 6c99 9ebb
000001a0: dae4 6d3b d22f 233a 55c3 92bb 192e d33b
000001b0: 63ed 2bbb 911a 773c dae7 b639 9270 873c
000001c0: f45b 68bc ddff b13a a35a e83b b0f5 b0ba
000001d0: 6d78 2f3c eca2 8d3a 747e 8f38 7d74 c13b
000001e0: ba30 91bb e92a 203c 915e 0cbb 96af d83a
000001f0: 2dd6 8dba beb3 ba3a f483 1b3b da40 a23b
0.008056687 -0.0015596378 -0.00598456 -0.0053259954 -0.011850311 -0.001355481 -0.00014809865 0.0008056409
0.0074757836 0.012486257 -0.0017272544 -0.0069349892 -0.00044305666 0.001237247 -0.004580121 0.0020089247
0.016904283 -0.0007968192 0.0016950052 -0.0021728657 0.007337156 -0.008617526 0.0008785089 6.4237385e-05
0.0005562665 0.011294869 0.0052942364 -0.0047411225 -0.0011088297 0.005791593 0.00041530034 0.009557109
0.008266318 -0.003191203 -0.007821252 -0.004648358 0.0026588978 -0.0003532567 -5.3269527e-05 -0.0061903805
-0.0017145158 0.005451788 0.00089666597 -0.0011452247 0.0010315346 -0.008947876 -0.0009080683 7.799787e-05
0.005683659 0.009873223 -0.005048107 0.0023172656 0.0059425584 -0.004497948 0.010079386 0.0046829754
-0.0061044656 0.010599369 -0.013322158 0.0067045474 -0.012722553 0.00853007 -0.0071712416 0.007760807
-0.0031965792 -0.0053185984 0.004429636 0.0025105034 0.009951396 0.0017841932 0.0043040984 -0.0089717405
-0.008027009 -0.009250407 -0.004003686 -0.0013028568 0.0004612541 0.0024616804 0.0010039811 0.00031085795
-0.00018591114 -0.00643479 0.00054184254 -0.004087444 0.0003329387 -0.0014599332 -0.0002437738 -0.0010665541
0.008364733 -0.0029050435 -3.630472e-05 0.013808603 0.00802388 0.0030302026 -0.0023599027 0.0012446506
-0.000977225 0.0012879522 -0.011397734 -0.0015450882 -0.004403166 -0.016051732 -0.0023445247 -0.0048400667
0.0036299736 0.00062250823 -0.004478852 0.0064447043 -0.0026234023 0.0150820175 0.00034886488 0.01653317
-0.01418208 0.0013580282 0.007090883 -0.0013500955 0.010709864 0.0010806001 6.842325e-05 0.005903779
-0.0044308575 0.009775856 -0.002141867 0.0016531821 -0.0010821276 0.0014244241 0.0023729773 0.0049515786

features.9.weight f4 [128]
00000000: 7ca6 9e3f 51ef a23f ffce 983f bb13 a83f
00000010: 2973 9f3f df2c 9c3f 9e84 9f3f 1b52 a03f
00000020: fa20 a03f 1f40 9a3f 2b3d a33f 58ba a23f
00000030: c496 a03f 7cae a83f 851a a63f 71a9 aa3f
00000040: ef04 a73f db0d 9d3f f488 a33f 26c5 9e3f
00000050: c1bf a03f 39c3 a63f 419f ab3f 61c3 a73f
00000060: b783 a53f 855d 9f3f 8411 9c3f fcbf 9a3f
00000070: 4483 a43f 601b 9e3f 8e2a 9f3f b670 9a3f
00000080: 475d 9b3f c555 a03f 4e76 a93f 65f9 9c3f
00000090: 5053 a13f 6fba a33f 4a05 a23f 7fc3 a43f
000000a0: 00a2 9c3f 5d4f a03f 1689 a03f e285 913f
000000b0: 013d 9c3f 7a11 ac3f b236 a53f 65d3 a53f
000000c0: f426 a03f a132 ab3f ed97 9d3f d599 973f
000000d0: 467f a43f 555e a13f 812b 9d3f c785 ac3f
000000e0: ff7d a63f b81c 9c3f dfcb ac3f 2fe3 a43f
000000f0: aa9b ab3f 77ad a23f 5d91 a93f 3011 a03f
00000100: 1a92 a43f dcd3 a03f 1d34 913f 6c02 a23f
00000110: f6b6 a13f 16a0 a13f 9bfe a43f af1b a53f
00000120: 50da 993f d180 a83f 4d65 9f3f be86 973f
00000130: 991c 983f 7d36 993f e945 983f 4a2e ad3f
00000140: 7891 a03f 000c a53f e25b 993f 4352 aa3f
00000150: eb5c a63f 9edb a83f 0240 9b3f b3d9 9d3f
00000160: 7a3e a13f 0cf3 af3f cbf6 a93f 2f73 ac3f
00000170: 967b a33f 8d22 a43f 4165 a83f 06d2 a53f
00000180: 4327 913f fe30 9e3f b567 993f e678 983f
00000190: 16af 973f b68b aa3f 0d62 a43f edfb a73f
000001a0: 3505 9f3f ebc6 9e3f fd1e 9f3f e2d1 933f
000001b0: 6ade 993f 4655 a83f 253f a43f 9c06 ae3f
000001c0: cf4e ac3f 850b a53f 14d3 a23f e112 9d3f
000001d0: f764 9b3f 75cd a03f 69d4 983f f6d6 a13f
000001e0: e109 9c3f d7c4 a23f 7ada 913f ca1b 9d3f
000001f0: 4d53 963f 94be 9f3f 202f a03f 1c25 9c3f
1.2394557 1.2729284 1.193817 1.3131021 1.2457019 1.2201194 1.2462347 1.2525057
1.2510064 1.2050818 1.2753042 1.2713118 1.254601 1.3178248 1.2976843 1.333296
1.3048381 1.2269853 1.277617 1.2403915 1.2558519 1.3028327 1.3407975 1.31065
1.2930821 1.2450415 1.2192845 1.2089839 1.2852559 1.2352104 1.2434862 1.2065647
1.2137841 1.2526175 1.3239229 1.2263609 1.260355 1.279127 1.2657864 1.2872161
1.2236938 1.252422 1.2541835 1.1368983 1.2206117 1.3442833 1.2907317 1.2955137
1.2511888 1.3374826 1.2311989 1.1843821 1.2851341 1.2606913 1.2278901 1.3478326
1.3007201 1.2196264 1.3499717 1.2881831 1.340688 1.2709187 1.3247486 1.2505245
1.2857087 1.2564654 1.1344029 1.2656989 1.263396 1.2626979 1.28902 1.2899073
1.2019749 1.3164312 1.245279 1.1837995 1.1883727 1.1969754 1.1896335 1.3529751
1.2544394 1.2894287 1.1981165 1.3306354 1.2997106 1.3192022 1.2128909 1.2332062
1.2597191 1.3746047 1.327844 1.3472651 1.277209 1.2823044 1.31559 1.2954719
1.1340107 1.2358701 1.1984774 1.1911895 1.1850307 1.3323886 1.2842423 1.3123757
1.2423464 1.2404455 1.2431332 1.1548426 1.2021 1.3151023 1.283177 1.3595767
1.346155 1.289414 1.2720666 1.2271386 1.2140187 1.25627 1.1939822 1.2643726
1.2190515 1.2716321 1.1394799 1.2274106 1.1744171 1.2480035 1.2514381 1.2198825

features.9.bias f4 [128]
00000000: ad0b 69bc eb6a a3bc c9b1 3cbd 2073 c53c
00000010: 8424 3ebc ba17 e33b 20e5 cfbb 0cb6 4dbd
00000020: 024f e1bc d7cc d13c 51d6 cb3c 469e 41bd
00000030: 8ef0 25bd 5d71 973b 1ef9 15bb 2872 1a3d
00000040: 14d7 5c3c 61a3 b2bc 5da6 55bd 79f8 78bd
00000050: 253c 63bd e848 89bc 2b7e bdbc f740 dfbc
00000060: ee19 f0bb 6aa7 4bbd b805 64bd e116 d93c
00000070: 888f 2abd ff48 20bd f79b 7d3c dacf e3ba
00000080: a965 73bd 92c5 193d a4af 013c b81c 42bb
00000090: 2784 aa3c ac30 1abd 7459 ccbc bac7 243d
000000a0: bdde f3bc 1dba 8ebd 7cc8 013b c013 4abc
000000b0: f9cd 63bc ad6a 443d eb0a 943b ee04 e8bc
000000c0: 6202 873c 6660 dabc b935 873c 8bde 89bc
000000d0: 9336 963c 154a d33c 42a8 23bd eef7 adbc
000000e0: bb1f f8b8 c869 2cbd fad3 903c 2914 7fbd
000000f0: 280d e83b fe92 08bd 1826 7c3c fe50 3bbd
00000100: 0eab 73bc 1ff9 b63c 5c20 89bc 1633 13bd
00000110: 45c6 e7bc cc7a 6f3a e07e c93b 8022 9bbc
00000120: 866a 2fbd 5029 f73b ee98 15bd 7697 6fbd
00000130: de6f 8ebd 7716 42bd bd6f 57bd 5f32 abbc
00000140: bae2 8339 3dab 6a3b dcbd 50bc e9ab d8ba
00000150: 816e d0bc 7ff2 78bc 745e 9abd d637 32bd
00000160: 3988 19bd 6c93 043d 2916 1a3c f599 1cbd
00000170: ad3d bf3c 7a83 a0bc b89e 65bd 09df 37bc
00000180: 0aad 9a3c ca2f 02bd 97d8 4fbd 3cf7 6a3a
00000190: 6752 ffbb 4f74 bb3c f7b9 a03c 1b03 9a3c
000001a0: 81ce f4bc b62d 60bc 6de2 b8bc 3a3d 88ba
000001b0: b75e 2abd 9200 fdbc 5aaf bfbd bd58 db3c
000001c0: ec05 f23c d49f 913c 8d71 85bc d909 42bd
000001d0: 624d 58bc 1ccd 85bd 4d1b 60bd 317a fdbc
000001e0: a95f 3cbd b84c a5bd 775f 0abd 8d3e 073c
000001f0: 2ef6 0ebd 318b 183c a53d 36bd c356 94bc
-0.014223975 -0.019948443 -0.046067987 0.024102747 -0.011605386 0.0069303187 -0.0063444525 -0.05022244
-0.027503494 0.02561037 0.024882467 -0.047270082 -0.040512614 0.0046216683 -0.002288408 0.037706524
0.013479013 -0.02180642 -0.05216061 -0.060783837 -0.05547728 -0.016758397 -0.02313145 -0.027252657
-0.00732731 -0.049720205 -0.055669516 0.026500167 -0.04164079 -0.039132114 0.015479079 -0.001738067
-0.059423123 0.037541933 0.007915411 -0.0029619168 0.020814968 -0.037644073 -0.024944998 0.040229537
-0.029769296 -0.06969092 0.0019803336 -0.01233381 -0.013904088 0.047953296 0.004517903 -0.028322663
0.016480628 -0.026657294 0.01650511 -0.01682975 0.01833657 0.025792161 -0.039955385 -0.021236386
-0.00011831472 -0.04209307 0.017679203 -0.062275086 0.0070816465 -0.033343308 0.015389942 -0.045731537
-0.014872326 0.022335587 -0.016739063 -0.03593739 -0.028292784 0.00091354246 0.006149158 -0.01893735
-0.042826198 0.0075427666 -0.0365228 -0.058494054 -0.06954931 -0.047384705 -0.052596796 -0.020898042
0.00025155192 0.0035807632 -0.0127405785 -0.0016530725 -0.025443317 -0.015194534 -0.07537547 -0.04351028
-0.037483428 0.032367155 0.009404697 -0.038232762 0.023344839 -0.019593943 -0.05605957 -0.011222609
0.01888134 -0.031783856 -0.050743666 0.00089632324 -0.0077918055 0.022882609 0.019619925 0.018800309
-0.029883625 -0.013682773 -0.022568906 -0.0010394224 -0.041594233 -0.030884061 -0.093596175 0.026775712
0.02954384 0.017776407 -0.016289497 -0.047372673 -0.013202043 -0.06533262 -0.054713536 -0.030942054
-0.045989666 -0.080712736 -0.03378245 0.008254659 -0.034902744 0.00931053 -0.044492383 -0.018107777

features.9.running_mean f4 [128]
00000000: a2d9 63be 7fc7 893f 2f4f 343f 47ad c43d
00000010: 444a 313e 0508 393f 106b a23e 5134 85bf
00000020: ce1d a2bd d442 de3e 26b7 a1be d00b ee3d
00000030: 2ade d73e ceb7 efbc a871 793e ef8d 81be
00000040: 91aa b03e 30db 2f3f 54da 053f 1c71 083f
00000050: 2d71 ea3e f8a3 1a3f 0363 57bf 250f 8e3e
00000060: 7eb7 9a3e bbdb d13e cf11 203e 963b 4dbe
00000070: bb9d 703f 7f29 363f ee80 abbd 205e 233e
00000080: c74e 1f3f d323 043f 7cfb d6be e2dd 573c
00000090: edf0 ccbd 1da0 383f fced 883f b323 84bf
000000a0: 60bd fd3e 9c46 7b3f fec1 fe3d 923f a03f
000000b0: af71 a5be da2f 61bf a099 833e b73c 853f
000000c0: 191d bc3e 7705 abbf 8b9f bebd e79b cb3d
000000d0: 657e 1fbf 7e0c 20be 16de a23e 7908 58be
000000e0: 2f6a a43f 25e0 26bc 06fb 6d3e 5b34 b03f
000000f0: 98a7 5a3f 864b 123e 4c64 1a3f 3aa1 243f
00000100: 3ae6 06bf 457b 3e3f 270d 8c3f 1e54 16be
00000110: 1c3d 47bc 9f7a d73e ae75 7a3f 36e7 053f
00000120: 74be 6d3f f4be 893f 21fe 633f 1b4d 1a3f
00000130: 2ed8 28be d7af 373f e2a6 c83f cd71 133f
00000140: e33b 84bc 048f b73e b691 63bd d67e e0bd
00000150: ea09 c53f 86cf 193e 3c8a c43f c4b7 1d3f
00000160: a184 083f f7d6 a1bc 2c56 71be 99f3 2dbe
00000170: f270 fbbe 3cd9 1cbf 4155 b43f 3b3a 4bbf
00000180: 553a f6be 3734 363e 862b 4abb c607 df3e
00000190: 973f a6be dd09 fcbd 5d2c 76bf ec6f 33be
000001a0: 344e 123e 5c11 bc3d f726 003f cd18 a23d
000001b0: 4ed0 20be 10ec 8bbc 8b76 3d3f 8014 55be
000001c0: 55d5 2a3f c5ed 993e df32 663d 2783 153f
000001d0: 8160 6b3f b13a a8be 4987 a83d e9db e23e
000001e0: 4545 a33e 4646 573e 1e30 bcbd 06ff 1b3f
000001f0: 9d1e 473e d97c f1be 22c7 e2be 6591 953f
-0.22250989 1.0764006 0.70433325 0.096033625 0.17313486 0.7227786 0.31722307 -1.0406591
-0.07915841 0.4341036 -0.31585044 0.11623347 0.42161685 -0.02926245 0.24359763 -0.253036
0.34505132 0.6869383 0.5228627 0.5329759 0.4578947 0.60406446 -0.84135455 0.2774593
0.30218118 0.40987954 0.15631793 -0.20042261 0.9399068 0.7115707 -0.08374201 0.15953875
0.6222958 0.51617163 -0.41988742 0.01317546 -0.100068904 0.72119313 1.0697627 -1.0323395
0.49558544 0.98154616 0.12439345 1.25194 -0.32313296 -0.8796364 0.25703144 1.0409154
0.3674095 -1.3361043 -0.09307774 0.099418454 -0.6230224 -0.15629765 0.31810063 -0.21096982
1.2844905 -0.010185276 0.23240289 1.3765978 0.8541198 0.14286622 0.6030929 0.6430851
-0.5269505 0.74406844 1.0941514 -0.14680526 -0.012160566 0.4208574 0.97835815 0.52305925
0.92868733 1.0761399 0.89059645 0.60273904 -0.16488716 0.71752685 1.5675929 0.5759552
-0.016141837 0.358513 -0.055558883 -0.10961692 1.539365 0.1502057 1.5354686 0.6160853
0.53327376 -0.019755824 -0.23568028 -0.16987456 -0.49109608 -0.61268973 1.4088517 -0.7938573
-0.4809138 0.17793356 -0.0030848696 0.43560618 -0.3247039 -0.12306569 -0.96161443 -0.17523164
0.14287645 0.091829985 0.50059456 0.079148866 -0.15704462 -0.017080337 0.7400901 -0.20808601
0.6673177 0.30064216 0.05620086 0.5840325 0.9194413 -0.32857278 0.082289286 0.44308403
0.31888786 0.21022901 -0.09188865 0.6093601 0.19445272 -0.47165564 -0.4429255 1.1684996

features.9.running_var f4 [128]
00000000: 845f 5a3f 50b2 333f b15d 143f 0b87 f63e
00000010: dff7 b03f a276 6d3f ce78 5d3f 2d4b 8d3f
00000020: bf1b 163f a7b4 293f 7518 3d3f 3939 ce3e
00000030: 2e9a 4b3f d39a 313f 810e 3f3f f8bf 413f
00000040: 3ce5 203f 0d4d 153f 4eae 0d3f ce6c c83f
00000050: d9c9 433f 208f 293f 3e46 6a3f e809 633f
00000060: c64a 343f 1f6a fc3e a95b a73f 929d 093f
00000070: 8c2b 1a3f 0a1c 883f 7a5b 2d3f 2240 303f
00000080: e53f 573f fea4 0c3f 2de8 363f 0c87 753f
00000090: 76e2 853f f8ab 343f ad56 3c3f 67d4 2f3f
000000a0: e72f 783f fc04 553f 53bb 7e3f a6d0 a33f
000000b0: 6448 3f3f 96d2 453f 7c18 c93f 45ca b23f
000000c0: 3030 b03f b506 d93f 1bf7 623f 71fa 833f
000000d0: bac7 1b3f 08c9 e33f 958d 083f 5074 853f
000000e0: 8319 4c3f a25e 133f 314f 133f 5f2d f93f
000000f0: 5a49 3f3f 7634 4d3f dc5c 583f ceae 413f
00000100: 30e6 893f 42a7 263f 9088 643f 7517 353f
00000110: 9298 2f3f d8b2 3d3f ae3c 273f 8eeb 3c3f
00000120: 8d75 473f 5a6b ff3f a1f9 233f b169 2d3f
00000130: 789f 483f 91c0 643f f003 9d3f ba1d 6d3f
00000140: 5dd9 5e3f 8302 4a3f dba9 803f 24ca 2b3f
00000150: 140f 3c3f 8665 843f 644b 1d3f 0d50 313f
00000160: db9d 733f 73ba 033f 9be1 973f 6dca 483f
00000170: b663 9b3f a34b 5c3f e257 553f 8e35 353f
00000180: f59c fd3e b7a1 413f 5b14 5c3f 9e13 803f
00000190: 1367 383f 0cc6 453f 4271 923f c227 983f
000001a0: 0c8f 833f 83c9 623f 7ee7 933f 0cac 673f
000001b0: 91d7 2a3f bd7b 763f cf4c 313f 48c0 013f
000001c0: 4437 f53e 46cb 823f b9b9 4f3f 5eb4 233f
000001d0: e2ea 1b3f 0f62 413f c161 483f 8f6d 753f
000001e0: ee26 2b3f c83a 583f 3c28 193f 2034 653f
000001f0: de23 463f d084 aa3f f7f3 483f 5dc9 6c3f
0.85301995 0.7019396 0.5795546 0.48149905 1.3825644 0.92759144 0.8651246 1.1038567
0.5863609 0.6629128 0.73865443 0.40278032 0.79532135 0.6937687 0.74631506 0.75683546
0.62849784 0.58320695 0.5534409 1.5658205 0.7647987 0.66234016 0.9151343 0.8868699
0.70426595 0.49299714 1.3074847 0.5375606 0.602227 1.0633557 0.6771771 0.6884786
0.8408187 0.5493926 0.7144802 0.9590919 1.0459735 0.70574903 0.73569757 0.68683475
0.96948093 0.8321073 0.99504584 1.279805 0.74719834 0.77274454 1.5710597 1.3967978
1.3764706 1.6955172 0.88658303 1.0310804 0.60851634 1.7795725 0.5334104 1.0426121
0.7972643 0.57566273 0.5754271 1.9466971 0.747213 0.80158174 0.8451669 0.75657356
1.0773373 0.65098965 0.8927088 0.7073892 0.6859218 0.7410102 0.65326965 0.7379693
0.77913743 1.9954636 0.6405278 0.677394 0.7836833 0.89356333 1.2266827 0.92623484
0.8705042 0.7891008 1.0051836 0.6710532 0.7346051 1.0343482 0.6144316 0.6926277
0.95162743 0.51456374 1.1865724 0.7843388 1.2139804 0.8605291 0.83337224 0.7078484
0.4953381 0.7563738 0.8596856 1.0005987 0.7203228 0.7725532 1.1440814 1.1887133
1.027803 0.8858873 1.1555021 0.904969 0.6673518 0.9628256 0.69257826 0.5068402
0.47893727 1.0218284 0.81142765 0.63947093 0.6090528 0.7554025 0.7827416 0.958703
0.66856277 0.84464693 0.5982702 0.8953266 0.7739848 1.3321781 0.7849726 0.92494756
