CNN Model Checkpoints/model1.pth (torch, 380101 bytes, 8 tensors)

features.0.weight f4 [32, 3, 3, 3]
0.16721873 0.28870183 -0.301851 0.2696689 0.18331473 0.24879818 0.0882636 0.3437781
0.19381438 -0.029986229 -0.50066614 -0.3861171 -0.032641627 -0.43058467 -0.15371165 0.035265084
0.14342108 -0.2336619 0.003945393 -0.1775098 0.08841704 -0.42584324 -0.016522355 -0.335002
-0.4817209 -0.38722762 -0.47925568 0.33943698 0.026757773 0.04464193 -0.22227567 0.48004538
0.14709483 -0.71145153 -0.011622198 0.44234824 0.088085815 -0.29670686 0.034024794 -0.09771632
-0.17366473 -0.032014158 0.36255163 -0.09770675 -0.09160945 -0.41028208 0.037869856 0.0005949614
0.053247787 -0.54313487 -0.074031785 0.3568994 -0.21466354 -0.21441358 -0.18586956 0.45345265
-0.70378923 0.28851703 -0.25944525 -0.40654582 -0.20645323 0.22532308 -0.17901559 -0.35357228
0.10985541 0.19977544 0.18270777 -0.089600116 -0.27797246 -0.21895614 -0.17229906 -0.16499215
0.0014249857 -0.2398325 0.4002033 -0.22848427 0.24050172 -0.0683146 0.024080204 0.14510544
0.16033207 0.23249412 -0.04436818 -0.119591884 0.23529086 0.26933506 -0.0031161183 0.123162374
0.07329533 0.22374655 0.2851647 -0.27966934 -0.7128332 -0.19564728 -0.36837348 -0.3429639
0.03229252 0.63600093 -0.59465367 -0.0018568905 -0.16692089 -0.26515314 -0.13917579 -0.13266887
-0.4047557 0.1093118 0.29160893 -0.1468023 0.13246682 0.073752604 0.28054485 0.27033946
0.30770844 0.2304044 0.2377843 0.41983712 0.33171532 -0.2726719 0.24944979 0.37160492
-0.24069312 -0.26053333 -0.23671153 -0.42755353 -0.29119745 -0.33283532 -0.3135249 0.083741285
0.018548673 -0.27811146 -0.091867685 -0.40874767 -0.47498217 -0.21124095 -0.2953052 0.29574338
-0.059392918 0.05500446 0.32676202 -0.13323016 -0.27609268 0.28245032 -0.37181103 -0.5902769
0.011148885 0.24717239 0.11417216 -0.24145971 -0.19064657 0.06966881 0.20059766 -0.111962035
0.16179746 -0.35547566 0.06506207 -0.12520716 -0.41374087 0.067031346 -0.014998283 -0.33617413
-0.015984412 0.14935996 -0.056648776 -0.008424067 -0.11279469 0.24271594 -0.02328342 0.021514274
-0.00923601 0.0005942405 0.26020184 -0.9180345 0.25595722 -1.0820607 -0.33641335 -0.17221838
-0.7797576 -0.6643876 -0.7119504 0.13811252 -0.013421839 -0.0019722967 -0.20023704 -0.071352854
0.11096702 -0.0027861865 0.0034999212 0.0842232 0.050550092 -0.15359111 -0.5489515 -0.38678917
0.14601487 0.035498228 -0.17791124 0.24351747 0.14140955 0.054176454 0.26315817 0.13136944
-0.014202518 -0.18416879 0.26215056 0.22414331 -0.051498394 -0.2168347 0.30791387 -0.20186175
0.31048563 -0.13892183 -0.36028364 0.16505457 0.19486551 -0.41058815 -0.41230342 -0.042953577
0.030956212 0.13413289 0.13058038 0.12923431 0.22852984 0.1778314 0.120819606 0.07432044
0.0008244639 0.35226548 -0.020228617 0.073909 0.11160009 -0.08272664 -0.17359063 0.07339641
0.15062925 0.24900399 -0.1179283 -0.08005847 -0.19106016 -0.14022133 -0.21568967 -0.23696071
-0.08320989 -0.17487264 0.036647648 -0.02755116 0.06433951 0.23992737 -0.24048366 0.26272964
-0.038820315 -0.1494673 0.2444464 -0.2485958 0.28145093 0.15458083 -0.14240806 -0.14281419
00000000: 633b 2b3e bad0 933e 378c 9abe 0b12 8a3e
00000010: dbb6 3b3e f3c4 7e3e 8cc3 b43d af03 b03e
00000020: 4777 463e aea5 f5bc a82b 00bf 24b1 c5be
00000030: 3ab3 05bd 9875 dcbe 9666 1dbe 1f72 103d
00000040: fadc 123e 1145 6fbe 5b48 813b 21c5 35be
00000050: fe13 b53d 2008 dabe e459 87bc 6285 abbe
00000060: 1fa4 f6be b342 c6be 0061 f5be afca ad3e
00000070: 1e33 db3c 75da 363d 3c9c 63be 82c8 f53e
00000080: 07a0 163e b021 36bf 086b 3ebc 787b e23e
00000090: 5666 b43d f6e9 97be 955d 0b3d 7e1f c8bd
000000a0: 2bd5 31be 4721 03bd 5ea0 b93e 7a1a c8bd
000000b0: bc9d bbbd 7e10 d2be 6c1d 1b3d 2ff7 1b3a
000000c0: 5a1a 5a3d e30a 0bbf fa9d 97bd 85bb b63e
000000d0: c2d0 5bbe 3c8f 5bbe 9754 3ebe f22a e83e
000000e0: 882b 34bf 81b8 933e 02d6 84be c626 d0be
000000f0: 7a68 53be 18bb 663e dd4f 37be 6d07 b5be
00000100: e0fb e03d ef91 4c3e bf17 3b3e 4480 b7bd
00000110: 6852 8ebe 0a36 60be 2a6f 30be b4f3 28be
00000120: 96c6 ba3a a796 75be 72e7 cc3e c8f7 69be
00000130: 1546 763e 86e8 8bbd d943 c53c 8596 143e
00000140: 172e 243e f012 6e3e 69bb 35bd 97ec f4bd
00000150: 16f0 703e 49e6 893e ca37 4cbb 8e3c fc3d
00000160: dd1b 963d d11d 653e 1c01 923e d230 8fbe
00000170: 3d7c 36bf c357 48be 739b bcbe f798 afbe
00000180: 2945 043d f5d0 223f 393b 18bf e862 f3ba
00000190: 4fed 2abe 27c2 87be 1984 0ebe 59da 07be
000001a0: 243c cfbe ddde df3d c44d 953e 5853 16be
000001b0: 62a5 073e 9b0b 973d 93a3 8f3e ef69 8a3e
000001c0: f68b 9d3e 22ef 6b3e ba7d 733e e4f4 d63e
000001d0: 97d6 a93e a79b 8bbe c46f 7f3e 0043 be3e
000001e0: 4278 76be a064 85be 8264 72be 4ce8 dabe
000001f0: d517 95be 6469 aabe 5686 a0be 8d80 ab3d
00000200: 63f3 973c a064 8ebe 2025 bcbd 6047 d1be
00000210: dd30 f3be 8c4f 58be 3e32 97be ad6b 973e
00000220: fd45 73bd 5b4c 613d 5a4d a73e 7d6d 08be
00000230: 055c 8dbe 549d 903e 045e bebe 631c 17bf
00000240: d0a9 363c c21a 7d3e 18d3 e93d 3741 77be
00000250: db38 43be 85ae 8e3d 7969 4d3e 5a4c e5bd
00000260: 3cae 253e e800 b6be 433f 853d 4e36 00be
00000270: d8d5 d3be bb47 893d 5cbb 75bc 041f acbe
00000280: bef1 82bc d1f1 183e 8c08 68bd 1905 0abc
00000290: e700 e7bd 878a 783e dfbc bebc b43e b03c
000002a0: a252 17bc cec6 1b3a 2d39 853e 4f04 6bbf
000002b0: d30c 833e f780 8abf 5f3e acbe 045a 30be
000002c0: 329e 47bf 4e15 2abf 6242 36bf 5e6d 0d3e
000002d0: 46e7 5bbc a641 01bb f00a 4dbe 7221 92bd
000002e0: ad42 e33d 7498 36bb ef5e 653b 377d ac3d
000002f0: 9d0d 4f3d fd46 1dbe 1688 0cbf 3b09 c6be
00000300: ec84 153e 9766 113d 5d2e 36be a55c 793e
00000310: aacd 103e 21e8 5d3d abbc 863e b685 063e
00000320: aeb1 68bc be96 3cbe 9938 863e d385 653e
00000330: fbef 52bd ea09 5ebe e3a6 9d3e d9b4 4ebe
00000340: f9f7 9e3e 8641 0ebe 1977 b8be 1104 293e
00000350: d38a 473e 9c38 d2be 6f19 d3be 17f0 2fbd
00000360: e297 fd3c 225a 093e ddb6 053e 0056 043e
00000370: ba03 6a3e 6f19 363e 4570 f73d 5135 983d
00000380: d620 583a 245c b43e 7cb6 a5bc 9a5d 973d
00000390: 978e e43d 966c a9bd bec1 31be db50 963d
000003a0: 8e3e 1a3e e7fa 7e3e 6484 f1bd b2f5 a3bd
000003b0: 46a5 43be 2e96 0fbe c1dd 5cbe d4a5 72be
000003c0: f269 aabd d011 33be d81b 163d f8b2 e1bc
000003d0: 6fc4 833d 85af 753e 5941 76be 8084 863e
000003e0: 0d02 1fbd f50d 19be 2850 7a3e e68f 7ebe
000003f0: 561a 903e 704a 1e3e 6bd3 11be e23d 12be

features.0.bias f4 [32]
0.28287807 -0.0063762357 0.041708846 0.036824834 -0.059765317 -0.13800733 0.17573236 -0.0847079
-0.029131591 -0.19019964 -0.19962162 -0.031933624 0.020698374 0.1508426 0.18686183 0.11974068
0.0911271 -0.13090679 -0.2841447 0.11838979 0.21906795 0.026118798 0.18224488 -0.12140276
0.04260396 0.2269836 0.10697153 0.08065646 0.21311691 -0.12647237 -0.073734485 0.17500594
00000000: 65d5 903e beef d0bb e5d6 2a3d a3d5 163d
00000010: 7acc 74bd cb51 0dbe 2ff3 333e 567b adbd
00000020: 60a5 eebc b2c3 42be 9c69 4cbe d5cc 02bd
00000030: a38f a93c 7c76 1a3e b558 3f3e 9a3a f53d
00000040: d8a0 ba3d 6e0c 06be 6a7b 91be 5976 f23d
00000050: 5953 603e 17f7 d53c 679e 3a3e 03a2 f8bd
00000060: 7d81 2e3d 646e 683e e413 db3d 372f a53d
00000070: 523b 5a3e f981 01be 1b02 97bd c234 333e

features.3.weight f4 [64, 32, 3, 3]
0.14962003 0.1250357 -0.05428129 -0.30395362 -0.20585823 -0.073859006 -0.30508637 -0.47041985
0.08680754 -0.22893803 -0.24025154 -0.16076325 -0.020690262 -0.16995159 0.0004280188 0.44269896
0.32532746 -0.28552237 -1.0370264 -0.11611714 0.5005676 -0.05998991 -0.3196552 0.025410207
-0.1016258 -0.4175016 -0.092742264 -0.05885131 0.16008599 0.39819625 -0.30221346 -0.26875126
0.26432118 0.17820624 0.19080366 0.42064202 0.137561 0.24509768 -0.51339906 -0.066207245
0.18987554 -0.21127939 -0.24790217 0.19273464 -0.5111426 -0.03343067 -0.2740831 0.6499263
-0.13094722 -0.26193985 0.3743734 0.17612697 -0.258657 0.09630387 -0.11155661 -0.019748738
-0.03308674 -0.34954143 -0.33111978 -0.049989946 -0.07241652 -0.09412991 -0.0064609144 0.25906214
0.16422684 0.4710707 -0.2191577 -0.096781485 0.3348504 -0.27751246 0.03568855 0.0011063633
0.1474729 0.19574727 0.16681176 0.13036971 0.018234836 0.14923738 0.111244656 0.27247375
0.030823737 0.102111004 0.109735586 0.21005291 -0.30907458 0.032363936 0.06380856 0.121328376
-0.06483329 0.19521472 0.28652725 -0.08415336 -0.005823685 -0.07754758 0.15597233 -0.34282506
-0.53497666 0.19667988 0.034352478 -0.4732478 -0.903542 -0.5910946 -0.50398165 -0.57373446
-0.23401925 -0.71961015 -0.6696634 -0.042297717 -0.7071319 -0.8076153 -0.12498309 -0.66239715
-0.39181346 0.11555584 0.19281773 -0.14531338 -0.31793997 -0.098534524 -0.42011034 0.019261438
-0.29999602 -0.77791166 -0.2275151 -0.40521243 -0.4797099 -0.20146845 0.10799236 0.021101467
-0.38954666 -0.050318114 -0.05857564 -0.2014733 -0.11266085 0.19173844 -0.19791512 -0.3587246
-0.2143781 0.19109137 -1.1059171 0.10438188 0.0653495 0.3018397 0.056444492 0.119769044
-0.5316099 -0.38180414 0.0037815012 -0.12688638 -0.119686425 -0.31177464 0.04302803 0.31892753
-0.31548822 0.08219867 0.16414762 0.13785318 0.030854747 0.05086305 0.3027557 -0.10924224
0.18590835 -0.023569457 -0.35856992 -0.31381232 0.18474504 -0.3200584 -0.33460578 0.3232582
0.61630774 0.123276964 0.15053391 0.20495428 0.09045996 0.0012569351 -0.11718527 -0.18964809
-0.33617613 -0.036683045 0.30600026 0.030031612 0.06792152 -0.584984 -0.8119546 0.015538842
-0.9192925 -0.32245752 0.7991687 -0.23573014 -0.33435673 0.31763104 0.0788378 0.2671171
-0.03293391 -0.117983915 -0.025329867 0.22693798 -0.22659592 0.033229638 -0.18423109 0.16245766
0.3635293 -0.24182327 -0.16507366 -0.1312726 0.08869446 0.3025003 -0.27569643 -0.23213805
-0.29117605 0.41432285 -0.42523178 -0.48886296 0.24551219 0.35668033 0.012444878 0.31458622
0.0715757 0.010648979 -0.18875754 -0.12559086 -0.04951639 0.055881865 -0.16659334 -0.14009908
-0.09179575 0.01592394 -0.52200264 -0.26003954 -0.92816603 -0.40315554 -0.053168062 -0.33426607
-0.7375583 0.4374437 -0.6761749 -0.5763816 0.20346951 -0.43061736 -0.04817648 0.2166868
-0.32066235 -0.56494987 0.19591345 -0.29994297 -1.0362854 -0.01659471 -0.5979863 -0.22782628
0.19883202 -0.28204164 -0.022348385 0.13455065 -0.34491065 -0.7410985 -0.050779074 -0.2826858
00000000: fe35 193e 5c09 003e 0f56 5ebd cf9f 9bbe
00000010: 80cc 52be 6443 97bd 4834 9cbe dfda f0be
00000020: 27c8 b13d bb6e 6abe 8004 76be 1f9f 24be
00000030: a07e a9bc ca07 2ebe b667 e039 70a9 e23e
00000040: 5291 a63e fd2f 92be 48bd 84bf d3ce edbd
00000050: 3325 003f fbb7 75bd d9a9 a3be 1129 d03c
00000060: 3021 d0bd c5c2 d5be a8ef bdbd 120e 71bd
00000070: 95ed 233e 61e0 cb3e b9bb 9abe c499 89be
00000080: 1b55 873e b27b 363e 0962 433e 645e d73e
00000090: cadc 0c3e e3fa 7a3e 1f6e 03bf aa97 87bd
000000a0: bc6e 423e a059 58be 11da 7dbe 3b5c 453e
000000b0: 3eda 02bf 99ee 08bd 9f54 8cbe 9261 263f
000000c0: 0717 06be fb1c 86be dfad bf3e a15a 343e
000000d0: b16e 84be f73a c53d cb77 e4bd 1bc8 a1bc
000000e0: f685 07bd 18f7 b2be 8888 a9be 42c2 4cbd
000000f0: 1d4f 94bd 2fc7 c0bd 14b6 d3bb cba3 843e
00000100: 152b 283e 2e30 f13e e06a 60be 5f35 c6bd
00000110: 8371 ab3e 1d16 8ebe 282e 123d 6403 913a
00000120: 2303 173e f971 483e b4d0 2a3e a37f 053e
00000130: 3961 953c afd1 183e 3dd4 e33d ae81 8b3e
00000140: 1082 fc3c 931f d13d 0dbd e03d 1c18 573e
00000150: 063f 9ebe 0c90 043d 10ae 823d 037b f83d
00000160: 51c7 84bd 5ee6 473e b3b3 923e 9958 acbd
00000170: 9cd4 bebb 44d1 9ebd 36b7 1f3e c486 afbe
00000180: 3bf4 08bf 7366 493e 2fb5 0c3d 894d f2be
00000190: 874e 67bf fa51 17bf f104 01bf 43e0 12bf
000001a0: bea2 6fbe 5f38 38bf 106f 2bbf 5f40 2dbd
000001b0: 9906 35bf e0bf 4ebf 22f7 ffbd dc92 29bf
000001c0: c69b c8be 8aa8 ec3d 0372 453e 08cd 14be
000001d0: 07c9 a2be 78cc c9bd b418 d7be 2aca 9d3c
000001e0: 1499 99be 3825 47bf b8f9 68be 0178 cfbe
000001f0: 899c f5be bf4d 4ebe 192b dd3d fcdc ac3c
00000200: a972 c7be 5e1a 4ebd 03ed 6fbd 044f 4ebe
00000210: bbba e6bd 1557 443e 43aa 4abe c0aa b7be
00000220: ef85 5bbe 75ad 433e b18e 8dbf 2bc6 d53d
00000230: f5d5 853d bc8a 9a3e 5732 673d 7949 f53d
00000240: 9617 08bf d57b c3be 10d3 773b 81ee 01be
00000250: 281e f5bd eda0 9fbe 293e 303d 784a a33e
00000260: ac87 a1be c757 a83d 5016 283e 6229 0d3e
00000270: 18c3 fc3c c655 503d cc02 9b3e 65ba dfbd
00000280: c25e 3e3e bc14 c1bc 7a96 b7be 02ac a0be
00000290: ce2d 3d3e b2de a3be 7351 abbe 1982 a53e
000002a0: 58c6 1d3f a278 fc3d 9025 1a3e 89df 513e
000002b0: 1243 b93d bebf a43a d5fe efbd 1c33 42be
000002c0: 471f acbe f640 16bd 11ac 9c3e db04 f63c
000002d0: 701a 8b3d 83c1 15bf 42dc 4fbf a196 7e3c
000002e0: c156 6bbf 2719 a5be 5296 4c3f 3e63 71be
000002f0: ce30 abbe 89a0 a23e b675 a13d 93c3 883e
00000300: b5e5 06bd 8da1 f1bd 9580 cfbc 6e62 683e
00000310: c308 68be cd1b 083d 13a7 3cbe 4d5b 263e
00000320: 8320 ba3e 85a0 77be 1209 29be 536c 06be
00000330: 71a5 b53d 52e1 9a3e 1528 8dbe 99b5 6dbe
00000340: 0715 95be 2022 d43e fbb7 d9be 3f4c fabe
00000350: 8c67 7b3e ce9e b63e 9ae5 4b3c 7211 a13e
00000360: 4896 923d 0e79 2e3c a849 41be e49a 00be
00000370: b3d1 4abd 62e4 643d 7297 2abe 2276 0fbe
00000380: 69ff bbbd ec72 823c f7a1 05bf e723 85be
00000390: 4a9c 6dbf 676a cebe c1c6 59bd ec24 abbe
000003a0: 9fd0 3cbf 9ff8 df3e cc19 2dbf bf8d 13bf
000003b0: 505a 503e e179 dcbe b354 45bd 25e3 5d3e
000003c0: db2d a4be 8ea0 10bf 899d 483e 2092 99be
000003d0: 00a5 84bf a1f1 87bc a115 19bf 4b4b 69be
000003e0: 9f9a 4b3e c367 90be f613 b7bc a5c7 093e
000003f0: 2198 b0be a2b8 3dbf b8fd 4fbd 31bc 90be

features.3.bias f4 [64]
-0.22862022 -0.16194879 -0.015176283 -0.07707612 -0.20993894 -0.16041455 -0.081699856 -0.40048826
-0.101773635 0.16173522 -0.25785822 -0.1642936 -0.050968308 -0.24593069 -0.1299463 -0.18773662
-0.073493235 0.1002179 -0.12744388 -0.07987561 -0.045337822 -0.014145607 -0.13243493 -0.38544646
-0.29983804 -0.12241705 -0.25977352 -0.087007165 -0.1348351 -0.37833786 -0.27525488 -0.34456363
-0.22591381 0.13694791 -0.17429133 -0.080075346 -0.2475624 0.1521474 -0.051358413 -0.270837
0.14241672 -0.014390447 -0.13373303 -0.004342267 -0.07121365 0.009540696 0.19564052 -0.31537944
-0.29242194 -0.01244986 -0.29957122 -0.15622538 -0.09297273 -0.04883489 0.06872714 -0.21442367
-0.19867648 -0.06635189 -0.21888235 -0.26387975 -0.3526514 0.077602886 -0.07325905 -0.12266573
00000000: 6b1b 6abe e7d5 25be f2a5 78bc 16da 9dbd
00000010: 3cfa 56be b643 24be 4152 a7bd cc0c cdbe
00000020: b26e d0bd eb9d 253e fe05 84be 953c 28be
00000030: 25c4 50bd 41d5 7bbe a510 05be 073e 40be
00000040: 9f83 96bd 0b3f cd3d a680 02be d395 a3bd
00000050: 27b4 39bd fac2 67bc 069d 07be 3d59 c5be
00000060: 5f84 99be cab5 fabd 0901 85be d030 b2bd
00000070: 3612 0abe 80b5 c1be 35ee 8cbe a56a b0be
00000080: f355 67be 133c 0c3e 6d79 32be 8bfe a3bd
00000090: ff80 7dbe 87cc 1b3e 335d 52bd 26ab 8abe
000000a0: b0d5 113e e9c5 6bbc 50f1 08be 9349 8ebb
000000b0: 76d8 91bd 9450 1c3c fd55 483e 6a79 a1be
000000c0: 54b8 95be 7ffa 4bbc 6661 99be 8cf9 1fbe
000000d0: 7d68 bebd 1807 48bd d1c0 8c3d e191 5bbe
000000e0: d971 4bbe 80e3 87bd b222 60be 3f1b 87be
000000f0: b98e b4be 43ee 9e3d d708 96bd 2c38 fbbd

features.6.weight f4 [128, 64, 3, 3]
-0.639174 -0.32731766 -0.072327614 -0.6405423 -0.45069826 -0.027147869 0.30314937 -0.10666546
0.3467805 -0.09173321 0.05435214 0.04811027 -0.17751175 -0.016604044 0.13118908 -0.23336332
0.2597946 -0.14981738 -0.016498076 0.0011603783 -0.03422537 0.0006456671 0.03724612 0.021314144
-0.015847044 0.013955603 -0.01677172 -0.11073656 -0.041041974 0.3287685 0.015545275 -0.48679438
-0.072235115 0.053472515 0.115533605 -0.023507703 0.41807175 0.36469594 -0.43637013 -0.19044556
-0.12676834 -0.0588049 0.4427609 0.4944223 0.4392829 -0.575477 -0.5264862 0.0012106396
0.17738543 -0.46744275 -0.024028068 -0.1420234 0.11978574 -0.04856964 -0.41365597 -0.16274
0.12200614 -0.07095737 0.31152272 0.011848377 0.1324034 -0.06317567 0.09010792 0.60280144
0.17953335 -0.07966809 0.1943268 -0.58844084 -0.6040291 -0.31312886 -0.23491079 -0.4955077
0.00035472805 -0.01201237 0.0033927595 -0.036574148 0.0451039 -0.011214739 0.019592447 0.03365695
-0.021996455 -0.36580685 -0.15755758 -0.2772428 -0.6632836 -0.67181647 0.32940865 -0.3182621
0.13383295 0.17146437 0.07447586 0.16608839 -0.113014765 -0.44244778 -0.5796205 0.18285464
0.08993294 0.089121 -0.01347429 -0.7416925 -0.279554 -0.22654024 0.19839121 -0.38606232
0.14671637 0.11295279 0.19690952 -0.07948798 -0.04948563 -0.04181283 -0.009508633 -0.04080484
0.012521351 0.032368954 -0.016801745 0.017721245 0.055294845 -0.2723838 0.22127767 0.15808427
-0.12427281 -0.17358668 -0.27343982 0.22496873 -0.2615746 -0.2641518 -0.18152829 -0.037507404
-0.25696278 -0.23345438 -0.3209974 0.5337185 -0.13592988 -0.4966538 -0.37249714 0.08290377
0.1306412 -0.1659665 -0.12858197 0.14545415 0.24803115 -0.20711085 -0.2142254 -0.038774848
0.0449477 0.037787963 0.037259158 0.018865274 0.033560522 0.03496811 -0.022643818 -0.024869276
0.017467 -0.004507572 -0.04049386 0.20007916 -0.31123778 -0.44161168 0.13947025 -0.03557782
0.2721723 0.13312726 -0.14617853 -0.4591688 0.26975414 0.18061644 -0.6617414 0.18210715
-0.14199637 0.33939558 -0.17775527 0.13104106 -0.20740648 0.045229696 -0.30753487 -0.0538057
0.17290695 -0.4140683 -0.10774477 -0.33797863 0.023573952 0.05629505 0.10629016 0.08076878
0.11970667 0.03265105 0.09412908 0.09068875 0.047234844 -0.017526435 -0.015901376 -0.025437584
-0.017992258 -0.020631049 -0.009290562 -0.06388921 -0.026170293 -0.022555644 -0.21160895 0.1737705
-0.30549303 -0.66765326 0.5540186 0.44947398 -0.055218127 0.2077202 -0.03917752 -0.65086895
-0.25594938 0.021492388 0.007639082 -0.4392206 -0.12362292 0.019345706 0.11975065 0.10767165
-0.47995707 0.19858776 -0.3942042 0.38343668 -0.7009923 0.20409198 0.22329096 0.30482048
-0.14712955 -0.09508135 -0.16137582 -0.22271965 -0.49603012 0.009898276 0.1742289 -0.75832164
-0.31121406 0.035149883 -0.8743595 -0.46274352 -0.21103834 -0.0018475399 -0.066952094 0.309002
-0.11402961 0.26652765 0.1479192 -0.16264397 0.02914789 0.134043 -0.046128202 0.07273907
-0.41957247 -0.20538625 -0.054726254 -0.34344104 -0.77240866 -0.19948702 0.009834349 0.048512656
00000000: e8a0 23bf 2e96 a7be 8020 94bd 95fa 23bf
00000010: ecc1 e6be 3565 debc 6536 9b3e 6c73 dabd
00000020: 378d b13e 9fde bbbd 59a0 5e3d 460f 453d
00000030: a4c5 35be 3405 88bc 6e56 063e cbf6 6ebe
00000040: cc03 853e ba69 19be f926 87bc d617 983a
00000050: e72f 0cbd fc41 293a 638f 183d 009b ae3c
00000060: a9d1 81bc 0ba6 643c d964 89bc d9c9 e2bd
00000070: a11b 28bd 5854 a83e 9cb1 7e3c 1d3d f9be
00000080: 01f0 93bd ff05 5b3d e29c ec3d 3a93 c0bc
00000090: 800d d63e 6db9 ba3e e86b dfbe 2904 43be
000000a0: 8fcf 01be 68dd 70bd 8fb1 e23e eb24 fd3e
000000b0: b0e9 e03e 7652 13bf cdc7 06bf 53ae 9e3a
000000c0: 87a4 353e a854 efbe 83d6 c4bc 956e 11be
000000d0: 3a52 f53d f5f0 46bd b7ca d3be 51a5 26be
000000e0: 5bde f93d 1952 91bd e87f 9f3e b21f 423c
000000f0: c294 073e 3f62 81bd 808a b83d 3251 1a3f
00000100: 97d7 373e 0629 a3bd 9bfd 463e 0fa4 16bf
00000110: a7a1 1abf 6d52 a0be 748c 70be 2fb3 fdbe
00000120: cbfa b939 88cf 44bc 0f59 5e3b c6ce 15bd
00000130: debe 383d 06be 37bc 5780 a03c dfdb 093d
00000140: e931 b4bc 094b bbbe c656 21be c5f2 8dbe
00000150: f4cc 29bf 2afc 2bbf 40a8 a83e 40f3 a2be
00000160: 810b 093e 5b94 2f3e cd86 983d 1313 2a3e
00000170: 4974 e7bd 8488 e2be 0262 14bf 3f3e 3b3e
00000180: c32e b83d 1285 b63d 45c3 5cbc 8fdf 3dbf
00000190: b421 8fbe 2afa 67be 1127 4b3e f6a9 c5be
000001a0: d13c 163e cb53 e73d a6a2 493e 98ca a2bd
000001b0: 72b1 4abd ee43 2bbd 19ca 1bbc fa22 27bd
000001c0: 5a26 4d3c 4f95 043d d0a3 89bc 252c 913c
000001d0: d97c 623d e475 8bbe 9d96 623e d8e0 213e
000001e0: be82 febd b5c0 31be 4e00 8cbe 345e 663e
000001f0: 1bed 85be e83e 87be 8de2 39be 5da1 19bd
00000200: a090 83be aa0e 6fbe c559 a4be c7a1 083f
00000210: 3431 0bbe 6849 febe f2b7 bebe 74c9 a93d
00000220: cfc6 053e 1ff3 29be feaa 03be eff1 143e
00000230: e1fb 7d3e de14 54be e75d 5bbe 60d2 1ebd
00000240: 141b 383d 8dc7 1a3d 0f9d 183d 598b 9a3c
00000250: c276 093d b93a 0f3d 877f b9bc a7ba cbbc
00000260: f416 8f3c 41b4 93bb e4dc 25bd 8de1 4c3e
00000270: 8f5a 9fbe ed1a e2be 4ad1 0e3e 0cba 11bd
00000280: 2b5a 8b3e 8352 083e d3af 15be 2c18 ebbe
00000290: 371d 8a3e 84f3 383e e267 29bf 4c7a 3a3e
000002a0: 7f67 11be 42c5 ad3e 7a05 36be a12f 063e
000002b0: 5d62 54be c642 393d 3675 9dbe 5e63 5cbd
000002c0: 850e 313e c300 d4be 4aa9 dcbd 890b adbe
000002d0: 291e c13c a395 663d a8ae d93d 1a6a a53d
000002e0: c528 f53d 1bbd 053d bfc6 c03d 06bb b93d
000002f0: 5379 413d 9993 8fbc 9a43 82bc 7b62 d0bc
00000300: 8064 93bc 7202 a9bc 7137 18bc 59d8 82bd
00000310: 1563 d6bc 9dc6 b8bc 04b0 58be e5f0 313e
00000320: 9569 9cbe 53eb 2abf 2ad4 0d3f 7421 e63e
00000330: 672c 62bd 9bb4 543e 9b78 20bd 599f 26bf
00000340: cc0b 83be ce10 b03c 4451 fa3b 86e1 e0be
00000350: 032e fdbd e37a 9e3c d43f f53d f482 dc3d
00000360: efbc f5be 975a 4b3e 22d5 c9be d051 c43e
00000370: 3b74 33bf 7dfd 503e 63a6 643e 6e11 9c3e
00000380: 21a9 16be 03ba c2bd b43f 25be 9f10 64be
00000390: a9f7 fdbe 612c 223c 1069 323e 5e21 42bf
000003a0: 7357 9fbe 53f9 0f3d 06d6 5fbf b8ec ecbe
000003b0: 6f1a 58be 2729 f2ba 2e1e 89bd 8335 9e3e
000003c0: 5b88 e9bd 5076 883e 2178 173e 248c 26be
000003d0: 8ec7 ee3c 9142 093e edf0 3cbd 39f8 943d
000003e0: 34d2 d6be c650 52be a328 60bd 81d7 afbe
000003f0: 93bc 45bf 5346 4cbe 4020 213c 35b5 463d

features.6.bias f4 [128]
-0.17748654 0.17621374 -0.34917393 -0.019457309 -0.11032664 -0.27810013 -0.112473264 -0.16878399
-0.07982516 -0.05372867 -0.08803172 -0.13718702 0.16992635 -0.024463791 -0.02151674 0.05287854
-0.24197067 -0.074681014 -0.11502127 -0.07994937 -0.2051039 -0.5988709 -0.38903812 0.06678325
-0.5058017 -0.29105133 0.031522375 -0.098256685 -0.035072513 -0.25801042 0.04101748 -0.22598527
-0.25637862 0.09619282 -0.14734699 -0.089529194 0.009091087 0.04704043 -0.1846147 -0.12201986
-0.083095975 -0.43680254 -0.27745888 -0.20762318 -0.308181 -0.04998065 -0.09449534 -0.118997864
-0.32110554 -0.02417653 -0.062165484 -0.024483912 0.1459749 0.19221318 -0.1652507 0.007676891
0.10465759 -0.25311217 0.10434529 -0.23496826 -0.005565982 0.015111751 -0.32708788 -0.024960363
-0.193763 -0.11555723 0.31764808 -0.23587197 -0.07084226 -0.33680448 -0.042851463 -0.028162362
-0.048752815 -0.070417896 -0.009032063 -0.07514777 -0.023812624 -0.21766724 0.10105194 0.03697502
-0.07558331 -0.08849357 -0.24509406 -0.35476017 -0.05274211 0.048182692 0.009232166 -0.06584306
-0.04612204 -0.32207853 -0.22181775 -0.17098217 -0.18595466 -0.41161048 -0.06010939 0.010706595
0.058091912 -0.004322519 -0.07230206 -0.10999004 -0.12115836 -0.22798218 -0.21536677 -0.1813456
-0.04830269 -0.30437437 0.07829961 -0.24142249 -0.39832532 -0.05098361 -0.37512517 -0.17381503
-0.11331664 0.16365275 -0.11629562 0.16725217 -0.053901784 -0.17233811 -0.031618208 -0.43521258
0.36982825 0.23597808 -0.11428433 -0.08736336 -0.10513928 0.03237533 -0.0363892 0.07976507
00000000: 08bf 35be 6071 343e edc6 b2be ef64 9fbc
00000010: eff2 e1bd 2463 8ebe 6258 e6bd b6d5 2cbe
00000020: 607b a3bd 9812 5cbd f949 b4bd c17a 0cbe
00000030: 2c01 2e3e 4a68 c8bc e043 b0bc 2b97 583d
00000040: 29c7 77be 5cf2 98bd 4690 ebbd 7fbc a3bd
00000050: c206 52be 9a4f 19bf 0130 c7be a8c5 883d
00000060: 387c 01bf ae04 95be 9b1d 013d cd3a c9bd
00000070: 32a8 0fbd f119 84be f201 283d af68 67be
00000080: 0f44 83be be00 c53d 21e2 16be 155b b7bd
00000090: c8f2 143c 77ad 403d a30b 3dbe 8ce5 f9bd
000000a0: 392e aabd 95a4 dfbe 170f 8ebe 2c9b 54be
000000b0: e6c9 9dbe 83b8 4cbd c686 c1bd 27b5 f3bd
000000c0: f267 a4be dc0d c6bc 3ca1 7ebd 7c92 c8bc
000000d0: 727a 153e 88d3 443e 7b37 29be 6e8e fb3b
000000e0: b856 d63d eb97 81be fcb2 d53d 859b 70be
000000f0: d762 b6bb 4797 773c 1078 a7be ad79 ccbc
00000100: cf69 46be 45a9 ecbd c5a2 a23e 6c88 71be
00000110: bf15 91bd a371 acbe 0485 2fbd c1b4 e6bc
00000120: 08b1 47bd 4237 90bd 38fb 13bc 13e7 99bd
00000130: b112 c3bc 29e4 5ebe 52f4 ce3d 1e73 173d
00000140: 6ccb 9abd 1e3c b5bd f0f9 7abe 20a3 b5be
00000150: 1c08 58bd 375b 453d 8342 173c bad8 86bd
00000160: 77ea 3cbd 7ae7 a4be 3124 63be f315 2fbe
00000170: e66a 3ebe 9cbe d2be 4435 76bd b76a 2f3c
00000180: c9f1 6d3d eba3 8dbb 1a13 94bd 7542 e1bd
00000190: e021 f8bd 2974 69be 1b89 5cbe a9b2 39be
000001a0: 0bd9 45bd f5d6 9bbe 8c5b a03d 7537 77be
000001b0: 4cf1 cbbe 31d4 50bd 6810 c0be 91fc 31be
000001c0: 8e12 e8bd 9694 273e 662c eebd 2744 2b3e
000001d0: 1ec8 5cbd 6779 30be 1882 01bd 2fd4 debe
000001e0: 215a bd3e 3da4 713e e70d eabd 90eb b2bd
000001f0: 4353 d7bd fe9b 043d d70c 15bd de5b a33d

fc.weight f4 [9, 128]
-0.38526043 -0.07757367 -0.0112119615 0.06270615 -0.046703395 0.03872268 0.033283688 -0.04318894
-0.0947174 0.030417047 0.044162266 0.17581384 0.05618152 0.05579869 0.042471815 0.071628496
-0.14961351 0.031258136 -0.85587233 -0.11415358 0.25937077 -0.0067403154 -0.055916604 0.056015823
0.21125405 -0.1185305 0.35038143 0.0055289967 -0.07954391 0.38027698 -0.12140015 0.37483707
-0.03482971 -0.3190412 -0.31650677 0.06463666 -0.294895 -0.18526241 0.23170279 0.5380322
-0.26755574 -0.30234963 0.16327943 0.0007523919 -0.34979948 -0.10277167 -0.22024833 -0.26362386
0.11060477 -0.056339726 -0.008376538 0.015503219 -0.18478414 0.48525494 0.35144457 0.072603926
0.015832467 -0.22269496 -0.19260737 -0.11570738 -0.007962538 0.011242259 -0.29022267 -0.005189332
-0.016535763 -0.006515602 -0.04251306 0.2977844 -0.11517657 -0.27693117 -0.033881113 -0.102708146
0.083605364 -0.068285115 -0.04009823 0.0009087772 -0.043644752 0.3449634 -0.4552767 -0.16380692
-0.011304751 0.103636906 0.0053840005 -0.14992166 0.016226204 -0.0067302836 -0.14945836 -0.07032912
0.019572372 -0.23547064 -0.19611952 -0.27352223 -0.022284085 0.502349 -0.0041384124 -0.03647527
-0.44377574 -0.0081259 0.097864166 -0.16525836 -0.029441912 0.27909115 -0.19718842 -0.046263415
-0.070095055 -0.38997307 -0.07468534 0.11754031 -0.8895578 -0.108113535 -0.28014794 0.21274789
-0.35095233 -0.31905726 -0.12078004 -0.13044211 0.04029027 0.01682111 -0.03300911 0.11748032
-0.8273071 -0.08371001 -0.19071376 0.28470278 0.013626009 -0.04308333 0.05425685 -0.25109088
-0.1091113 0.0064393803 0.09492041 -0.0154775195 -0.10813104 -0.16345708 -0.50539166 0.023272844
0.118693836 0.023970878 0.00041004483 0.002826651 0.21702862 -1.153067 0.00043452767 0.052899934
-0.3635686 -0.11230032 -0.16940713 -0.29342565 0.078295685 0.078640714 -0.266857 -0.07338419
-0.06464994 -0.37712517 -0.11609104 -0.31128034 -0.5376205 0.034323424 0.17207237 0.14574997
0.05494757 0.0532696 -0.3263594 0.06667045 -0.32109222 -0.27948627 -0.13502538 -0.28666356
0.07781943 0.08869258 0.17252542 0.2393404 -0.03210609 -0.024396863 -0.037353065 -0.24774615
0.11731502 0.060062908 -0.09925456 -0.04878717 -0.06068367 -0.97161525 -0.2980922 -0.43111855
-0.09988944 0.5293911 -0.67652124 -0.123598576 0.072935134 0.27788597 -0.0072580464 0.01053061
0.1517071 -0.047969215 -0.5564956 0.13062035 0.18953493 -0.085437074 -0.12293667 -0.09875764
-0.0107168015 -0.24822597 0.056845024 0.047074433 0.01757022 -0.14476602 -0.65379196 0.15308416
-0.026479134 0.20512255 -0.2320187 0.06831405 0.079623535 -0.09220141 0.020673566 0.062521085
0.061152022 -0.01611145 -0.3439899 -0.4235466 -0.2211999 -0.2346202 0.065440625 0.031107727
-0.5202183 0.056127183 0.048221707 -0.086171925 -0.055443086 -0.51708055 -0.1504867 0.15689705
-0.05888057 -0.3103308 -0.0035981135 -0.28401804 -0.57324463 0.039199933 0.13232887 -0.19591089
-0.21025553 -0.2682326 0.5184984 -0.17507938 -0.020016426 -0.15147227 -0.019294687 -0.14097762
-1.184065 0.13174444 -0.03322945 0.30001378 0.20247604 -0.33109206 0.04348762 -0.19807635
00000000: db40 c5be f2de 9ebd 60b2 37bc 156c 803d
00000010: 0f4c 3fbd ac9b 1e3d 7a54 083d e3e6 30bd
00000020: 32fb c1bd 2c2d f93c 7ee3 343d 8b08 343e
00000030: 981e 663d 2b8d 643d edf6 2d3d f6b1 923d
00000040: 4934 19be 8808 003d 731a 5bbf 5ac9 e9bd
00000050: 3fcc 843e dddd dcbb cf08 65bd d970 653d
00000060: fb52 583e 1ec0 f2bd 3265 b33e 962c b53b
00000070: ebe7 a2bd aab3 c23e a4a0 f8bd a5ea bf3e
00000080: 99a9 0ebd 5e59 a3be 2d0d a2be 3a60 843d
00000090: 7afc 96be 6eb5 3dbe 7f43 6d3e 7abc 093f
000000a0: 11fd 88be 92cd 9abe b932 273e 2a3c 453a
000000b0: eb18 b3be f479 d2bd c788 61be b5f9 86be
000000c0: c184 e23d 7cc4 66bd bf3d 09bc 3701 7e3c
000000d0: 0e38 3dbe 5673 f83e 8bf0 b33e 5eb1 943d
000000e0: 17b3 813c 260a 64be de3a 45be fef7 ecbd
000000f0: 4e75 02bc 7431 383c 1198 94be 460b aabb
00000100: 0276 87bc d580 d5bb 2d22 2ebd 3277 983e
00000110: b2e1 ebbd ecc9 8dbe ecc6 0abd a658 d2bd
00000120: 4a39 ab3d 11d9 8bbd 0b3e 24bd 013b 6e3a
00000130: d7c4 32bd 0b9f b03e 071a e9be 00bd 27be
00000140: 9037 39bc 963f d43d 456c b03b 1085 19be
00000150: d1ec 843c b689 dcbb 9d0b 19be b708 90bd
00000160: 3d56 a03c 371f 71be 8ed3 48be 1b0b 8cbe
00000170: 1d8d b6bc f299 003f 859b 87bb 1867 15bd
00000180: 9336 e3be 7f22 05bc 026d c83d 7d39 29be
00000190: 2a30 f1bc 09e5 8e3e c3eb 49be b57e 3dbd
000001a0: ff8d 8fbd 8daa c7be a1f4 98bd f9b8 f03d
000001b0: 0fba 63bf a16a ddbd 8d6f 8fbe 95da 593e
000001c0: 06b0 b3be 795b a3be 875b f7bd 9e92 05be
000001d0: 6907 253d 6dcc 893c 8f34 07bd 8699 f03d
000001e0: 66ca 53bf 2770 abbd 784a 43be 90c4 913e
000001f0: a03f 5f3c 2578 30bd 6e3c 5e3d fc8e 80be
00000200: bf75 dfbd 7001 d33b a265 c23d 6c95 7dbc
00000210: cf73 ddbd 4b61 27be 5961 01bf b1a6 be3c
00000220: c115 f33d 935e c43c 49fb d639 563f 393b
00000230: c03c 5e3e b397 93bf 51d1 e339 9aad 583d
00000240: aa25 babe b6fd e5bd 1079 2dbe e33b 96be
00000250: 7d59 a03d 620e a13d 7ba1 88be 734a 96bd
00000260: 3067 84bd 8d16 c1be 24c1 edbd 2360 9fbe
00000270: 7fa1 09bf b896 0c3d bd33 303e 7b3f 153e
00000280: b410 613d 3931 5a3d 9418 a7be 848a 883d
00000290: 3366 a4be d318 8fbe 1844 0abe 91c5 92be
000002a0: cb5f 9f3d 75a4 b53d 81aa 303e a615 753e
000002b0: ad81 03bd eedb c7bc 87ff 18bd 2bb1 7dbe
000002c0: db42 f03d 8604 763d fa45 cbbd 0ed5 47bd
000002d0: 718f 78bd c7bb 78bf 8a9f 98be 92bb dcbe
000002e0: d692 ccbd 2d86 073f 7f30 2dbf 4021 fdbd
000002f0: 045f 953d 1247 8e3e e8d4 edbb 9488 2c3c
00000300: 1b59 1b3e 5e7b 44bd 7f76 0ebf 57c1 053e
00000310: 7215 423e a2f9 aebd 39c6 fbbd 7241 cabd
00000320: 8695 2fbc f32e 7ebe 54d6 683d 1fd1 403d
00000330: 6cef 8f3c 8b3d 14be e95e 27bf 18c2 1c3e
00000340: c5ea d8bc a50b 523e 4f96 6dbe 3de8 8b3d
00000350: aa11 a33d 18d4 bcbd 9c5b a93c 0e0b 803d
00000360: 8b7a 7a3d 29fc 83bc 721f b0be 1adb d8be
00000370: 3a82 62be 4740 70be bc05 863d a2d5 fe3c
00000380: 072d 05bf 9ee5 653d 2084 453d e87a b0bd
00000390: 4a18 63bd 645f 04bf 2f19 1abe 9fa9 203e
000003a0: c12c 71bd aee3 9ebe 54ce 6bbb d06a 91be
000003b0: 29c0 12bf 1c90 203d 3881 073e dd9c 48be
000003c0: 3a4d 57be c955 89be 50bc 043f 0248 33be
000003d0: 7df9 a3bc 8c1b 1bbe e40f 9ebc 705c 10be
000003e0: 718f 97bf 04e8 063e 9b1b 08bd 689b 993e
000003f0: e155 4f3e e684 a9be 1320 323d 87d4 4abe

fc.bias f4 [9]
0.10594382 -0.18283658 -0.35128185 -0.06937146 -0.14565518 -0.4352275 0.7589594 0.15397927
0.3296428
00000000: 13f9 d83d 8339 3bbe 37db b3be a012 8ebd
00000010: a226 15be 24d6 debe 2a4b 423f beac 1d3e
00000020: f1c6 a83e
