CNN Model Checkpoints/model7.pth (torch, 104263 bytes, 20 tensors)

features.0.weight f4 [16, 3, 3, 3]
-0.10430413 -0.09619931 -0.3568348 0.15278599 -0.069962926 -0.0067568994 -0.13034128 0.13579027
-0.059036627 0.5424788 0.088049896 -0.062114548 -0.33283287 0.26504365 0.10626781 -0.1116654
-0.52401215 -0.27302033 0.25016254 0.1985018 0.38079533 0.23516166 0.11920567 0.15666774
-0.074572295 -0.21779056 0.20265134 -0.36884794 -0.1683035 0.20865753 -0.10660905 0.11176406
0.14101782 -0.04659115 0.349982 -0.17903616 -0.11253184 -0.3017707 0.46175605 0.123279996
0.23468915 -0.29422513 0.5894327 -0.23097855 0.6412715 0.32694298 0.12452071 0.034551915
0.07335334 0.065918796 -0.22371264 -0.24896175 0.019798478 0.19658339 -0.17018914 -0.3086971
0.24927126 -0.08449254 0.0165719 0.11528946 0.2023766 -0.2934489 0.13719055 0.062369257
0.03588966 0.11424039 0.40877673 -0.20748831 0.43848196 0.35311994 -0.15125135 0.26578432
-0.12776889 -0.092822835 0.0059239003 0.27224743 -0.1343738 -0.0048653367 0.113525204 -0.13169532
-0.02552651 0.12796713 0.1732301 0.099994086 0.07768435 0.09522675 0.24035789 0.10404552
0.23711179 0.2129184 -0.158796 0.06385949 -0.03087158 0.43876013 -0.20221911 -0.13877814
-0.31128535 -0.12234557 0.027564902 0.3043444 -0.025844445 -0.31854844 0.34757867 0.123360425
-0.52966297 -0.030493744 -0.23776843 -0.13593933 0.15550189 0.27759224 0.16102313 0.17485824
-0.017782241 -0.13146393 -0.016377084 0.052984856 0.08943391 0.46511123 -0.39575112 -0.13250796
-0.25752357 0.09196148 0.2144716 0.15708716 -0.28033042 -0.48344013 0.37129903 0.08549387
-0.08323774 0.14697577 0.1305452 -0.21188313 0.2709523 0.08469389 -0.17218189 -0.14030433
0.12793301 -0.026469432 0.20700687 0.2729124 -0.022547793 -0.06765272 -0.08436241 0.08328225
0.2560916 0.026185947 -0.1786381 -0.15831064 -0.13212684 0.1173308 0.19005783 0.39996037
0.40244082 -0.23691031 0.1299554 -0.24429192 -0.34304288 -0.11356752 -0.29148453 0.07584486
0.14442524 0.07542944 0.30988818 -0.044176728 -0.42583632 0.027163139 -0.113156885 -0.25125128
0.17361487 -0.14307109 0.23534487 -0.08440561 0.45659745 0.49240234 0.5364327 0.006655656
0.33401057 0.13221 0.33117947 -0.23407717 0.14966136 -0.048269134 -0.27925295 -0.069808684
-0.3925539 0.18370913 0.0585488 -0.11666435 -0.041679036 -0.014425806 0.16953129 0.0925933
-0.10609586 0.25354567 0.22738798 -0.030274015 0.26991376 -0.033225656 -0.5085179 0.14638582
0.10792222 0.1624118 -0.21279822 -0.23805843 -0.121792704 0.18175012 0.0740853 -0.13367203
0.0768164 0.21897109 -0.15094098 -0.102617234 0.003741877 -0.2459334 0.22386299 -0.6849815
-0.15990974 0.13147399 -0.08447705 0.26516268 0.3434728 -0.030926062 0.20298308 0.38162184
0.08832685 0.04308884 -0.15189622 -0.1329895 0.12268 -0.012056547 0.08201678 -0.14437823
0.046058264 -0.004871293 -0.32529765 -0.35557464 -0.42841205 -0.030179115 -0.20429298 -0.30252352
-0.5642961 0.10934296 0.4243733 0.22496364 -0.08334572 -0.07783818 -0.3846207 0.6377597
-0.24743828 0.13384429 -0.7870958 -0.15646328 -0.11887866 0.18368344 0.053634197 -0.09478091
00000000: 679d d5bd 2504 c5bd 0db3 b6be ee73 1c3e
00000010: b948 8fbd fb68 ddbb 2f78 05be 9b0c 0b3e
00000020: 64d0 71bd e4df 0a3f 8153 b43d d36b 7ebd
00000030: 1269 aabe cdb3 873e f0a2 d93d d4b0 e4bd
00000040: a925 06bf 52c9 8bbe 4e15 803e 0e44 4b3e
00000050: 9bf7 c23e 38ce 703e 1a22 f43d 826d 203e
00000060: 5cb9 98bd 7d04 5fbe d583 4f3e a3d9 bcbe
00000070: c157 2cbe 52aa 553e d855 dabd 8ee4 e43d
00000080: fa66 103e 5dd6 3ebd d730 b33e 4155 37be
00000090: 1877 e6bd b081 9abe 4a6b ec3e 397a fc3d
000000a0: 5a52 703e ada4 96be 10e5 163f a485 6cbe
000000b0: 5e2a 243f 1265 a73e b704 ff3d 4f86 0d3d
000000c0: 473a 963d 6f00 873d ed14 65be d4ef 7ebe
000000d0: 6b30 a23c 284d 493e 1046 2ebe 8c0d 9ebe
000000e0: f740 7f3e 6d0a adbd cbc1 873c e11c ec3d
000000f0: d03b 4f3e ef3e 96be ae7b 0c3e e876 7f3d
00000100: 0901 133d def6 e93d 2f4b d13e d177 54be
00000110: b580 e03e 23cc b43e a2e1 1abe e214 883e
00000120: d9d5 02be e619 bebd 471d c23b 0464 8b3e
00000130: 4999 09be 676d 9fbb e77f e83d 23db 06be
00000140: f91c d1bc d109 033e 3b63 313e b3c9 cc3d
00000150: f918 9f3d 3e06 c33d 6120 763e d115 d53d
00000160: 6fcd 723e 4807 5a3e 6b9b 22be c4c8 823d
00000170: 65e6 fcbc 2ba5 e03e 8712 4fbe db1b 0ebe
00000180: cb60 9fbe 5090 fabd cacf e13c 07d3 9b3e
00000190: bbb7 d3bc c818 a3be d5f5 b13e 64a4 fc3d
000001a0: fe97 07bf 04ce f9bc 9179 73be ae33 0bbe
000001b0: e33b 1f3e 9220 8e3e 3fe3 243e 0a0e 333e
000001c0: 10ac 91bc 7b9e 06be 3c29 86bc a606 593d
000001d0: 2029 b73d 0f23 ee3e e49f cabe 2bb0 07be
000001e0: 21da 83be 4d56 bc3d 719e 5b3e 75db 203e
000001f0: 7887 8fbe 7785 f7be e81a be3e 6917 af3d
00000200: 8c78 aabd d180 163e a4ad 053e e4f7 58be
00000210: 43ba 8a3e fd73 ad3d 7350 30be f0ab 0fbe
00000220: df00 033e 6cd6 d8bc 9cf9 533e 2dbb 8b3e
00000230: 26b6 b8bc 828d 8abd 33c6 acbd e28f aa3d
00000240: 701e 833e e983 d63c e8ec 36be 2f1c 22be
00000250: 424c 07be 214b f03d 859e 423e 9bc7 cc3e
00000260: b90c ce3e 9e98 72be 0713 053e a927 7abe
00000270: 51a3 afbe 1796 e8bd 763d 95be 8d54 9b3d
00000280: 36e4 133e c07a 9a3d aaa9 9e3e a8f2 34bd
00000290: 3807 dabe 3b85 de3c ccbe e7bd 02a4 80be
000002a0: 19c8 313e 3a81 12be 3ffe 703e d9dc acbd
000002b0: 24c7 e93e 291c fc3e a753 093f b017 da3b
000002c0: 6f03 ab3e 0f62 073e 5b90 a93e edb1 6fbe
000002d0: d440 193e dbb5 45bd 3efa 8ebe dbf7 8ebd
000002e0: d3fc c8be 3f1e 3c3e ded0 6f3d b8ed eebd
000002f0: a3b7 2abd 375a 6cbc 9c99 2d3e 8ea1 bd3d
00000300: c948 d9bd bdd0 813e 65d8 683e 3601 f8bc
00000310: 2332 8a3e a017 08bd 3b2e 02bf 2ae6 153e
00000320: 5306 dd3d 474f 263e c7e7 59be 97c5 73be
00000330: 746e f9bd b41c 3a3e 09ba 973d 52e1 08be
00000340: eb51 9d3d f539 603e 4690 1abe fc28 d2bd
00000350: 473a 753b f7d5 7bbe 573c 653e f35a 2fbf
00000360: 61bf 23be 1ea1 063e 4e02 adbd 67c3 873e
00000370: abdb af3e a758 fdbc ccda 4f3e f063 c33e
00000380: b5e4 b43d ec7d 303d af8a 1bbe 662e 08be
00000390: a73f fb3d d388 45bc 6af8 a73d e3d7 13be
000003a0: 97a7 3c3d 5e9f 9fbb 6a8d a6be e10d b6be
000003b0: d358 dbbe 313a f7bc 2e32 51be 5de4 9abe
000003c0: b675 10bf 34ef df3d 7547 d93e de5c 663e
000003d0: 29b1 aabd a069 9fbd 01ed c4be 3844 233f
000003e0: 7660 7dbe 7a0e 093e 1c7f 49bf e937 20be
000003f0: a876 f3bd 8317 3c3e 88af 5b3d 7e1c c2bd

features.0.bias f4 [16]
-0.006242517 0.0031533574 -0.00025336668 -0.00035593944 -0.0027625288 0.0034943363 -0.0026913127 0.0015866032
0.0040038363 0.0030040252 0.0063211857 0.0018277083 -0.0046773325 -0.0005920082 -0.0030803848 -0.0005258782
00000000: 078e ccbb 8fa8 4e3b 4dd6 84b9 629d bab9
00000010: 8b0b 35bb 3c01 653b bc60 30bb 92f5 cf3a
00000020: 9d32 833b 2edf 443b f321 cf3b b78f ef3a
00000030: 4f44 99bb ff30 1bba 48e0 49bb 17db 09ba

features.1.weight f4 [16]
1.051528 0.82700014 0.8292299 0.9229486 1.020602 0.8393163 0.9604827 0.96409816
0.9773595 0.82664734 1.158629 1.0283259 1.1856061 0.82552063 0.9169113 0.78780913
00000000: 7898 863f 48b6 533f 6948 543f 5c46 6c3f
00000010: 16a3 823f 6fdd 563f 32e2 753f 23cf 763f
00000020: 3b34 7a3f 299f 533f f44d 943f 2fa0 833f
00000030: f1c1 973f 5255 533f b3ba 6a3f dcad 493f

features.1.bias f4 [16]
0.046739068 -0.09253818 0.07618743 0.14789826 -0.0445484 0.073495395 -0.09651383 0.05843465
0.07329077 0.17586146 0.11561255 -0.025500095 0.15056962 0.13702318 -0.06690204 0.02362221
00000000: 7771 3f3d a884 bdbd 2808 9c3d a472 173e
00000010: 6278 36bd c184 963d 0ba9 c5bd 2c59 6f3d
00000020: 7919 963d 0715 343e 46c6 ec3d 93e5 d0bc
00000030: ec2e 1a3e ce4f 0c3e f003 89bd 5d83 c13c

features.1.running_mean f4 [16]
0.22153005 0.44303316 0.28706926 0.08424941 0.26729926 0.07018621 0.2804636 -0.16688956
-0.33411476 -0.2178236 -0.35940832 -0.058420807 -0.16694781 -0.019166213 -0.26344085 0.41540396
00000000: c6d8 623e 3ed5 e23e befa 923e f48a ac3d
00000010: 73db 883e cabd 8f3d ed98 8f3e 19e5 2abe
00000020: 1711 abbe 260d 5fbe 5e04 b8be a84a 6fbd
00000030: 5ef4 2abe 7602 9dbc b8e1 86be d4af d43e

features.1.running_var f4 [16]
0.06362064 0.15699506 0.17206101 0.0841375 0.029488852 0.09953022 0.34173387 0.06316071
0.12858261 0.094980255 0.11771903 0.1014682 0.034560017 0.03025369 0.04221193 0.13104999
00000000: 8a4b 823d 50c3 203e c330 303e 4850 ac3d
00000010: 9b92 f13c 80d6 cb3d bef7 ae3e 675a 813d
00000020: 29ab 033e 0285 c23d ad16 f13d 8fce cf3d
00000030: ce8e 0d3d 96d6 f73c 6be6 2c3d f831 063e

features.4.weight f4 [32, 16, 3, 3]
0.20010613 0.11255359 -0.016258122 0.10559065 0.16382177 0.008954326 -0.12528577 0.0055748243
-0.0517886 0.15810795 -0.09335157 0.0324088 -0.080200225 0.0988571 0.06162494 -0.010926253
-0.010333838 -0.032955848 0.1388478 -0.004223108 0.08202344 -0.06431941 -0.044364344 -0.1014386
-0.016649725 -0.0047220727 -0.010425462 0.017134622 -0.26225236 -0.085381344 -0.11756615 -0.046634864
-0.08002593 -0.0774663 0.11511519 -0.0685235 0.017197222 0.24477565 0.044115048 0.17065062
0.14114651 -0.15684791 -0.10005319 0.026850395 0.047314256 0.09448143 -0.20256145 0.0797796
0.26832712 0.116494656 0.1306769 0.026674638 -0.05811146 0.19168341 -0.12026646 0.15252365
-0.12697875 0.10471776 0.053943146 0.09980642 -0.09286845 -0.058002774 0.19527395 -0.1773414
0.12336173 -0.06901225 -0.04604394 0.0005654437 -0.11374117 -0.1995722 0.04491928 -0.037052013
0.08579693 -0.11456592 0.028446194 0.20103213 0.08639963 -0.013646886 0.076077305 -0.049313523
0.118026845 0.11532022 0.09798266 0.1638712 0.008565954 -0.015850252 -0.09964233 -0.041680284
-0.0015137702 -0.053241733 -0.2653538 -0.058508236 -0.1502255 -0.1068536 -0.20023523 -0.071865864
-0.0799965 -0.12149343 0.07612277 -0.10496511 -0.03214189 -0.050533082 -0.115141414 -0.035959974
-0.00040498533 -0.010478563 0.00087371166 0.07731336 0.1196322 0.01066715 -0.09181563 -0.009851716
-0.04481095 -0.01093492 0.20946695 -0.055446375 0.07824825 0.047727514 -0.05669453 0.05970442
-0.15970135 -0.06999467 0.26526397 -0.20067179 0.06858012 -0.12674068 0.12590571 -0.074655496
0.103194274 -0.1819173 0.0424919 0.18213013 0.18857017 0.06805446 -0.08847178 -0.031210657
0.016252486 0.14616226 0.060633846 0.016891854 -0.09058813 0.014584104 -0.012011521 0.17461057
-0.058328416 -0.007272931 -0.12291113 -0.20796336 0.08097039 0.31490794 -0.033220626 0.0013482188
-0.015565909 0.07168702 -0.06423997 -0.037960395 0.11121448 0.22771741 0.0057956846 0.13621275
0.08155147 0.08895515 0.001998322 0.08552792 -0.022018816 -0.059731614 0.10293688 0.009813451
0.010532343 0.014839184 0.17310801 -0.1474227 0.16867815 0.07331677 -0.07191311 0.07480118
-0.09342504 0.10298393 0.045060698 -0.23479275 -0.2343774 0.15417075 -0.0940353 -0.004836391
-0.03667136 0.10637096 0.08939639 -0.013106082 0.043865137 -0.107910976 -0.041888874 0.013870019
-0.03683614 -0.05692534 -0.029243447 0.08784179 0.0039414098 -0.013986289 0.04686433 0.0751107
-0.011441935 -0.09506419 -0.082093485 -0.038177896 -0.1434517 -0.01174291 0.18973696 0.005405494
0.15999286 0.21319629 0.041397374 -0.16966012 0.11138067 0.034955293 0.068224475 -0.160167
-0.16787851 -0.0154115595 -0.07934731 -0.07616176 -0.013364394 0.019452034 0.110966705 0.08243412
-0.06486065 0.067130364 -0.13263446 -0.003038218 -0.01984018 0.069875285 -0.05127485 -0.053444948
-0.0841564 -0.029705653 -0.102194615 -0.17047305 -0.04689673 -0.04137385 0.022740902 -0.08017443
0.10289192 -0.045741215 -0.25492272 0.11318912 -0.035785068 0.01275233 0.15936486 0.021258648
-0.073201515 0.0048070746 -0.0027095394 0.092097074 0.21132587 -0.08450244 -0.008653545 0.16256423
00000000: 9fe8 4c3e 7f82 e63d c12f 85bc e93f d83d
00000010: e5c0 273e 2ab5 123c ea4a 00be 04ad b63b
00000020: 4820 54bd 0de7 213e 1c2f bfbd 17bf 043d
00000030: 0440 a4bd 9775 ca3d 6f6a 7c3d 0704 33bc
00000040: 424f 29bc b6fc 06bd 1e2e 0e3e ff61 8abb
00000050: e8fb a73d e5b9 83bd 63b7 35bd 0abf cfbd
00000060: 0165 88bc 9ebb 9abb 8fcf 2abc e85d 8c3c
00000070: f145 86be 6adc aebd 86c6 f0bd 3304 3fbd
00000080: a3e4 a3bd a7a6 9ebd 83c1 eb3d 0c56 8cbd
00000090: 30e1 8c3c 78a6 7a3e fbb1 343d 09bf 2e3e
000000a0: b688 103e bd9c 20be b0e8 ccbd 5cf5 db3c
000000b0: 98cc 413d 7b7f c13d 456c 4fbe 7d63 a33d
000000c0: 2c62 893e c094 ee3d 2ad0 053e c584 da3c
000000d0: 4806 6ebd a848 443e 434e f6bd 292f 1c3e
000000e0: b806 02be 4476 d63d 7df3 5c3d 4f67 cc3d
000000f0: d031 bebd 5194 6dbd e5f5 473e fc98 35be
00000100: 13a5 fc3d 4b56 8dbd 9298 3cbd 493a 143a
00000110: 21f1 e8bd a85c 4cbe 47fd 373d dac3 17bd
00000120: 4db6 af3d 89a1 eabd fe07 e93c 5edb 4d3e
00000130: 4af2 b03d 3097 5fbc 6bce 9b3d fafc 49bd
00000140: 0fb8 f13d 022d ec3d 22ab c83d dacd 273e
00000150: 3758 0c3c 63d8 81bc 4711 ccbd f2b8 2abd
00000160: b369 c6ba 0114 5abd 74dc 87be 55a6 6fbd
00000170: b7d4 19be 0fd6 dabd 770a 4dbe 692e 93bd
00000180: 34d5 a3bd 8cd1 f8bd 41e6 9b3d f3f7 d6bd
00000190: 37a7 03bd c7fb 4ebd 43cf ebbd c44a 13bd
000001a0: 3654 d4b9 47ae 2bbc cc09 653a 7856 9e3d
000001b0: ba01 f53d 45c5 2e3c d509 bcbd 1869 21bc
000001c0: b08b 37bd 6128 33bc 817e 563e bd1b 63bd
000001d0: 9e40 a03d ed7d 433d 8638 68bd 9f8c 743d
000001e0: c088 23be 5e59 8fbd aed0 873e e87c 4dbe
000001f0: bc73 8c3d 4fc8 01be 6ded 003e fbe4 98bd
00000200: 8557 d33d 8748 3abe fd0b 2e3d 5280 3a3e
00000210: 8a18 413e 2360 8b3d b130 b5bd 7ead ffbc
00000220: ef23 853c 8fab 153e 325b 783d c960 8a3c
00000230: 4586 b9bd 2af2 6e3c f8cb 44bc 1dcd 323e
00000240: c7e9 6ebd c451 eebb d5b8 fbbd 59f4 54be
00000250: ced3 a53d 9d3b a13e 5a12 08bd b7b6 b03a
00000260: 2808 7fbc a5d0 923d 3f90 83bd 5c7c 1bbd
00000270: 6bc4 e33d c12e 693e bae9 bd3b 5b7b 0b3e
00000280: 7504 a73d 1e2e b63d 48f6 023b 4329 af3d
00000290: ce60 b4bc 23a9 74bd 92d0 d23d 99c8 203c
000002a0: d98f 2c3c 0c20 733c 3a43 313e faf5 16be
000002b0: f7b9 2c3e 1a27 963d 2e47 93bd 5c31 993d
000002c0: a155 bfbd 3de9 d23d 9191 383d 836d 70be
000002d0: a100 70be f0de 1d3e 9495 c0bd 977a 9ebb
000002e0: b534 16bd 05d9 d93d 7415 b73d e4ba 56bc
000002f0: eeab 333d 6e00 ddbd ab93 2bbd 133f 633c
00000300: 7ee1 16bd 8c2a 69bd f48f efbc 65e6 b33d
00000310: f126 813b bf26 65bc d0f4 3f3d a4d3 993d
00000320: f476 3bbc 04b1 c2bd a120 a8bd 6d60 1cbd
00000330: 01e5 12be 5665 40bc 684a 423e 9220 b13b
00000340: 2bd5 233e 2150 5a3e 4b90 293d 62bb 2dbe
00000350: 8c1b e43d 482d 0f3d 46b9 8b3d d102 24be
00000360: 58e8 2bbe c480 7cbc d880 a2bd b2fa 9bbd
00000370: 55f6 5abc df59 9f3c 8342 e33d 38d3 a83d
00000380: a9d5 84bd a57b 893d 54d1 07be d71c 47bb
00000390: e087 a2bc c61a 8f3d 9405 52bd 17e9 5abd
000003a0: 315a acbd 4559 f3bc 694b d1bd 7d90 2ebe
000003b0: c916 40bd a077 29bd 214b ba3c 7e32 a4bd
000003c0: 00b9 d23d 245b 3bbd 3b85 82be b3cf e73d
000003d0: 5d93 12bd 26ef 503c 8b30 233e 9e26 ae3c
000003e0: adea 95bd aa84 9d3b 8792 31bb 649d bc3d
000003f0: cf65 583e 9e0f adbd 99c7 0dbc 3d77 263e

features.4.bias f4 [32]
-5.1412426e-05 0.0004097782 0.0012927222 5.2136646e-05 0.00047490257 0.00049836066 0.00032870733 -2.322713e-06
-0.00023478098 -1.9918407e-05 -0.00047860036 -0.0010483649 -0.00013220849 -0.00085957564 0.00076321635 -0.0004270106
-0.00016585973 0.0005670069 0.0009924804 0.000173161 -0.00018401291 -5.8776004e-07 0.00035615216 -0.00017430857
-0.0012758961 0.00056063145 0.00032651343 0.0007182928 -0.00013310507 8.856263e-05 0.0008947876 -0.0006875264
00000000: aca3 57b8 80d7 d639 8f70 a93a 4cad 5a38
00000010: 58fc f839 6ba4 023a 5a56 ac39 e8df 1bb6
00000020: 8a2f 76b9 7416 a7b7 a7ec fab9 4a69 89ba
00000030: 72a1 0ab9 2555 61ba 9512 483a 64e0 dfb9
00000040: a2ea 2db9 30a3 143a 1e16 823a 8d92 3539
00000050: 97f3 40b9 90c6 1db5 efb9 ba39 9ac6 36b9
00000060: f83b a7ba 57f7 123a e42f ab39 d04b 3c3a
00000070: 1f92 0bb9 b3ba b938 2e90 6a3a 1e3b 34ba

features.5.weight f4 [32]
0.8174524 0.77306914 0.87286276 0.85416293 0.93950695 1.0706013 0.77647144 0.93593764
0.87183785 1.0185516 0.9282606 1.0824924 0.8602496 0.96399933 0.7778373 0.80941314
0.95469093 0.8538472 1.0611368 0.8855245 0.9113847 0.8043092 0.8833221 0.8422774
0.98460454 0.8775984 0.9617769 0.94376636 0.95762867 0.87858564 1.0941648 0.8552573
00000000: 8f44 513f dce7 453f ef73 5f3f 6caa 5a3f
00000010: 8783 703f 7709 893f d5c6 463f 9c99 6f3f
00000020: c430 5f3f e65f 823f 7da2 6d3f 1c8f 8a3f
00000030: 5139 5c3f a9c8 763f 5820 473f b335 4f3f
00000040: a066 743f bb95 5a3f 55d3 873f bcb1 623f
00000050: 8250 693f 35e7 4d3f 6621 623f 7e9f 573f
00000060: 0b0f 7c3f 4aaa 603f 0337 763f ac9a 713f
00000070: 2727 753f fdea 603f 980d 8c3f 24f2 5a3f

features.5.bias f4 [32]
-0.20411561 -0.23320568 -0.093169704 -0.27422887 0.0046235733 -0.09792765 -0.17767343 0.017508589
-0.056978606 -0.16678715 -0.008473571 -0.18593633 -0.2436694 -0.09683696 0.0077964095 -0.09990591
-0.04089233 0.00014218301 -0.030565552 -0.1603868 -0.10093685 0.10142304 0.022876909 -0.06473591
-0.1292773 -0.18452989 0.01250337 -0.11051064 -0.034240887 -0.22437836 -0.070678964 -0.2579272
00000000: af03 51be 78cd 6ebe c2cf bebd ba67 8cbe
00000010: 5881 973b 4b8e c8bd 06f0 35be 2c6e 8f3c
00000020: 6662 69bd 40ca 2abe bcd4 0abc 1866 3ebe
00000030: 7984 79be 7552 c6bd 0679 ff3b 789b ccbd
00000040: b77e 27bd f616 1539 9c64 fabc 703c 24be
00000050: fbb7 cebd e2b6 cf3d 5b68 bb3c 4394 84bd
00000060: 4561 04be 67f5 3cbe efda 4c3c 6753 e2bd
00000070: 2c40 0cbd 71c3 65be 22c0 90bd 090f 84be

features.5.running_mean f4 [32]
0.1039004 -0.53490394 -0.3928157 -0.74451613 -0.67439175 0.46357968 0.29161108 -0.42623693
-0.2765136 -1.2050582 -0.9553845 0.38643566 0.9485525 -0.69078857 0.060901463 -0.30658618
-0.25245714 0.073706195 -0.06461093 -1.1908512 0.040302135 -0.7726004 -0.3184315 0.21201903
0.42499948 0.22846931 -0.47261423 -1.2260627 0.005648481 -0.3877562 -1.5863644 -0.13777055
00000000: bcc9 d43d 77ef 08bf 241f c9be 9c98 3ebf
00000010: f0a4 2cbf 515a ed3e 0c4e 953e ba3b dabe
00000020: 3193 8dbe 593f 9abf 1494 74bf e5da c53e
00000030: 56d4 723f 85d7 30bf d073 793d ddf8 9cbe
00000040: 1042 81be 46f3 963d bc52 84bd d06d 98bf
00000050: da13 253d 24c9 45bf 7409 a3be 841b 593e
00000060: 8899 d93e dcf3 693e 7efa f1be 9fef 9cbf
00000070: e516 b93b fb87 c6be fd0d cbbf b913 0dbe

features.5.running_var f4 [32]
0.93384266 0.41683197 0.96945655 0.69380295 0.80111086 1.7005569 0.58574337 1.14958
0.88909304 1.4360073 1.023481 1.2032883 1.2413006 0.6356133 0.7446044 0.5422343
0.8967212 0.8436278 1.7697521 0.8890272 0.6573205 0.8519338 0.6848547 2.4613974
0.91836935 0.778768 0.6285795 0.70258975 0.77326745 1.0463644 1.436457 1.1245447
00000000: 5010 6f3f 006b d53e 4e2e 783f 129d 313f
00000010: 9a15 4d3f d9ab d93f 47f3 153f 7025 933f
00000020: 9a9b 633f 16cf b73f 6d01 833f 5a05 9a3f
00000030: f0e2 9e3f 8eb7 223f 659e 3e3f decf 0a3f
00000040: 858f 653f fef7 573f 3d87 e23f 4997 633f
00000050: 2846 283f 5518 5a3f a352 2f3f 8987 1d40
00000060: 411a 6b3f 575d 473f 96ea 203f ecdc 333f
00000070: dbf4 453f 45ef 853f d3dd b73f 15f1 8f3f

features.8.weight f4 [64, 32, 3, 3]
0.016340913 0.09480135 0.059073184 -0.17256942 0.13546406 -0.023244843 0.0505584 0.020096261
0.2752661 -0.012112224 0.1779067 0.063642405 0.05969187 0.11105589 0.13035025 0.026723178
-0.032734957 -0.05653904 -0.037167937 0.03298387 0.024880035 -0.043448474 0.012370847 -0.036502235
-0.09127845 0.03630151 0.028781999 -0.015919315 0.10832913 -0.17953587 0.069645934 -0.008227185
-0.09929214 -0.033142745 -0.078980215 -0.025478408 -0.033483323 -0.010216288 0.104481354 -0.15540609
-0.02148617 -0.050637264 -0.07245815 -0.094724804 0.037479244 0.10746706 0.017765163 -0.0012414767
0.07165534 0.12184242 -0.027737545 -0.054403994 -0.026214508 0.099353656 -0.059233475 0.044984248
-0.050908882 0.040437523 0.0001448241 -0.034104016 0.036879573 -0.073103346 -0.12767303 0.09246495
0.105153106 0.023951564 0.15697253 -0.00020332164 -0.021060927 -0.030705336 -0.05197649 0.00907511
-0.0429982 -0.008451385 -0.14216383 -0.019601325 -0.12369503 -0.07456801 -0.009289895 0.035623252
-0.09550294 -0.1244585 0.05098864 -0.017876811 0.08215214 -0.040669635 -0.114831634 -0.01898976
-0.012049502 0.01706634 -0.06558657 -0.045291543 0.064616814 0.041241914 0.098573685 -0.028585112
0.051766925 0.021131553 -0.015091992 0.04074405 0.008356489 0.058890644 0.05602794 0.031673416
0.08075161 0.0036827032 0.05705858 -0.01624797 -0.046252724 0.1337751 0.075275026 -2.7817568e-05
0.010546508 -0.0751411 -0.05372009 -0.037425566 0.008220468 0.037047513 -0.07489006 0.015664145
-0.10732986 0.041150723 0.110892415 0.115117215 0.006479412 0.09364808 -0.14328106 0.076913215
-0.023295378 -0.014992758 -0.025834212 0.15233706 -0.10266271 0.03529933 0.0033497754 0.03455141
0.031038865 0.04934653 0.0041888203 0.083669566 0.09086749 -0.057766087 0.02252595 0.059409466
0.15346122 -0.067826465 0.12838903 -0.04966207 -0.004943058 -0.031280566 0.002632538 0.045691542
0.051929485 0.03569093 0.025864333 0.039071422 0.14819074 0.07138004 -0.042355567 -0.022514371
-0.09815944 -0.07636777 -0.060785044 -0.08555717 -0.0850772 0.010108895 0.006749082 -0.1390919
0.113086484 -0.008965385 0.032759085 0.018694485 0.053429574 -0.042831145 -0.055311736 -0.001203722
-0.05170948 -0.06823527 0.0044905697 -0.10045789 -0.044088423 -0.12846924 0.12969787 -0.10000068
0.056260712 0.035979956 0.027045093 0.0048456546 -0.044295758 0.051067844 0.018389143 -0.016078832
-0.024639584 0.06521517 0.14601004 -0.10656919 -0.015260654 -0.041871063 -0.023885092 -0.051127024
-0.09882001 -0.00034115586 -0.0343164 -0.03324936 0.09128318 0.044206977 0.10571805 -0.08857372
0.089339614 -0.058166888 -0.032675322 0.121012956 -0.03840368 -0.04199776 0.072728656 -0.019313406
0.0155621255 -0.053691406 0.06285001 0.12790926 0.049297046 -0.0023469534 -0.019536827 -0.0025531412
0.06458308 0.18457004 -0.021902619 -0.039238133 0.015407598 0.17858559 0.04726446 -0.0708194
0.016287027 0.012363504 0.058925793 0.05084785 0.04987449 0.08775962 -0.090681404 0.07234293
0.010506709 -0.0160423 -0.024337357 0.011598144 -0.05193196 -0.03627289 -0.004198038 0.07239117
-0.014473091 -0.0107877515 -0.024092022 -0.0024480803 -0.21497592 -0.036226243 -0.09368779 -0.016028594
00000000: 61dd 853c 3627 c23d b9f6 713d 0ab6 30be
00000010: 17b7 0a3e f86b bebc 5316 4f3d eaa0 a43c
00000020: aeef 8c3e 5972 46bc 2d2d 363e f356 823d
00000030: 767f 743d 4571 e33d 897a 053e 91ea da3c
00000040: 1715 06bd 7b95 67bd 683d 18bd 181a 073d
00000050: 37d1 cb3c 07f7 31bd 18af 4a3c 5e83 15bd
00000060: 32f0 babd e4b0 143d 3ac8 eb3c 3969 82bc
00000070: aadb dd3d 40d8 37be 87a2 8e3d 51cb 06bc
00000080: ad59 cbbd b0c0 07bd 61c0 a1bd 18b8 d0bc
00000090: cf25 09bd 3862 27bc 52fa d53d c622 1fbe
000000a0: c403 b0bc 0569 4fbd f064 94bd 14ff c1bd
000000b0: d683 193d b117 dc3d 3f88 913c 0cb9 a2ba
000000c0: 09c0 923d 8588 f93d d939 e3bc b9d6 5ebd
000000d0: cfbf d6bc ee79 cb3d cd9e 72bd 6741 383d
000000e0: d585 50bd d1a1 253d ecdb 1739 a7b0 0bbd
000000f0: 090f 173d 35b7 95bd b8bc 02be 445e bd3d
00000100: 835a d73d 1236 c43c 68bd 203e bd32 55b9
00000110: f787 acbc c289 fbbc 4de5 54bd c5af 143c
00000120: e11e 30bd ae77 0abc 6593 11be f592 a0bc
00000130: d253 fdbd 1db7 98bd a534 18bc b0e9 113d
00000140: 0c97 c3bd 19e4 febd 77d9 503d 6472 92bc
00000150: 623f a83d 3495 26bd d92c ebbd 6a90 9bbc
00000160: 466b 45bc b6ce 8b3c 4052 86bd a083 39bd
00000170: d255 843d 48ed 283d 00e1 c93d 532b eabc
00000180: 8e09 543d 141c ad3c 6744 77bc 3ce3 263d
00000190: a8e9 083c 5137 713d 8e7d 653d fcbb 013d
000001a0: 1a61 a53d 8259 713b 42b6 693d 761a 85bc
000001b0: 7f73 3dbd 57fc 083e cb29 9a3d c659 e9b7
000001c0: 43cb 2c3c 94e3 99bd 9909 5cbd 8d4b 19bd
000001d0: 24af 063c 22bf 173d f65f 99bd 1852 803c
000001e0: c2cf dbbd a98d 283d 901b e33d 93c2 eb3d
000001f0: 3f51 d43b 91ca bf3d 45b8 12be ad84 9d3d
00000200: f3d5 bebc 2fa4 75bc 45a2 d3bc 3ffe 1b3e
00000210: d440 d2bd 0896 103d e887 5b3b c785 0d3d
00000220: 3845 fe3c 961f 4a3d 5f42 893b f35a ab3d
00000230: bc18 ba3d 229c 6cbd 5788 b83c 5757 733d
00000240: f024 1d3e 9ae8 8abd 6a78 033e 746a 4bbd
00000250: 60f9 a1bb 0d20 00bd a986 2c3b 0e27 3b3d
00000260: 03b4 543d a730 123d 70e1 d33c 5b09 203d
00000270: 50bf 173e b32f 923d 087d 2dbd 0f70 b8bc
00000280: d107 c9bd b566 9cbd bdf9 78bd 9938 afbd
00000290: f43c aebd c79f 253c 6727 dd3b 1b6e 0ebe
000002a0: e399 e73d 8de3 12bc 642e 063d 2d25 993c
000002b0: f8d8 5a3d b66f 2fbd 8f8e 62bd 35c6 9dba
000002c0: 52cd 53bd efbe 8bbd a125 933b debc cdbd
000002d0: 1096 34bd 718d 03be 85cf 043e 28cd ccbd
000002e0: a271 663d b85f 133d ac8d dd3c 4cc8 9e3b
000002f0: 786f 35bd 842c 513d d4a4 963c c1b7 83bc
00000300: f4d8 c9bc 888f 853d a883 153e f340 dabd
00000310: d207 7abc fe80 2bbd abaa c3bc 926a 51bd
00000320: 2562 cabd 2add b2b9 5a8f 0cbd 7b30 08bd
00000330: adf2 ba3d 6012 353d b482 d83d 2366 b5bd
00000340: b0f7 b63d 6740 6ebd 8fd6 05bd a4d5 f73d
00000350: 2d4d 1dbd d805 2cbd c3f2 943d 2637 9ebc
00000360: 49f8 7e3c 85eb 5bbd 82b7 803d a5fa 023e
00000370: b3eb 493d 58cf 19bb b20b a0bc 9a52 27bb
00000380: 2244 843d eeff 3c3e 1f6d b3bc 2ab8 20bd
00000390: 2670 7c3c 24df 363e 6198 413d c309 91bd
000003a0: 5f6c 853c 4b90 4a3c 2c5c 713d d645 503d
000003b0: 3149 4c3d 51bb b33d 2cb7 b9bd 8828 943d
000003c0: 5524 2c3c 246b 83bc 235f c7bc 2406 3e3c
000003d0: 9bb6 54bd e292 14bd b28f 89bb d241 943d
000003e0: 8b20 6dbc 1cbf 30bc a25c c5bc f96f 20bb
000003f0: a622 5cbe f861 14bd 62df bfbd 664e 83bc

features.8.bias f4 [64]
-3.5834804e-05 1.8387651e-05 -0.000110432986 -3.7837388e-05 0.00021908327 0.00019225186 5.2429692e-05 -4.668888e-05
-6.0050323e-05 3.6138077e-05 -4.7847294e-05 6.68187e-06 0.00019129916 -7.102136e-05 8.2266915e-06 -4.9697617e-05
1.5927832e-05 8.665594e-05 3.208056e-05 7.290482e-05 -7.65e-05 -0.00020804218 0.00015782496 0.00012822107
5.1090457e-05 -6.161851e-05 4.127267e-05 1.1794155e-05 2.94257e-06 -0.00013439085 -0.0003391355 -7.199994e-05
4.6292225e-05 7.8024175e-05 4.4006203e-05 -1.1600411e-05 -5.7958887e-06 8.770355e-05 -7.405404e-06 6.356283e-05
-0.000311807 -0.00015651903 -1.4816234e-05 1.4625035e-05 -3.4174103e-05 5.7689977e-05 5.6864005e-06 -7.193201e-06
-2.0827023e-05 -0.00012770906 3.4119224e-05 -7.901309e-05 7.665776e-05 4.7485435e-05 8.715074e-05 0.00016283877
5.8090438e-05 -2.7632306e-05 1.8715446e-06 -7.204345e-05 1.0059977e-05 -0.00017115421 -7.5056945e-05 7.6331606e-05
00000000: 544d 16b8 2e3f 9a37 4298 e7b8 96b3 1eb8
00000010: b8b9 6539 3797 4939 f4e7 5b38 ced3 43b8
00000020: 8bde 7bb8 f792 1738 a4af 48b8 d434 e036
00000030: 7a97 4839 4df1 94b8 5f05 0a37 6972 50b8
00000040: c29c 8537 0ebb b538 3d8e 0638 7ae4 9838
00000050: a06e a0b8 e625 5ab9 d17d 2539 1573 0639
00000060: f649 5638 3039 81b8 311c 2d38 83df 4537
00000070: f878 4536 45eb 0cb9 ffcd b1b9 acfe 96b8
00000080: e629 4238 e9a0 a338 4d93 3838 639f 42b7
00000090: 4e7a c2b6 7ced b738 f07b f8b6 094d 8538
000000a0: 077a a3b9 421f 24b9 3e93 78b7 0c5e 7537
000000b0: 2a56 0fb8 24f8 7138 cfcd be36 205d f1b6
000000c0: b1b5 aeb7 a4e9 05b9 3d1b 0f38 d4b3 a5b8
000000d0: 52c3 a038 192b 4738 b2c4 b638 b3bf 2a39
000000e0: 22a6 7338 edcb e7b7 c831 fb35 0816 97b8
000000f0: 46c7 2837 dc77 33b9 e467 9db8 3814 a038

features.9.weight f4 [64]
1.1846089 1.2589494 1.0544809 1.1410216 1.2579883 1.210764 1.0670229 1.2913724
1.2252098 1.1242359 1.1849501 1.2119344 1.1436787 1.1696903 1.2047018 1.2192905
1.1765283 1.2732942 1.1071312 1.0197474 1.3223436 1.3275484 1.1246434 1.2742963
1.3259306 1.2184514 1.2626148 1.1344166 1.1862625 1.176139 1.2243712 1.1125945
1.2292312 1.2362401 1.2010044 1.1103559 1.1843765 1.2353652 1.2875513 1.237142
1.1153334 1.184039 1.2205697 1.2496874 1.265276 1.1461039 1.2513409 1.2935803
1.15511 1.2365507 1.1756111 1.2111855 1.2716305 1.2888457 1.189386 1.2427318
1.278475 1.1571443 1.1245455 1.2322372 1.3923621 1.5790377 1.2049435 1.1616948
00000000: 44a1 973f 4125 a13f 3bf9 863f ff0c 923f
00000010: c305 a13f 51fa 9a3f 3594 883f b14b a53f
00000020: add3 9c3f f6e6 8f3f 72ac 973f ab20 9b3f
00000030: 1064 923f 69b8 953f ab33 9a3f b611 9c3f
00000040: 7b98 963f 4efb a23f 7ab6 8d3f 1587 823f
00000050: 8e42 a93f 1bed a93f 51f4 8f3f 241c a33f
00000060: 18b8 a93f 37f6 9b3f 5d9d a13f 9034 913f
00000070: 73d7 973f b98b 963f 32b8 9c3f 7f69 8e3f
00000080: 7357 9d3f 1e3d 9e3f 83ba 993f 2420 8e3f
00000090: a699 973f 7220 9e3f 7bce a43f ab5a 9e3f
000000a0: 3fc3 8e3f 978e 973f a13b 9c3f c2f5 9f3f
000000b0: 90f4 a13f 88b3 923f f02b a03f 0a94 a53f
000000c0: a5da 933f 4b47 9e3f 6d7a 963f 2008 9b3f
000000d0: cac4 a23f e5f8 a43f cd3d 983f d611 9f3f
000000e0: 12a5 a33f 4e1d 943f 1bf1 8f3f f3b9 9d3f
000000f0: ec38 b23f e81d ca3f 973b 9a3f 6ab2 943f

features.9.bias f4 [64]
-0.005232604 -0.031174777 0.0001957389 0.012046882 -0.0124764275 -0.0059050797 -0.016011558 -0.004217022
-0.039888933 -0.08227893 -0.05973294 0.041374937 0.011507052 -0.032610595 0.030831294 -0.030165315
0.012734773 -0.033825725 0.0067950822 -0.020049898 -0.00031658998 0.024823898 0.013470137 -0.016966892
0.036121584 -0.081032746 0.018393923 -0.026706899 0.042604394 -0.09318323 -0.046743155 0.029454758
-0.12229042 -0.022234654 0.03405855 -0.0007178567 -0.06674208 -0.045037836 -0.030015355 -0.050088834
-0.031782787 -0.04324077 -0.016992437 0.0071960557 -0.071253434 -0.076014005 -0.089770496 0.05561695
0.0467491 -0.009322019 0.0061365273 0.05837714 0.0010447958 0.06057113 -0.02917904 0.04200429
0.016383609 -0.00089507503 0.020731552 -0.042324103 -0.050670456 -0.08372828 -0.04886602 -0.038332347
00000000: 4476 abbb 3f62 ffbc 433f 4d39 4960 453c
00000010: ee69 4cbc 667f c1bb ac2a 83bc f22e 8abb
00000020: 9462 23bd db81 a8bd 87aa 74bd c478 293d
00000030: 1388 3c3c b092 05bd e991 fc3c 401d f7bc
00000040: 82a5 503c d88c 0abd 48a9 de3b af3f a4bc
00000050: fdfb a5b9 7d5b cb3c d9b1 5c3c 27fe 8abc
00000060: 3af4 133d 7ff4 a5bd daae 963c 6dc8 dabc
00000070: f281 2e3d d9d6 bebd c075 3fbd 1b4b f13c
00000080: 6673 fabd 7325 b6bc fa80 0b3d 8c2e 3cba
00000090: 12b0 88bd 9879 38bd c3e2 f5bc f329 4dbd
000000a0: ab2e 02bd 3c1d 31bd b933 8bbc e4cc eb3b
000000b0: 52ed 91bd 3bad 9bbd 98d9 b7bd 99ce 633d
000000c0: fc7b 3f3d 62bb 18bc ec14 c93b de1c 6f3d
000000d0: 88f1 883a 6f19 783d e208 efbc b10c 2c3d
000000e0: eb36 863c 78a3 6aba 37d5 a93c 0a5c 2dbd
000000f0: d38b 4fbd bc79 abbd bc27 48bd 6102 1dbd

features.9.running_mean f4 [64]
0.48889652 0.59033 -0.07745113 0.025340654 0.122502595 0.6087254 0.1623341 -0.57919014
0.34407488 0.07398448 0.28253534 0.22702181 -0.2417478 0.2234396 -0.33075878 0.0767204
0.2674577 -0.0838796 -0.6677222 0.07828257 -0.30009767 -0.24887271 -0.37462658 -0.2937166
-0.1890236 0.6241225 -0.95204 -0.28796488 -0.23218937 0.29519385 0.79693085 -0.50369567
0.51338387 -0.15017146 -0.47306973 0.321665 0.017821444 -0.27871692 -0.88259 0.29363325
-0.11933414 0.38692218 0.034367897 -0.53832644 0.2158875 0.101342365 0.5049525 -0.27707133
-0.49338973 0.06744567 -0.21846093 -0.63636446 -0.302146 0.11727773 -0.22189751 0.25814888
0.08811467 0.13075635 0.5123744 0.145576 -0.0125821475 -1.3596177 0.022498542 0.48700458
00000000: a550 fa3e de1f 173f b39e 9ebd 3497 cf3c
00000010: a4e2 fa3d 6ed5 1b3f e93a 263e ce45 14bf
00000020: 952a b03e 2d85 973d 79a8 903e 6878 683e
00000030: bc8c 77be 5acd 643e 3759 a9be 961f 9d3d
00000040: 37f0 883e 11c9 abbd d8ef 2abf 9d52 a03d
00000050: 67a6 99be 7dd8 7ebe 0ecf bfbe 0662 96be
00000060: 678f 41be 7ec6 1f3f e5b8 73bf 2270 93be
00000070: 0dc3 6dbe a623 973e a903 4c3f 33f2 00bf
00000080: 206d 033f 8cc6 19be 3236 f2be 46b1 a43e
00000090: 47fe 913c fcb3 8ebe 6bf1 61bf 1957 963e
000000a0: 7565 f4bd aa1a c63e 5ac5 0c3d c3cf 09bf
000000b0: 9d11 5d3e 968c cf3d 9144 013f 4bdc 8dbe
000000c0: 949d fcbe f520 8a3d 39b4 5fbe c8e8 22bf
000000d0: e1b2 9abe 4e2f f03d 1a39 63be 172c 843e
000000e0: 7775 b43d fee4 053e f82a 033f e011 153e
000000f0: 5a25 4ebc f407 aebf dd4e b83c aa58 f93e

features.9.running_var f4 [64]
0.36156732 0.36356232 0.42179093 0.26269948 0.77242005 0.35633567 0.29845163 0.4051858
0.31869236 0.36796075 0.47212216 0.6900019 0.17963122 0.26770556 0.29379973 0.37228164
0.32166198 0.19708097 0.2746781 0.43503422 0.3669129 0.6275494 0.38770854 0.62811303
0.35251224 0.19504628 0.2759879 0.49016502 0.3030564 0.2569008 0.33285543 0.32201922
0.46092248 0.8363907 0.43602437 0.2518133 0.23739941 0.30072185 0.29413602 0.3073805
0.20762381 0.1810643 0.34260845 0.46310243 0.34258413 0.6450895 0.5425054 0.5450305
0.2625605 0.23307778 0.22329277 0.46652 0.5165054 0.24800359 0.24501584 0.43140006
0.44711286 0.25825068 0.39284515 0.7535313 0.51475376 0.91622496 0.28572023 0.28401473
00000000: 5a1f b93e d724 ba3e fbf4 d73e 8c80 863e
00000010: 52bd 453f a171 b63e a7ce 983e 8374 cf3e
00000020: a52b a33e 5a65 bc3e ffb9 f13e f7a3 303f
00000030: 3ff1 373e b410 893e eb6c 963e b39b be3e
00000040: e1b0 a43e 98cf 493e 9ca2 8c3e cebc de3e
00000050: 02dc bb3e 14a7 203f bc81 c63e 04cc 203f
00000060: 7c7c b43e 36ba 473e 494e 8d3e e9f6 fa3e
00000070: 352a 9b3e 8088 833e 076c aa3e b4df a43e
00000080: 08fe eb3e b31d 563f 963e df3e aced 803e
00000090: d518 733e 37f8 993e ff98 963e fa60 9d3e
000000a0: 569b 543e eb68 393e 606a af3e c31b ed3e
000000b0: 3067 af3e 9624 253f a2e1 0a3f 1e87 0b3f
000000c0: 546e 863e f1ab 6e3e dca6 643e b6db ee3e
000000d0: b339 043f a7f4 7d3e 6fe5 7a3e 78e0 dc3e
000000e0: faeb e43e 6f39 843e 0023 c93e 6de7 403f
000000f0: e7c6 033f b88d 6a3f ec49 923e 616a 913e

classifier.weight f4 [9, 64]
-0.10312126 0.14869876 -0.11797629 0.21035488 -0.29216012 0.400929 0.07551473 -0.35900232
0.059048712 -0.21404356 -0.38465133 0.35157326 0.17120163 0.063053764 0.15362293 0.3616155
0.04459533 -0.16782634 0.26091886 -0.09080778 -0.2505747 0.20095752 0.23470975 -0.27477407
0.59621286 -0.19909479 -0.07027261 -0.06475812 0.12096301 -0.13814282 0.2639917 -0.0016082374
-0.40830654 -0.33707842 0.4216606 -0.17315607 -0.23948285 -0.009410949 -0.24769224 -0.22795716
-0.15026653 -0.29127443 -0.015496118 -0.4206509 -0.014477295 -0.36071348 -0.67598933 0.42317015
0.2671556 -0.20323254 -0.054722145 0.39179322 0.16825521 0.122090615 0.30225548 0.49125624
0.6072314 -0.105866075 0.48950818 -0.45895725 -0.52651006 -1.1223823 -0.17156923 -0.08201409
-0.30933943 -0.08221958 -0.22442387 -0.04683591 -0.47598764 0.20066227 0.17900763 0.24841997
-0.46604976 -0.20889063 0.27439693 -0.29940706 -0.029166983 0.5335052 -0.06334621 -0.15273666
-0.13514537 0.35527217 0.15164591 -0.29698116 -0.033294745 -0.1653494 0.054599836 0.32386404
0.03487388 -0.14645413 -0.4545506 0.08631229 0.3936235 0.10326621 0.26897305 0.2863918
-0.40560213 -0.1682979 -0.39041242 0.04081967 0.109546 -0.043604236 0.02453672 0.3370677
-0.12835374 -0.41584346 0.028983934 -0.33915627 -0.43848604 0.123523645 0.18102215 0.09098676
0.13042158 -0.32731938 -0.31788898 0.06545957 0.08296002 -0.0393869 -0.12357187 -0.13788311
-0.02884852 0.37795168 -0.2515571 0.07703992 0.68776834 -0.11906281 0.2483093 0.191727
0.14342797 0.42530116 0.34074473 -0.24302623 0.52770483 -0.024280312 0.27961734 -0.27446413
0.048871417 0.033363905 -0.24603683 0.27836224 -0.14700092 -0.09820979 -0.03800476 0.16973493
0.105660126 -0.1952832 -0.091736525 -0.26940417 -0.33958876 -0.17444348 -0.38479275 0.45671234
0.040584277 -0.10022847 -0.14997123 0.27593637 -0.28923106 -0.12687266 -0.0012310474 0.020246226
0.10805371 0.53431726 0.30754852 -0.27552465 0.03779999 0.37767845 -0.3330833 -0.2548995
-0.23534474 -0.1265312 -0.17327331 0.37215164 0.046939258 0.17835881 -0.26636422 -0.46855253
0.29228398 -0.007644506 -0.09487575 -0.37882996 0.18612525 0.0010480343 -0.2266253 -0.19888592
-0.15794115 0.05022205 0.3383549 0.3438448 0.13167474 -0.009879007 -0.039659783 -0.34316516
-0.33310503 0.0434657 0.31551757 -0.4553626 -0.24294384 0.25062254 -0.3822067 0.41773874
-0.0929932 -0.37695718 0.15289162 0.4602642 0.079696216 0.13587673 0.44133025 -0.38347295
-0.38979608 -0.08848875 0.35273716 0.1739827 -0.46680441 -0.2527537 0.03310489 -0.04805885
-0.1106418 -0.29188722 0.3974845 -0.28565234 0.18373333 -0.5195891 -0.10510818 -0.034036603
0.20713411 -0.07772555 -0.078137584 -0.2742931 0.56118715 -0.2645838 -0.3564533 0.2614212
0.025950504 -0.00086166046 0.42842388 0.30247322 0.5195273 -0.061838586 -0.0473675 -0.58736986
0.17644799 0.1828002 -0.04996536 -0.19576994 -0.21184118 0.48309407 0.110555455 -0.21829484
-0.06138666 0.023074286 -0.02166584 0.13607672 0.10101875 -0.26447976 -0.19813788 -0.16130057
00000000: 3d31 d3bd 7d44 183e 8e9d f1bd 4567 573e
00000010: 0396 95be 9146 cd3e 77a7 9a3d 27cf b7be
00000020: 10dd 713d 3c2e 5bbe 05f1 c4be 6901 b43e
00000030: 7b4f 2f3e 5522 813d 544f 1d3e ab25 b93e
00000040: 98a9 363d abda 2bbe 2897 853e 6ef9 b9bd
00000050: 544b 80be cfc7 4d3e c157 703e 30af 8cbe
00000060: 68a1 183f 81df 4bbe 16eb 8fbd e89f 84bd
00000070: 74bb f73d 5075 0dbe ec29 873e 7ecb d2ba
00000080: 8e0d d1be 8b95 acbe e6e3 d73e d34f 31be
00000090: fe3a 75be 6230 1abc 09a3 7dbe 9a6d 69be
000000a0: 78df 19be ec21 95be 6ee3 7dbc 8e5f d7be
000000b0: 2d32 6dbc 70af b8be a30d 2dbf c2a9 d83e
000000c0: 9ec8 883e 311c 50be 5424 60bd 1f99 c83e
000000d0: 184b 2c3e a50a fa3d 3bc1 9a3e f085 fb3e
000000e0: 8473 1b3f 50d0 d8bd d1a0 fa3e 72fc eabe
000000f0: 5dc9 06bf 39aa 8fbf d8af 2fbe 01f7 a7bd
00000100: bd61 9ebe bd62 a8bd 5fcf 65be 03d7 3fbd
00000110: a7b4 f3be 697a 4d3e c74d 373e ce61 7e3e
00000120: 139e eebe 6de7 55be c17d 8c3e e24b 99be
00000130: 99ef eebc cc93 083f a8bb 81bd 0067 1cbe
00000140: 8c63 0abe 3ce6 b53e 1149 1b3e ea0d 98be
00000150: 1260 08bd 5a51 29be 14a4 5f3d 82d1 a53e
00000160: ead7 0e3d 12f8 15be dbba e8be 7fc4 b03d
00000170: 0589 c93e 3c7d d33d d6b6 893e f2a1 923e
00000180: 15ab cfbe 4956 2cbe 23e4 c7be 8732 273d
00000190: a759 e03d 5b9a 32bd 3b01 c93c 2394 ac3e
000001a0: 2a6f 03be 6fe9 d4be b76f ed3c e4a5 adbe
000001b0: 3e81 e0be f7f9 fc3d df5d 393e 4457 ba3d
000001c0: 3c8d 053e 6896 a7be 58c2 a2be ab0f 863d
000001d0: f1e6 a93d 2854 21bd 4013 fdbd 3b31 0dbe
000001e0: bb53 ecbc e282 c13e 18cc 80be 1bc7 9d3d
000001f0: 9611 303f 34d7 f3bd cb44 7e3e 1554 443e
00000200: c8de 123e 13c1 d93e 1876 ae3e dedb 78be
00000210: aa17 073f 81e7 c6bc 012a 8f3e 9086 8cbe
00000220: 652d 483d 97a8 083d 14f1 7bbe 7f85 8e3e
00000230: 6987 16be 3722 c9bd e1aa 1bbd fece 2d3e
00000240: 5664 d83d 52f8 47be 5ce0 bbbd 58ef 89be
00000250: 94de adbe 50a1 32be 8e03 c5be 33d6 e93e
00000260: b33b 263d 9644 cdbd 0f92 19be 8847 8d3e
00000270: 1816 94be e8ea 01be 195b a1ba 6adb a53c
00000280: 434b dd3d 04c9 083f 0077 9d3e 9111 8dbe
00000290: 2ad4 1a3d 125f c13e e589 aabe 3082 82be
000002a0: 36fe 70be 6591 01be 8f6e 31be a98a be3e
000002b0: 6143 403d b1a3 363e e460 88be 1ee6 efbe
000002c0: 3fa6 953e c47e fabb 384e c2bd 00f6 c1be
000002d0: 9e97 3e3e 325e 893a 7610 68be c0a8 4bbe
000002e0: 53bb 21be a3b5 4d3d da3c ad3e 6d0c b03e
000002f0: bed5 063e 8fdb 21bc 4c72 22bd 58b3 afbe
00000300: be8c aabe 1709 323d 858b a13e 4925 e9be
00000310: 45c6 78be 9951 803e 99b0 c3be dae1 d53e
00000320: 3873 bebd 8800 c1be 9f8f 1c3e c0a7 eb3e
00000330: c537 a33d 4523 0b3e 0af6 e13e 9156 c4be
00000340: 5a93 c7be 9739 b5bd f799 b43e 8528 323e
00000350: fd00 efbe ef68 81be fe98 073d 5bd9 44bd
00000360: 2b98 e2bd 3e72 95be 1783 cb3e 0641 92be
00000370: 9724 3c3e cb03 05bf f542 d7bd f769 0bbd
00000380: f71a 543e 932e 9fbd 9906 a0bd 2570 8cbe
00000390: f6a9 0f3f 8777 87be 0c81 b6be 00d9 853e
000003a0: 2796 d43c 0ee1 61ba 605a db3e c5dd 9a3e
000003b0: beff 043f 754a 7dbd 6c04 42bd df5d 16bf
000003c0: c8ae 343e fa2f 3b3e 7aa8 4cbd ea77 48be
000003d0: e5ec 58be 1b58 f73e e66a e23d af88 5fbe
000003e0: 9470 7bbd 4906 bd3c 8f7c b1bc b257 0b3e
000003f0: ebe2 ce3d e469 87be a8e4 4abe fa2b 25be

classifier.bias f4 [9]
0.070860036 -0.020084258 0.009823141 -0.0056017777 -0.050173175 -0.011427217 0.10474845 0.00914577
-0.03131434
00000000: 111f 913d be87 a4bc 3df1 203c 1e8f b7bb
00000010: 6382 4dbd 3939 3bbc 5b86 d63d 24d8 153c
00000020: 7743 00bd
