CNN Model Checkpoints/model0.pth (torch, 380101 bytes, 8 tensors)

features.0.weight f4 [32, 3, 3, 3]
0	0x3e24e450	0.1610272
1	0xbc20fa6c	-0.00982533
2	0x3ecba2bd	0.39772597
3	0x3e5cd852	0.21566895
4	0x3e8b56b7	0.27214596
5	0xbf1284ca	-0.5723387
6	0x3e251077	0.16119562
7	0xbea3af54	-0.31969702
8	0xbe9027de	-0.28155416
9	0x3e040db5	0.12895854
10	0x3dc4090c	0.09572038
11	0x3e8eb76f	0.27874324
12	0xbeea7459	-0.4579189
13	0x3ee6a3af	0.45046756
14	0x3e6f5860	0.23373556
15	0xbe8caac7	-0.27474043
16	0xbf01f5d7	-0.50765747
17	0xbe995f06	-0.2995531
18	0xbcedca48	-0.02902712
19	0x3e470cc2	0.1943846
20	0xbe89d4be	-0.26920122
21	0xbeda9088	-0.42688394
22	0xbe697a1e	-0.2280049
23	0x3de17174	0.110079676
24	0xbd5a61c0	-0.053315878
25	0xbd3ed63b	-0.046591025
26	0xbca0b105	-0.01961566
27	0xbe8d97d6	-0.27654904
28	0x3dd4a942	0.10383846
29	0x3c35b731	0.0110910395
30	0xbef0ec69	-0.47055367
31	0x3dd460a9	0.10369999
32	0x3ecea895	0.40362993
33	0x3bd4f3a6	0.0064987717
34	0xbd704e5d	-0.058668483
35	0x3dda97f0	0.10673511
36	0xbe8b5497	-0.27212974
37	0x3ec72ef7	0.3890302
38	0xba62e05a	-0.0008654647
39	0xbd832003	-0.0640259
40	0xbf64f00f	-0.894288
41	0x3e93bafc	0.28853595
42	0xbf086e5d	-0.532934
43	0xbe4eee4d	-0.20208092
44	0xbd89b19a	-0.06723328
45	0x3dae7c25	0.085197724
46	0x3dd2da85	0.102955855
47	0x3dd1f3a3	0.10251548
48	0xbdb5fb53	-0.08885827
49	0xbd511529	-0.05104557
50	0xbe1d4d03	-0.15361409
51	0xbda4cec3	-0.08047249
52	0x3e011df2	0.1260908
53	0x3cd69a46	0.02619661
54	0xbdd122e2	-0.102117315
55	0x3e314a30	0.17313457
56	0x3e3e7dc5	0.18602665
57	0x3d85bd31	0.06530226
58	0x3e719b73	0.23594455
59	0x3ef69bda	0.4816578
60	0x3d251dc7	0.0403116
61	0x3e6b0a4c	0.22953147
62	0x3ea314eb	0.31851897
63	0x3e4aaff1	0.19793679
64	0x3eaa57b6	0.33270043
65	0x3d3b9759	0.045798633
66	0xbf1abd06	-0.60444677
67	0xbee30418	-0.4433906
68	0xbeae997f	-0.34101483
69	0xbf0879fe	-0.53311145
70	0xbe875a66	-0.26436156
71	0x3b6e6e1a	0.0036381544
72	0x3e5fbd9a	0.21849671
73	0x3da23295	0.07919804
74	0xbd18599d	-0.037194837
75	0xbdd30978	-0.103045404
76	0xbe301fea	-0.17199674
77	0x3c803697	0.01565103
78	0xbe3b2921	-0.18277408
79	0xbd414ef1	-0.047194425
80	0x3a968e72	0.0011486544
81	0xbe39c279	-0.18140592
82	0xbefae475	-0.49002424
83	0xbef084a5	-0.469762
84	0xbd2c7b63	-0.04210986
85	0xbefc7e41	-0.49315074
86	0x3e0cee52	0.13762787
87	0x3e2c2650	0.1681149
88	0xbe8cc0a1	-0.27490714
89	0x3e83ae80	0.2571907
90	0x3c22aad2	0.009928422
91	0xbd67b7c2	-0.05657173
92	0xbc90dfa9	-0.017684774
93	0x3dce6c91	0.10079301
94	0x3e24e494	0.1610282
95	0x3c51ffc2	0.012817325
96	0x3e2edc55	0.17076237
97	0xbf101298	-0.5627837
98	0xbdad5a3c	-0.084644765
99	0xbdb4372b	-0.08799585
100	0x3e00a072	0.12561205
101	0x3e445a81	0.1917515
102	0x3e4cc968	0.19998705
103	0x3e985497	0.29752037
104	0xbea52eb3	-0.3226219
105	0x3dbcab49	0.092123576
106	0x3da159ba	0.07878442
107	0xbefbdf23	-0.49193677
108	0xbf1f1f93	-0.62157553
109	0x3e1d747b	0.15376465
110	0x3e115ff8	0.14196765
111	0xbef2886a	-0.473697
112	0x3a965d31	0.0011471865
113	0x3e7ea416	0.24867281
114	0x3e350d21	0.1768079
115	0x3de2e8f7	0.11079591
116	0x3e717af9	0.23582067
117	0x3e77c0a7	0.24194585
118	0x3dd7e4eb	0.105417095
119	0x3dd1ed31	0.10250319
120	0x3e71cc41	0.23613073
121	0xbcd71906	-0.02625705
122	0xbe164255	-0.14673741
123	0x3e800568	0.25004125
124	0x3e3392cb	0.17536466
125	0x3e3a03a9	0.18165459
126	0x3da23acf	0.07921373
127	0x3cd7cfd5	0.02634422
128	0xbe2b2e3b	-0.16716854
129	0x3d2cc271	0.04217762
130	0xbe6b54d2	-0.22981575
131	0xbe1c904b	-0.15289418
132	0xbe8ba724	-0.27275956
133	0xbdb9be8f	-0.09069549
134	0xbe81d89b	-0.2536057
135	0x3edf24a2	0.43582636
136	0x3db84447	0.08997398
137	0xbe52a9d8	-0.20572603
138	0x3eb20421	0.34768775
139	0x3ee61de8	0.44944692
140	0xbe8e9295	-0.27846208
141	0x3cb35fb5	0.021896223
142	0x3e53cac4	0.20682818
143	0x3eb185e3	0.3467246
144	0x3bd8f838	0.006621387
145	0xbe5c6488	-0.21522725
146	0xbeb81814	-0.3595587
147	0xbd14fdab	-0.03637473
148	0xbd5c52f8	-0.053790063
149	0xbe8989d7	-0.26862976
150	0xbd76bb3f	-0.060237166
151	0x3e61b870	0.22043014
152	0x3ebbadc2	0.36656004
153	0xbf2a2cff	-0.6647491
154	0x3d2722b0	0.040804565
155	0xbe1697d8	-0.14706361
156	0xbeaea82e	-0.34112686
157	0xbf276d9b	-0.6540162
158	0x3e184f14	0.14873916
159	0xbe5be98b	-0.21475808
160	0xbd38ed94	-0.045148447
161	0xbdbac6b4	-0.09119931
162	0x3e5569b5	0.20841105
163	0x3ee472c4	0.4461881
164	0x3ee0960c	0.43864477
165	0xbed6bcda	-0.41940957
166	0x3e22ba4e	0.15891382
167	0x3e96024b	0.29298624
168	0xbeeaca74	-0.45857584
169	0xbe88e54e	-0.26737446
170	0x3eb3472f	0.35015246
171	0x3ecb7aed	0.39742222
172	0x3ea15a0b	0.3151401
173	0xbdf7e4cb	-0.12104186
174	0xbdc3e855	-0.09565798
175	0xbd0e1def	-0.034696516
176	0x3d39940e	0.04530721
177	0xbdde861e	-0.108654246
178	0xbe5c18e1	-0.21493866
179	0xbd13cb0c	-0.036082312
180	0x3d19eece	0.037581258
181	0xbf0e7e4b	-0.5566146
182	0xbf1281eb	-0.5722949
183	0x3e14c79e	0.14529273
184	0xbdb2a86c	-0.0872353
185	0xbf1ebcfd	-0.62007123
186	0xbd97812e	-0.07397686
187	0xbc1d2f2a	-0.009593764
188	0xbee32291	-0.4436231
189	0xbefcfa79	-0.49409845
190	0xbe997f52	-0.2997995
191	0xbf0eb2c8	-0.5574155
192	0x3e92b938	0.28656936
193	0xbe91ada7	-0.284528
194	0xbe4ca072	-0.1998308
195	0x3eaa8ba4	0.33309662
196	0x3e76e892	0.24112156
197	0xbd383994	-0.044976786
198	0x3e04c660	0.12966299
199	0xbe81ebc5	-0.2537519
200	0x3f023992	0.50869095
201	0x3d919be5	0.07109813
202	0xbda1fb09	-0.07909209
203	0x3d63078e	0.055427127
204	0xbed74b2a	-0.42049533
205	0xbef5839b	-0.4795197
206	0x3da55121	0.08072115
207	0x3e69d36f	0.22834562
208	0x3d58e834	0.05295582
209	0x3eb6541e	0.3561105
210	0xbe18c1ff	-0.14917754
211	0x3e748fd8	0.23882997
212	0xbe25b161	-0.16180946
213	0xbdab09e8	-0.08351499
214	0xbdef6d47	-0.11690765
215	0x3e2cc653	0.1687253
216	0x3e16ad55	0.14714558
217	0x3ea92c1b	0.33041462
218	0x3e322072	0.1739519
219	0x3e164436	0.14674458
220	0x3daa0319	0.08301372
221	0x3ecb2833	0.39679107
222	0xbd8a9122	-0.06765963
223	0xbe73223d	-0.2374353
224	0x3ed96822	0.4246226
225	0xbe0633e5	-0.13105734
226	0xbdca4e09	-0.09878165
227	0x3d0decc2	0.034649618
228	0xbe3f6b39	-0.18693246
229	0xbde38843	-0.11109974
230	0xbeae694d	-0.34064713
231	0xbebee07b	-0.3728064
232	0xbeb06bd0	-0.34457254
233	0x3e9cbeb9	0.3061426
234	0xbecf032a	-0.404321
235	0xbe9ebf56	-0.31005353
236	0xbe303872	-0.17209032
237	0x3c988d45	0.01862205
238	0xbe426741	-0.189847
239	0xbea66088	-0.32495522
240	0xbd0332dc	-0.032030925
241	0x3e02a4d0	0.12758183
242	0xbd175704	-0.03694822
243	0x3ede3ebf	0.43407246
244	0xbd82fcdf	-0.063958876
245	0xbe84923d	-0.2589282
246	0x3eb1eaac	0.34749353
247	0xbcf2decd	-0.029647255
248	0xbd959342	-0.07303478
249	0x3e89a5c2	0.26884276
250	0x3e12716f	0.14301084
251	0x3e94eaa5	0.2908527
252	0x3e6d9659	0.23201884
253	0xbf83bc06	-1.0291755
254	0xbf8049c4	-1.0022511
255	0xbd6e8495	-0.05823191

features.0.bias f4 [32]
0	0xbe902364	-0.28152
1	0xbbe0ddbd	-0.0068623708
2	0x3d20569c	0.039145097
3	0x3bbf72a1	0.0058425223
4	0xbe9e4858	-0.3091457
5	0xbe19a583	-0.15004544
6	0x3c10a90f	0.008829369
7	0xbcfe7adf	-0.031064449
8	0xbd66f2e6	-0.05638399
9	0x3e0dbaff	0.13840865
10	0xbebf311f	-0.37342164
11	0x3dddaadd	0.10823605
12	0x3e4bdf31	0.1990936
13	0x3c85537e	0.016275164
14	0xbe47d70e	-0.1951563
15	0x3e77167c	0.24129671
16	0xbd924a2b	-0.07143053
17	0x3dafac12	0.08577742
18	0x3ddabeee	0.10680948
19	0x3e729ff5	0.23693831
20	0x3d2d0167	0.042237666
21	0x3de48c78	0.11159605
22	0x3c66a6d8	0.014077865
23	0xbe8bf747	-0.27337095
24	0xbe4e9679	-0.20174588
25	0xbe992099	-0.29907683
26	0x3e505f5b	0.20348875
27	0xbddb2104	-0.106996566
28	0xbe0083ef	-0.12550329
29	0x3dda6c07	0.10665136
30	0x3d2a4b93	0.04157598
31	0xbd17d7f0	-0.03707117

features.3.weight f4 [64, 32, 3, 3]
0	0xbef2303b	-0.47302422
1	0xbe7008e5	-0.23440893
2	0x3d59f099	0.053207967
3	0x3e1ef804	0.15524298
4	0x3e6731bc	0.22577566
5	0xbf034d27	-0.512896
6	0x3ec4d3d6	0.38442868
7	0x3e48f219	0.19623603
8	0xbf30b1a0	-0.69021034
9	0x3bb2e9c1	0.0054599945
10	0x3e730fe9	0.23736538
11	0xbdaec93d	-0.08534477
12	0xbe708b57	-0.23490654
13	0x3e80d8dc	0.2516545
14	0xbe84f33a	-0.25966817
15	0x3d443ea9	0.04791132
16	0xbe3225fe	-0.17397305
17	0xbebf3eb9	-0.3735254
18	0xbf1947c9	-0.5987516
19	0x3d3d0e88	0.046156436
20	0x3d9cbfd7	0.07653778
21	0xbe8d3908	-0.27582574
22	0x3e0539c2	0.13010314
23	0x3ed95e13	0.42454585
24	0x3e8960a7	0.26831552
25	0xbdf5a55c	-0.119944304
26	0x3de59ea5	0.112119
27	0x3e1bf92f	0.15231775
28	0xbe374a74	-0.17899495
29	0x3e11f88f	0.14254974
30	0x3d25656f	0.040379938
31	0x3ec6b138	0.38807082
32	0xbe085d2f	-0.13316797
33	0x3d6a1ae6	0.05715456
34	0xbe0b3b95	-0.13596947
35	0xbeb0be5b	-0.3452023
36	0x3e1ad4bd	0.15120216
37	0x3d32d4dd	0.043660033
38	0xbed1cd96	-0.40977162
39	0x3ce47346	0.027886998
40	0x3dea730f	0.11447727
41	0xbe9550d5	-0.29163232
42	0xbef6e440	-0.48221016
43	0x3e6ed688	0.23324025
44	0xbf0f16e5	-0.5589431
45	0x3e2dfd5a	0.16991177
46	0x3a6387eb	0.0008679616
47	0x3dbe4f4d	0.09292469
48	0xbe18983f	-0.14901827
49	0x3d8176b2	0.063214675
50	0x3d940b37	0.072287016
51	0xbe26a68e	-0.16274473
52	0x3e6f8dd1	0.23393942
53	0xbeabe91a	-0.3357628
54	0xbda0f199	-0.07858581
55	0x3e3e045e	0.18556353
56	0xbe000bc7	-0.12504493
57	0x3e68a123	0.22717719
58	0xbd10cbea	-0.035350718
59	0xbf005646	-0.5013164
60	0x3d79e5fd	0.06101035
61	0x3cdabc9f	0.02670127
62	0xbf1bd761	-0.6087552
63	0xbdee2121	-0.116274126
64	0xbe61d092	-0.2205222
65	0xbf4b771c	-0.7947862
66	0x3ea6c241	0.3257008
67	0x3e819da9	0.25315598
68	0x3dd89214	0.10574737
69	0x3d8c015e	0.06836198
70	0xbd2f59e0	-0.04281032
71	0xbf493ba8	-0.78606653
72	0xbf3f1b7f	-0.7465133
73	0xbd7aa054	-0.061188057
74	0xbe7e9bb9	-0.24864091
75	0xbc222f18	-0.009898923
76	0xbded7ce8	-0.115960896
77	0x3cab17b3	0.020885324
78	0xbe00085a	-0.12503186
79	0xbf208d83	-0.6271593
80	0x3d7d3003	0.061813366
81	0xbe92dec0	-0.2868557
82	0x3e697e55	0.22802098
83	0x3d01e42a	0.031711735
84	0x3e0cd3fa	0.13752738
85	0xbdae78bb	-0.08519121
86	0x3cd03848	0.025417462
87	0xbf083842	-0.5321084
88	0xbe578efd	-0.2105064
89	0x3de77fad	0.11303649
90	0xbd91676c	-0.07099804
91	0x3e16edc3	0.14739136
92	0xbf10eacc	-0.5660827
93	0x3dec4236	0.11536066
94	0x3c19050b	0.009339581
95	0xbeb109bd	-0.34577742
96	0xbe094f49	-0.13409151
97	0x3dd5e9dc	0.10444996
98	0xbeeafe1e	-0.45897
99	0x3d83d263	0.064366125
100	0xbeb8e983	-0.36115655
101	0xbf48491d	-0.7823656
102	0xbead19d6	-0.33808774
103	0x3e354b3d	0.17704482
104	0xbf12f225	-0.57400733
105	0xbf426563	-0.75935954
106	0x3b515353	0.0031940534
107	0xbe96bc43	-0.29440507
108	0x3e00aeeb	0.12566726
109	0xbcdf06d2	-0.027224932
110	0xbf2097c1	-0.6273156
111	0x3f06ab4a	0.52605116
112	0xbe0d4eb1	-0.1379955
113	0x3e6e0113	0.23242597
114	0xbf1fc8e7	-0.6241593
115	0x3e8f19f7	0.27949497
116	0xbf37d30d	-0.7180641
117	0x3e041ac2	0.12900832
118	0xbddae537	-0.106882505
119	0xbeb6a529	-0.35672882
120	0x3e0505be	0.12990472
121	0xbf3c0661	-0.73447233
122	0xbe8cee12	-0.27525383
123	0xbe351b38	-0.17686164
124	0x3e4d7ae4	0.2006641
125	0xbd608852	-0.054817505
126	0xbe9de34c	-0.30837476
127	0xbee2539a	-0.44204408
128	0x3ec7e92f	0.39045092
129	0x3de93e3a	0.11388822
130	0x3dbb3d28	0.09142524
131	0xbe58a1fb	-0.2115554
132	0xbe870c56	-0.263766
133	0x3e9e3500	0.3089981
134	0x3bd751f5	0.0065710493
135	0xbe30a173	-0.17249088
136	0x3c942312	0.01808313
137	0xbcbc1fd8	-0.022964403
138	0xbe9f1ec2	-0.31078154
139	0xbe4a59ab	-0.19760768
140	0xbe6ec0c4	-0.23315722
141	0xbbe6788b	-0.007033413
142	0x3e656905	0.22403343
143	0xbeb39346	-0.35073298
144	0x3d98c373	0.07459154
145	0x3cb99b97	0.022657199
146	0x3cd10d6c	0.025519095
147	0xbbd37e97	-0.0064542997
148	0xbcd2d99c	-0.02573853
149	0x3ce1c170	0.027558059
150	0x3c148af1	0.009066329
151	0xbd15ae4b	-0.03654317
152	0x3b204345	0.0024454158
153	0xbe8f3d17	-0.27976295
154	0x3d0afbbc	0.03393148
155	0xbd81de66	-0.06341247
156	0xbe7b0e17	-0.24517094
157	0x3ecd96e0	0.4015417
158	0x3e401ae1	0.18760253
159	0xbcfb547a	-0.03067993
160	0x3b7f6b76	0.0038973964
161	0xbe10f210	-0.1415484
162	0xbdd497c2	-0.10380508
163	0x3dcb461b	0.09925481
164	0xbe13dab2	-0.14438894
165	0x3e7b682e	0.2455146
166	0x3ebd4daf	0.3697333
167	0xbcc6e22f	-0.024277775
168	0xbe10fda2	-0.14159253
169	0xbd2c4b0d	-0.04206376
170	0xbd91b3b1	-0.071143515
171	0x3e507334	0.20356447
172	0xbe9941aa	-0.2993291
173	0x3d717c97	0.05895671
174	0xbe0c5795	-0.13705285
175	0xbe409dd1	-0.18810202
176	0x3e970d7f	0.29502484
177	0xbf252bc9	-0.64519936
178	0x3e8d8ec0	0.27647972
179	0x3c9d4e49	0.019202368
180	0xbea5085a	-0.32232934
181	0xba5d14a8	-0.0008433559
182	0xbd271781	-0.0407939
183	0x3e94b47c	0.2904395
184	0xbda7adba	-0.081874326
185	0xbe36c7d9	-0.17849673
186	0xbf2301a9	-0.6367441
187	0xbe861854	-0.26190436
188	0xbee79018	-0.45227122
189	0xbe96e1de	-0.29469198
190	0x3dce7388	0.100806296
191	0xbebcfc10	-0.36911058
192	0xbec288cf	-0.37995002
193	0xbf0833e5	-0.53204185
194	0x3f2e9d49	0.6820875
195	0xbda396f5	-0.07987777
196	0x3e24e079	0.16101255
197	0xbf0227f7	-0.5084223
198	0xbdb08d1b	-0.08620664
199	0x3e9ed346	0.31020564
200	0xbe964384	-0.29348385
201	0xbc58665f	-0.013208001
202	0x3f141a09	0.57852226
203	0x3e0c959b	0.13728945
204	0x3eab85e3	0.33500585
205	0x3e8de4e8	0.27713704
206	0x3e8ce2bf	0.27516744
207	0x3e5361b9	0.20642747
208	0xbd8e9d11	-0.06963552
209	0xbedb9f1b	-0.42894825
210	0x3e3531d5	0.1769479
211	0xbe3d6fee	-0.18499729
212	0x3eae10a2	0.33997065
213	0xbe141ca8	-0.14464056
214	0xbe09e658	-0.13466775
215	0xbe51c1b6	-0.20484051
216	0xbe82b751	-0.25530484
217	0x3d89a3c3	0.06720688
218	0xbe54af4e	-0.20769998
219	0x3e03e638	0.1288079
220	0x3e84000c	0.25781286
221	0xbef0abf7	-0.470062
222	0xbe2d54aa	-0.16926828
223	0xbea5e08e	-0.32397884
224	0xbeca3cdd	-0.3949956
225	0xbf6a09ca	-0.91421187
226	0xbddda9a1	-0.1082337
227	0xbdf2301d	-0.11825583
228	0xbe24791a	-0.16061822
229	0x3eccc81e	0.39996427
230	0xbda17b45	-0.0788484
231	0xbd7de196	-0.061982714
232	0xbecf8ebc	-0.40538585
233	0x3f13c7cd	0.57726747
234	0xbeeb64ae	-0.4597525
235	0x3d71b10c	0.059006736
236	0xbe81a468	-0.25320745
237	0x3e2d2dea	0.16912046
238	0x3d98ea00	0.07466507
239	0x3e84807c	0.25879276
240	0x3e992d06	0.29917163
241	0x3e10d478	0.1414355
242	0xbda0a164	-0.07843283
243	0x3debe0be	0.115174755
244	0xbe4daaca	-0.20084682
245	0xbd48f40c	-0.049060866
246	0xbe698e94	-0.22808295
247	0xbf2a22ea	-0.66459525
248	0x3e6df20c	0.23236865
249	0xbe7e8d89	-0.24858679
250	0x3cd808d7	0.026371403
251	0xbde4bb95	-0.11168591
252	0xbd6e9620	-0.05824864
253	0x3e4b4e1e	0.19854018
254	0x3e38fbba	0.18064776
255	0xbbba6ef1	-0.005689495

features.3.bias f4 [64]
0	0x3deae826	0.1147006
1	0x3e693c86	0.22776994
2	0xbd529c54	-0.051418617
3	0xbeaf1139	-0.34192827
4	0xbe8697b0	-0.26287603
5	0xbdb2b016	-0.08724992
6	0xbe8a6749	-0.27031925
7	0xbdd60fbd	-0.104522206
8	0xbe981815	-0.29705873
9	0xbdae58b3	-0.08513012
10	0xbe82a081	-0.2551308
11	0xbe0fd6ac	-0.14046735
12	0xbdc9c227	-0.09851485
13	0xbeb00ba2	-0.34383875
14	0xbe0fe741	-0.1405306
15	0x3e44fec7	0.19237815
16	0xbe0733d4	-0.13203365
17	0xbd9c1a94	-0.07622257
18	0xbdd9e234	-0.10638848
19	0xbd645604	-0.055746093
20	0xbd2e2334	-0.04251404
21	0xbd0b0eea	-0.03394977
22	0xbdbc03ea	-0.09180434
23	0xbd1ed964	-0.03878154
24	0x3ab7b777	0.0014016469
25	0x3c45e925	0.012079512
26	0xbd18ced4	-0.03730662
27	0xbde07e95	-0.109616436
28	0xbd8d6ae8	-0.069051564
29	0xbe183267	-0.14862977
30	0xbe5f1d38	-0.2178849
31	0xbe2f62dc	-0.17127556
32	0xbd86bc5d	-0.06578896
33	0xbdfe8e54	-0.12429491
34	0xbe0dcf56	-0.13848624
35	0xbe340729	-0.17580856
36	0xbe0c279e	-0.13686988
37	0xbdf754ed	-0.12076745
38	0xbdc9299f	-0.09822392
39	0xbe9148d4	-0.28375876
40	0x3eccf485	0.40030304
41	0xbd4f7155	-0.05064519
42	0xbe9bcd6d	-0.30430165
43	0xbcdc24ac	-0.026872955
44	0xbe26874e	-0.16262552
45	0xbe0d4529	-0.13795914
46	0xbe5cffd2	-0.21581963
47	0xbd12b8bc	-0.035820708
48	0xbd8812ec	-0.06644234
49	0x3e844bf9	0.25839213
50	0xbe176b91	-0.14787127
51	0xbcde6ec9	-0.027152436
52	0xbe915426	-0.28384513
53	0xbe9ce577	-0.30643818
54	0xbe1855a0	-0.14876413
55	0xbde4b812	-0.11167921
56	0xbd4d73e1	-0.05015934
57	0xbdf01635	-0.11722986
58	0xbd324dc4	-0.043531194
59	0xbe570abc	-0.21000189
60	0xbda6c443	-0.08142903
61	0xbec21196	-0.37904042
62	0xbe226f87	-0.15862857
63	0xbd174657	-0.036932316

features.6.weight f4 [128, 64, 3, 3]
0	0xbf0eeb56	-0.55827844
1	0xbe45ca45	-0.19315441
2	0x3e50e749	0.20400728
3	0xbe45d479	-0.19319333
4	0x3e8de40b	0.27713045
5	0xbe6e3a3f	-0.23264407
6	0xbf2b69d3	-0.6695835
7	0xbe467448	-0.19380295
8	0x3d11313d	0.035447348
9	0xbf3e6892	-0.7437831
10	0xbb144ab2	-0.002262753
11	0x3d8f2065	0.06988601
12	0xbf2a263f	-0.6646461
13	0x3da403ab	0.08008512
14	0xbd860c49	-0.06545312
15	0x3e905268	0.2818787
16	0xbcdfe655	-0.02733151
17	0x3e8a35cd	0.26994172
18	0x3bc421e7	0.005985487
19	0x3c2a5d71	0.010398255
20	0xbd6e3a31	-0.058160964
21	0x3d059512	0.032612868
22	0xbd88572e	-0.06657253
23	0x3c9d79da	0.019223142
24	0xbd6661fe	-0.056245796
25	0xbbecaf25	-0.0072230273
26	0x3c2c7cd8	0.010527812
27	0x3dbbf70a	0.09177978
28	0x3de34305	0.11096767
29	0x3d58b7cf	0.05290967
30	0xbf30ffd7	-0.6914038
31	0xbcc20bfe	-0.023687359
32	0xbe1e84de	-0.15480372
33	0x3e821e7b	0.2541388
34	0xbcdb76d2	-0.026790056
35	0xbe1c6b22	-0.15275243
36	0xbc4f6a16	-0.01265957
37	0xbcd10b4d	-0.025518084
38	0xbdbd0305	-0.092290916
39	0x3d2dbe4b	0.042417806
40	0x3d4c344f	0.049854573
41	0xbe22fccd	-0.15916748
42	0x3d36e2e9	0.044649992
43	0xbddd7cf7	-0.10814851
44	0xbd56cbfc	-0.05244063
45	0x3e832733	0.25615844
46	0x3d1531a5	0.036424298
47	0x3e678473	0.22609119
48	0x3e1be57d	0.15224262
49	0x3e2de25d	0.16980882
50	0xbd970589	-0.073741026
51	0xbc88615b	-0.016647985
52	0x3db9f474	0.09079829
53	0x3e61bcce	0.2204468
54	0x3d88e8ba	0.06685014
55	0x3b82b414	0.003988752
56	0x3c1e4bf0	0.00966166
57	0x3e61fe88	0.22069752
58	0xbdaf53c1	-0.08560897
59	0xbcca3ede	-0.02468818
60	0xbd92d8bb	-0.07170244
61	0xbec58da0	-0.38584614
62	0xbc958f80	-0.018256903
63	0xbd177814	-0.03697975
64	0x3d1d1eaf	0.03835934
65	0x3db4906e	0.0881661
66	0xbb0ea803	-0.0021767623
67	0x3d299c6b	0.041408937
68	0x3de3a0df	0.11114668
69	0x3da2ef18	0.0795576
70	0x3d770804	0.06031038
71	0xbd5980b2	-0.05310125
72	0xbe21fc62	-0.15818933
73	0xbe721cec	-0.23643845
74	0x3df4e629	0.11957962
75	0xbcba6220	-0.022751868
76	0x3e818df2	0.25303608
77	0xbe26c8e2	-0.16287568
78	0x3e2ff7ca	0.17184368
79	0x3e2ba5fd	0.16762538
80	0x3e2634b0	0.16231036
81	0xbba9c021	-0.0051803743
82	0x3d0dcf16	0.03462132
83	0x3b0a795f	0.0021129472
84	0xbcd6d316	-0.0262237
85	0xbc2f8f6f	-0.01071535
86	0xbdf56219	-0.11981601
87	0x3c92a984	0.017903097
88	0x3c2e125c	0.010624494
89	0x3dd86840	0.10566759
90	0x3bc3c8a3	0.0059748455
91	0x3e5ea7d8	0.21743715
92	0x3d20660a	0.039159812
93	0x3e1b959b	0.15193789
94	0x3cba9a60	0.02277869
95	0x3cb67e63	0.022277063
96	0x3e024bb0	0.12724185
97	0xbd593c08	-0.053035766
98	0xbe426b00	-0.1898613
99	0x3d5c0507	0.053715732
100	0x3dd7584f	0.105148904
101	0x3c06becf	0.008224203
102	0xbd2349af	-0.039865192
103	0xbe3f03f4	-0.18653852
104	0x3e2d0c92	0.16899326
105	0x3e623fe9	0.22094692
106	0xbe5ced49	-0.21574892
107	0xbe711388	-0.23542607
108	0xbd72f591	-0.05931622
109	0xbd4574eb	-0.048207205
110	0xbb1549be	-0.002277955
111	0xbc1c19eb	-0.009527664
112	0x3c276a9c	0.010218289
113	0xbd41d0f5	-0.047318418
114	0x3d6eaab9	0.058268283
115	0xbd266576	-0.040624104
116	0xbcf39832	-0.029735658
117	0x3aa8396f	0.0012834499
118	0x3c6d0447	0.014466352
119	0xbdca8f6a	-0.09890635
120	0xbda611d2	-0.08108868
121	0x3e0ac033	0.1354988
122	0x3e99e163	0.3005477
123	0xbe62746a	-0.22114721
124	0xbd64f008	-0.055892974
125	0xbedf4b90	-0.43612337
126	0xbe0389af	-0.12845491
127	0x3e6c0579	0.23048963
128	0xbb44c8d2	-0.0030026925
129	0xbe492713	-0.19643812
130	0x3eadcb4d	0.3394417
131	0x3e7fb70f	0.24972175
132	0x3ec9a06d	0.39380208
133	0xbf294cbe	-0.66132724
134	0x3e3aeaba	0.18253604
135	0x3ef76b04	0.48323834
136	0xbe8795be	-0.26481432
137	0x3dea5292	0.1144153
138	0xbf4450c9	-0.7668577
139	0x3e10c5cd	0.14137955
140	0xbe9093d8	-0.28237796
141	0x3e1384e1	0.14406158
142	0xbf0e76d3	-0.5565006
143	0xbd9d0fd4	-0.076690346
144	0xbed1dd09	-0.4098895
145	0x3eb5f8d0	0.3554139
146	0xbf08ee7f	-0.53488916
147	0xbe6874d3	-0.22700815
148	0x3ef12627	0.4709942
149	0x3dcf9c8e	0.10137282
150	0xbf2846ec	-0.6573322
151	0xbe7d241b	-0.24720804
152	0xbea77cd3	-0.3271242
153	0xbe5d3fe3	-0.21606402
154	0xbdd34052	-0.103150025
155	0x3c9e26b5	0.019305566
156	0xbd237cbd	-0.03991388
157	0x3d68b12f	0.0568096
158	0x3e34e20e	0.17664358
159	0x3eda0ea3	0.42589292
160	0xbdfea6cb	-0.12434157
161	0x3f196fc9	0.59936196
162	0x3c95f28c	0.018304132
163	0x3cc47b42	0.023984555
164	0x3c3e889e	0.011629252
165	0x3cd87f48	0.02642788
166	0xbd44d25a	-0.04805217
167	0xbc165721	-0.009176047
168	0xbc2fb389	-0.010723957
169	0xbd2fa7fa	-0.042884804
170	0xbd8de822	-0.069290414
171	0x3d29bd32	0.041440196
172	0x3d7babd8	0.06144318
173	0x3c0f762a	0.0087562
174	0x3caeb812	0.021328006
175	0x3ce28ca8	0.02765496
176	0xbc4f7c10	-0.012663856
177	0xbd06897d	-0.032845963
178	0x3d4d6f7c	0.050155148
179	0x3d216794	0.03940542
180	0x3dafcfbc	0.08584544
181	0x3ca82ad9	0.020528244
182	0x3d11c74e	0.035590462
183	0xbb58ca81	-0.0033079686
184	0xbd2444bb	-0.04010461
185	0xbd0421b7	-0.032258715
186	0x3b998c13	0.0046858876
187	0xbd9fdc69	-0.07805712
188	0x3ca4146f	0.020029275
189	0xbd8707c1	-0.06593276
190	0x3ca65333	0.020303344
191	0x3c682cb1	0.0141708115
192	0xbd382131	-0.04495353
193	0xbd3e82db	-0.046511512
194	0xbc9a1510	-0.018808872
195	0xbaa0a0e1	-0.0012254977
196	0xbcc3c13a	-0.023895849
197	0x3c9c4587	0.019076122
198	0xbe34e6ed	-0.17666216
199	0xbe09ab52	-0.1344426
200	0x3ec33635	0.38127294
201	0xbe7cd437	-0.24690329
202	0x3e525d4d	0.20543404
203	0xbe2a9919	-0.16659965
204	0xbdd65e5e	-0.10467218
205	0xbe1db059	-0.15399303
206	0xbbc4fac7	-0.0060113403
207	0xbb9b2fcf	-0.004735924
208	0x3cd1f2d8	0.025628492
209	0x3cf593bf	0.029977677
210	0xbc2590e4	-0.010105345
211	0x3d30d8dc	0.043175563
212	0x3d3f1f22	0.04666055
213	0x3d821c02	0.06352998
214	0x3cd63879	0.026149975
215	0x3c478299	0.012177133
216	0xbec166c4	-0.37773716
217	0xbe6d4ae7	-0.23173104
218	0xbe21d4cd	-0.15803833
219	0xbf1a2295	-0.6020902
220	0x3bb947cb	0.0056543103
221	0xbe99d1ac	-0.3004278
222	0xbec59fbb	-0.38598427
223	0xbeab3bbc	-0.3344401
224	0xbee994fe	-0.45621485
225	0x3e8c32ec	0.273826
226	0xbe0acc40	-0.13554478
227	0x3e81bc2c	0.25338876
228	0x3c8cc15a	0.017182041
229	0x3e1ae05a	0.15124646
230	0xbd8a595c	-0.06755325
231	0x3e2c13ba	0.168044
232	0xbed568df	-0.41681573
233	0x3e88a359	0.26687124
234	0x3d0eed67	0.034894373
235	0x3be57b57	0.0070032286
236	0x3e479c14	0.19493133
237	0xbe83b9f0	-0.25727797
238	0xbe96eaf1	-0.2947612
239	0xbef6fe10	-0.4824071
240	0x3e6cc210	0.23120904
241	0xbd1b20f2	-0.037873216
242	0x3e05abb9	0.13053788
243	0xbd58c9db	-0.05292688
244	0x3db30f39	0.08743138
245	0x3e3a084e	0.1816723
246	0xbd5c82d5	-0.05383571
247	0xbbe464f0	-0.0069700405
248	0x3e4431bd	0.19159599
249	0x3dc8a474	0.09796992
250	0x3b667847	0.0035166906
251	0xbc9733a3	-0.01845724
252	0xbbe548d2	-0.0069972062
253	0xbd8b447c	-0.06800172
254	0xbd80a98b	-0.06282338
255	0xbd1558fc	-0.036461815

features.6.bias f4 [128]
0	0x3e7e010d	0.24805088
1	0xbd4ca498	-0.049961656
2	0xbe85e0cd	-0.26148072
3	0xbe8cf3a6	-0.2752964
4	0xbeeab10c	-0.458382
5	0xbd694082	-0.056946285
6	0xbd443d2d	-0.047909904
7	0xbcccf3b2	-0.025018547
8	0xbd45e82b	-0.048317116
9	0xbeb6754a	-0.3563636
10	0xbe9891fd	-0.2979888
11	0xbdd85a03	-0.105640434
12	0xbecd4214	-0.40089476
13	0xbc8866e1	-0.016650619
14	0xbc54e52d	-0.012994093
15	0xbd60e3a1	-0.054904584
16	0xbe94c98e	-0.29060024
17	0xbd5f6c59	-0.054546688
18	0x3da6b558	0.08140057
19	0xbe513d99	-0.20433654
20	0xbebd8728	-0.3701718
21	0xbc4b831f	-0.012421398
22	0xbd5ef9ad	-0.054437328
23	0xbd130f0a	-0.035903014
24	0x3e9f3dbb	0.31101784
25	0xbde44c27	-0.111473374
26	0xbd7eaa41	-0.062174086
27	0x3d671aa3	0.056421887
28	0x3d87c9d8	0.066302955
29	0x3e054a21	0.13016559
30	0x3eaf9fc1	0.3430157
31	0x3ebb854b	0.36625132
32	0x3e9e26f0	0.30889082
33	0xbd0cd3e6	-0.03438177
34	0xbf0461fc	-0.5171201
35	0xbd31e5a6	-0.0434319
36	0x3e488a89	0.19584097
37	0x3d587573	0.052846383
38	0xbe209a4b	-0.15683858
39	0x3d4f51b0	0.050615013
40	0xbd1559c0	-0.036462545
41	0x3e1d33ae	0.15351745
42	0xbd42bd31	-0.04754371
43	0x3e01867b	0.12648956
44	0xbd73f869	-0.059563074
45	0xbd2c1733	-0.042014312
46	0xbdfe327a	-0.124119714
47	0xbd4bdfe4	-0.049774066
48	0xbe2eb8f7	-0.17062746
49	0x3b46fa43	0.003036157
50	0x3cfeb94a	0.031094212
51	0x3bd0d5f4	0.0063731615
52	0xbedf02db	-0.43556866
53	0xbd510927	-0.05103412
54	0xbd8618c4	-0.065476924
55	0xbd933753	-0.07188287
56	0x3e51a530	0.2047317
57	0xbd97b4d2	-0.074075356
58	0xbc864d57	-0.0163943
59	0xbe6c9f23	-0.23107581
60	0xbd28c555	-0.041203815
61	0xbc053b3e	-0.0081318
62	0x3e23626b	0.15955512
63	0x3d787488	0.060658008
64	0xbeb4ca62	-0.35310656
65	0xbdcc841c	-0.09986135
66	0xbd6ed3cc	-0.058307454
67	0x3d687cfb	0.056759816
68	0xbe332ffb	-0.17498772
69	0xbceb3679	-0.028712498
70	0xbd9deb61	-0.077109106
71	0xbd7290e2	-0.059220202
72	0xbd8f2f84	-0.06991485
73	0x3e3025ad	0.17201872
74	0x3b4c3869	0.0031161553
75	0x3ba23ec4	0.00495133
76	0xbe5fe6c1	-0.2186537
77	0xbe3893d8	-0.18025148
78	0xbd0dbd02	-0.03460408
79	0x3e169f01	0.14709093
80	0x3e447a09	0.19187178
81	0x3d57d6bc	0.05269502
82	0x3cfc1fef	0.030776946
83	0xbdf70d25	-0.12063054
84	0xbebc59d3	-0.3678728
85	0xbd061bbe	-0.0327413
86	0xbe1af3a5	-0.15132006
87	0xbcd0c9af	-0.025486795
88	0xbcf689db	-0.030095031
89	0xbbf6d773	-0.0075330078
90	0xbe9fa849	-0.3118308
91	0xba44ab0d	-0.0007502295
92	0x3de4de1e	0.11175178
93	0xbe9123fb	-0.28347763
94	0xbddc0878	-0.10743803
95	0xbd86876f	-0.06568801
96	0xbe2f0791	-0.1709273
97	0xbe1f82ed	-0.15577288
98	0xbcff7ad1	-0.031186493
99	0xbd87706d	-0.066132404
100	0xbe0f1dae	-0.13976166
101	0x3de7e8d3	0.113237046
102	0xbe7fb746	-0.24972257
103	0xbef05b5c	-0.46944702
104	0x3e45a496	0.19301066
105	0xbda335cb	-0.079692446
106	0xbd19036e	-0.037356786
107	0xbda4029c	-0.0800831
108	0xbe3c005b	-0.1835951
109	0xbec9ea64	-0.39436638
110	0xbd2f3497	-0.042774763
111	0x3d351df1	0.044218007
112	0xbea9fa43	-0.33198747
113	0xbdcff1f1	-0.101535685
114	0xbd87f01f	-0.06637596
115	0xbd666895	-0.05625208
116	0x3db22fdd	0.087005354
117	0xbe640c11	-0.22270228
118	0x3e470054	0.19433719
119	0xbdab864e	-0.08375226
120	0xbd555550	-0.052083313
121	0x3c2c0285	0.010498648
122	0xbf016ff1	-0.50561434
123	0xbd3e29ec	-0.0464267
124	0xbe5bc3ba	-0.21461383
125	0xbbf30651	-0.0074165245
126	0xbe21e1bf	-0.15808772
127	0xbeefea5e	-0.46858495

classifier.weight f4 [9, 128]
0	0x3cb91d0c	0.022596858
1	0xbd8cbe2b	-0.06872209
2	0xbc93431d	-0.017976338
3	0xbeefa63b	-0.4680651
4	0x3e23f663	0.16011958
5	0x3d831299	0.064000316
6	0x3d253a66	0.040338896
7	0x3eb4674b	0.35235056
8	0x3cb23772	0.021754954
9	0xbec8253d	-0.3909091
10	0xbf1f1939	-0.6214786
11	0x3e79a6ea	0.24380079
12	0xbed61b66	-0.41817778
13	0xbec5947a	-0.3858984
14	0xbebd2a8a	-0.36946517
15	0x3ec6bcf4	0.38816035
16	0x3d2ce84d	0.042213727
17	0xbe23f055	-0.16009648
18	0xbe1d4ad8	-0.15360582
19	0xbeb354bb	-0.35025582
20	0xbdf522a9	-0.119695015
21	0x3e9e2c0d	0.30892983
22	0xbcdebd09	-0.027189748
23	0xbed65ee2	-0.41869265
24	0xbccddc06	-0.02512933
25	0xbddfbe1c	-0.10924932
26	0xbd95b6bb	-0.07310244
27	0xbe9496c3	-0.29021272
28	0x3d7c293a	0.061562754
29	0xbd61b0fa	-0.05510042
30	0x3e8cf85c	0.27533233
31	0xbe6799ef	-0.22617315
32	0x3e2ff7d1	0.17184378
33	0xbd4917c7	-0.04909494
34	0xbe9d0271	-0.30665925
35	0x3d5044e6	0.050846957
36	0xbe7498d8	-0.2388643
37	0xbbeead0d	-0.007283813
38	0xbd9195c1	-0.071086414
39	0xbe28a015	-0.16467316
40	0xbda44d2c	-0.08022532
41	0x3e76c148	0.24097168
42	0xbd70a32f	-0.058749374
43	0xbf3115c6	-0.6917385
44	0x3e66cd3c	0.22539228
45	0x3e3f0e8e	0.18657896
46	0x3f0c4880	0.54798126
47	0x3d92e4d4	0.07172552
48	0x3e83af8d	0.25719872
49	0xbe4986b1	-0.19680287
50	0x3e8c6df4	0.27427638
51	0x3e78eaae	0.24308273
52	0x3e5133f8	0.20429981
53	0xbd7ad6a4	-0.061239854
54	0xbd18f34e	-0.03734141
55	0x3d0b0c0e	0.033947043
56	0xbceaad43	-0.02864707
57	0xbd8b9e0c	-0.068172544
58	0xbeea22ff	-0.45729825
59	0xbf260690	-0.64853764
60	0x3ccd9296	0.025094312
61	0xbe2c98ed	-0.16855212
62	0xbe988736	-0.29790658
63	0x3e441c21	0.19151355
64	0x3e58caba	0.21171084
65	0xbd8c9682	-0.068646446
66	0x3bb690be	0.005571454
67	0xbe01eb15	-0.12687333
68	0x3f034f62	0.51293004
69	0x3e1bdefd	0.15221782
70	0x3e21cfc9	0.1580192
71	0xbdb98423	-0.09058406
72	0xbd5a7816	-0.05333718
73	0xbc544c59	-0.012957656
74	0x3d2f8d04	0.042859092
75	0xbc686a08	-0.014185436
76	0x3eb04307	0.34426138
77	0x3e123b7c	0.14280504
78	0xbd87c254	-0.06628862
79	0xbebd4899	-0.3696945
80	0xbe67347a	-0.22578612
81	0x3e9240a4	0.28564942
82	0x3ec7c45a	0.39016992
83	0x3c76b0fa	0.015056843
84	0x3df626cd	0.120191194
85	0x3ce8721d	0.028374726
86	0xbd990d5e	-0.07473253
87	0xbcafdd6f	-0.021467892
88	0xbccf4e5f	-0.025305925
89	0xbe83d2ca	-0.25746757
90	0xbddb7c9f	-0.10717129
91	0x3e52b13d	0.20575424
92	0x3cb13a36	0.021634202
93	0xbe7bee1d	-0.24602552
94	0xbf2df6f3	-0.6795494
95	0xbd59e7cb	-0.05319957
96	0x3e96453b	0.29349694
97	0xbeda51ee	-0.42640632
98	0xbdaffa81	-0.08592702
99	0xbf4a212b	-0.7895686
100	0xbda3bc48	-0.07994896
101	0xbefc608b	-0.49292406
102	0x3e1a3c72	0.1506212
103	0xbe3b52de	-0.1829333
104	0x3da80ed9	0.08205957
105	0x3c2d0ccb	0.010562132
106	0xbe630b77	-0.22172342
107	0x3c58a0da	0.013221944
108	0xbec20bf9	-0.3789976
109	0xbe2e394a	-0.17014042
110	0xbae3b196	-0.001737165
111	0x3e3ca63e	0.18422791
112	0x3e3eeeb7	0.1864575
113	0x3e92e51e	0.28690428
114	0x3c0b25b2	0.008492874
115	0xbd4ba59d	-0.049718488
116	0x3db4e9dc	0.08833668
117	0xbf09643b	-0.53668565
118	0x3dae3712	0.085065976
119	0xbbcd7268	-0.006269742
120	0x3d197bad	0.037471462
121	0xbbbd3a30	-0.0057747588
122	0xbde938a8	-0.113877594
123	0x3d00e113	0.031464648
124	0xbe97b6fc	-0.29631793
125	0xbcd9e99a	-0.026600648
126	0xbe5ff5c2	-0.21871093
127	0x3dcad8e4	0.0990465
128	0xbe19d86d	-0.15023966
129	0xbeea539d	-0.45766917
130	0xbe4c2db2	-0.19939306
131	0x3e4aa18f	0.19788192
132	0xbce92f55	-0.028464952
133	0x3d8f5b38	0.069998205
134	0xbd9ed46b	-0.07755359
135	0xbe8341bd	-0.25636092
136	0xbd89eb92	-0.067343846
137	0xbc3ca643	-0.011514249
138	0xbcc36c24	-0.023855276
139	0xbdc17b7e	-0.094473824
140	0xbe6361c5	-0.22205265
141	0xbe32a21c	-0.17444652
142	0xbf50dcef	-0.8158712
143	0xbf032ce6	-0.51240385
144	0xbe14d66f	-0.14534925
145	0xbe6d9b50	-0.23203778
146	0x3d96920a	0.073520735
147	0xbf8e0e84	-1.109818
148	0x3e8bc98b	0.27302203
149	0xbf056f57	-0.52123016
150	0x3c694dc5	0.014239733
151	0xbea1e811	-0.31622365
152	0x3e645091	0.22296359
153	0xbe29b34e	-0.16572306
154	0xbc89ab8c	-0.016805433
155	0x3ec7b7b7	0.3900735
156	0xbd8e183c	-0.06938216
157	0x3c0e02e7	0.008667684
158	0xbde54586	-0.11194901
159	0xbf3be6ef	-0.7339925
160	0xbec5b24d	-0.38612595
161	0x3c8aed4b	0.016958853
162	0x3e26db34	0.16294557
163	0x3d3d36d0	0.04619485
164	0xbe86cfed	-0.2633051
165	0x3ea4aa90	0.3216138
166	0xbec02dfd	-0.37535086
167	0xbe8077e4	-0.2509147
168	0xbd3cbe58	-0.046079963
169	0xbe8dd4c9	-0.27701405
170	0xbdb9db1a	-0.090749934
171	0x3e3ec178	0.1862849
172	0xbc14f6a6	-0.009092009
173	0xbec7d575	-0.39030042
174	0x3de2d278	0.110753
175	0xbda5f9c8	-0.081042826
176	0xbe0a16c6	-0.1348525
177	0x3d8030b2	0.06259288
178	0xbf7f2b9a	-0.99675906
179	0xbf02d3d5	-0.5110448
180	0x3dce5add	0.100759245
181	0xbe4c8d38	-0.19975746
182	0x3c41422d	0.011795563
183	0xbd9a3d6e	-0.07531248
184	0xbeb7a642	-0.35869032
185	0x3d5a114f	0.053239163
186	0xbf073ee7	-0.52830356
187	0x3c6d9978	0.014501922
188	0x3da07351	0.07834495
189	0xbe0ea6fb	-0.13930885
190	0x3ea95cc5	0.3307859
191	0xbf42489e	-0.75892055
192	0x3dfa0af0	0.122091174
193	0xbdb4a1db	-0.08819934
194	0xbdb145f6	-0.08655922
195	0xbec16712	-0.3777395
196	0xbe704fa7	-0.23467885
197	0x3db00918	0.085954845
198	0xbdd98a34	-0.10622063
199	0x3c9da3cc	0.019243143
200	0x3cc2881b	0.02374654
201	0xbf1660f7	-0.58741707
202	0xbc9fff49	-0.01953091
203	0x3d9a58d9	0.075364776
204	0x3e4aea24	0.1981588
205	0xbd629f6e	-0.055327825
206	0x3d1e5f1b	0.03866492
207	0xbf0ae7f8	-0.54260206
208	0x3d1c7cc8	0.03820494
209	0xbea2476b	-0.31695113
210	0xbf153bc4	-0.5829432
211	0x3d941618	0.072307765
212	0x3c88023b	0.016602626
213	0x3d685384	0.05672027
214	0x3c3c1baa	0.011481205
215	0xbda2649d	-0.07929347
216	0xbb8b2e95	-0.0042474964
217	0xbe93f0fb	-0.2889479
218	0xbbcc3a2e	-0.0062325215
219	0x3c852ccb	0.01625671
220	0xbf2d1430	-0.6760893
221	0xbc0b7342	-0.008511366
222	0xbf1f60ae	-0.62256896
223	0xbca2fac7	-0.01989497
224	0x3ed26cec	0.41098726
225	0x3ed22f0b	0.41051516
226	0x3ea4ea5a	0.32210046
227	0xbe8bbc68	-0.2729218
228	0xbf01bc93	-0.50678366
229	0xbe0edc86	-0.1395131
230	0xbdaa7bb5	-0.083243765
231	0x3e01d952	0.12680557
232	0x3e46a963	0.19400553
233	0x3d9882ed	0.07446847
234	0xbdc1e4bb	-0.09467455
235	0x3d6ce896	0.057839
236	0xbe92bc3b	-0.28659233
237	0xbd14ce76	-0.03632971
238	0xbcf7f439	-0.030267822
239	0x3d5160e0	0.051117778
240	0x3e1fbd8b	0.15599649
241	0xbdc724a4	-0.097237855
242	0x3c8f5c51	0.017500075
243	0x3a620283	0.000862159
244	0x3e97823e	0.29591554
245	0xbefc7fa3	-0.4931613
246	0xbc18f109	-0.009334811
247	0x3c452f54	0.01203521
248	0x3d4667de	0.0484389
249	0x3f0a65a3	0.54061335
250	0x3d72b90e	0.059258513
251	0x3c07366e	0.008252723
252	0xbea2dcf9	-0.31809214
253	0x3c89c837	0.016819103
254	0xbdc7e33e	-0.0976014
255	0xbcd81c6e	-0.026380744

classifier.bias f4 [9]
0	0xbe02a123	-0.12756781
1	0xbe18904a	-0.14898792
2	0xbefdfa3d	-0.4960498
3	0x3e2d72ae	0.16938278
4	0xbe8f4635	-0.2798325
5	0xbcee059a	-0.029055405
6	0x3e42c733	0.19021301
7	0xbc745530	-0.014912888
8	0x3ec485f5	0.3838345
