CNN Model Checkpoints/model0_1.pth (torch, 380569 bytes, 8 tensors)

features.0.weight f4 [32, 3, 3, 3]
00000000: 3877 953e dde5 87be 964f 3ebe 86e1 1f3f
00000010: 02c2 b83c 8276 17bf 2d5d e5be 6663 123f
00000020: cc3c 6a3e 95c5 43be 5337 9cbe d789 4ebd
00000030: bced 32bc 652c debe 54f4 edbe 2d1d 08bf
00000040: 8d9a d83e 67b0 9e3e 0df9 6bbd 4ade 373e
00000050: 8ae0 f1bc c260 d1be 657a 14be 18f6 1e3e
00000060: a532 c4bb b853 54bd 68c6 683e 9aec df3e
00000070: 1019 913e c7d1 c53e 2e87 b0be 7b58 e2be
00000080: ede7 6dbf 6d22 ccbd 0ecb eebe b77c 933e
00000090: 49b2 523e 8049 363e 60a4 90bc aca6 e3be
000000a0: a54f 89be e7ba 7dbd 1321 93be c870 9dbe
000000b0: d9bc 983e f0bf dbbe 77e0 9fbe 09d1 5bbf
000000c0: d155 5dbd 0919 4e3e ab28 1c3d 973c 8fbd
000000d0: 97b5 a43d 5d69 f0be 7548 733e caea 5c3e
000000e0: f35f 963e d51d 7c3d 03ec 603e 4a5f 923e
000000f0: aa9b 44bd 8f4c b13d 7f80 b33c 40e1 98bf
00000100: 644d 17bf 7896 26bf 3de4 d8be b586 b13e
00000110: 9a69 1dbf ef99 e83e dda2 e73e d548 e83e
00000120: 4354 31be 38f6 90be f1d3 7bbe 11ac 80be
00000130: d6bc 85be 2451 acbe add7 1d3e a17e 653e
00000140: d05f 653e b68d 7a3c 76ed c63e 3d00 d93d
00000150: 8e3a 9f3e 5fd3 0c3f cf03 e5be f2b8 a23e
00000160: 6973 58be e178 63be 72df dc3c 3349 8fbe
00000170: 6066 79be aaa6 973c f6a7 b0be fa39 88be
00000180: e3ab f03d 39e1 03be f3f3 c2bd dbc3 9a3d
00000190: 06b7 b4be a3a6 73bd b303 ecbe d93c 99be
000001a0: 5536 703e f480 4fbf 5d9f 03b9 1a7b 87be
000001b0: dda9 09be 2cc0 bcbd 87b3 03be dce9 433d
000001c0: 07f9 f2be 8b4a 7cbe f9b8 7cbe 2bee 88be
000001d0: dd26 da3e e30a 063f 9ef3 3cbd face 83bd
000001e0: f979 bdbe 4d46 cbbe 0fad c1be 4c00 ab3c
000001f0: 7855 0cbf 62b3 023f 7be4 9e3e 34e0 273e
00000200: 8a1e 233e 621f f33c c232 963d 56c1 423e
00000210: 2d30 813c b9ed 073e 688e 50be 84a8 03bf
00000220: c044 0ebf 5f22 033e 1418 9cbe e5a0 dc3e
00000230: 764d 06be c09f d03e 4f7e 743e 6e9f c83c
00000240: c299 e6bd b63e 1cbe 04bb 103e 3f4d ca3d
00000250: 9af3 df3c adc6 19be bada d63d 5724 35bd
00000260: 2e0a cf3a 5031 cfbd 9313 c8b8 a8b1 3fbe
00000270: 6f4e a73d bc5d 05be 1761 d53c 1ab6 98be
00000280: 0724 44be f5ca 43be f755 3abe 6b2f f83e
00000290: 2cfc 3abf 611e 2abc 4d79 c9be c879 2abf
000002a0: f245 d3bd 7cc3 70be c2cc 43be 8b9d e83d
000002b0: 1efc a53e 1f65 08bc 077d 96be cf03 91be
000002c0: f78a 5b3d 9823 eb3d e9f1 98bb f02b 823d
000002d0: f489 82be 7fb2 01bf d17e ba3d 2c39 8fbe
000002e0: 0b93 2fbd cf71 b53e 5b1c cabd 5626 833e
000002f0: fd79 623e 3524 a0be 26d0 033e dd78 943e
00000300: c1ea 8c3d e4f1 d13e ff31 7f3e f7d8 1c3e
00000310: f862 103e 29ff 803e 50b0 813e 03d4 7a3d
00000320: fe29 11bc 0705 0f3e cf23 32bc bd95 863c
00000330: 22cd 753d 17a1 5b3e 0940 aa3e 7f60 823e
00000340: 1914 71be aeb1 11bf 8212 a7ba 0c3e d6be
00000350: e574 bebe c6b4 bcbe 46a0 efbe 6fdd 9ebd
00000360: 31b7 4bbf 4506 c33e b085 c23e d731 0dbf
00000370: 16a3 c43e 7057 b63c 9014 3cbf df19 3abf
00000380: 8738 16bf 644f b7be e1b1 f9bc 95f7 81be
00000390: 31cd 12bf c861 b03e ae5f d13e e3ac e3be
000003a0: 225f fabe 2194 bf3d 5269 ea3d 638a a1bd
000003b0: a299 acbe 106d 8e3e 270f f43c 1afb 813d
000003c0: dfa7 113e 1e2e ea3d 02e9 c63d b0a1 dd3e
000003d0: 68f2 05bf 34cd a83d b62a b5be 36e0 1dbd
000003e0: 9359 193c beb8 3cbd 2502 36bf e91b 01bf
000003f0: 97d0 c1be 339f 29be 34e2 be3d 4648 5abf
0.2919252 -0.2654256 -0.18585047 0.62453496 0.022553448 -0.59165204 -0.4479765 0.5718292
0.22874755 -0.1911834 -0.3051096 -0.050424423 -0.010920938 -0.43393245 -0.4647547 -0.5316952
0.42305413 0.3099396 -0.05761056 0.1795589 -0.029526014 -0.40894133 -0.14499815 0.15523565
-0.0059874826 -0.051837653 0.22731936 0.437352 0.28339434 0.3863661 -0.34478134 -0.4420813
-0.92932016 -0.09967504 -0.46639293 0.28806087 0.20575823 0.17801476 -0.017656505 -0.44463098
-0.26818576 -0.061945822 -0.2873617 -0.30750108 0.2983158 -0.42919874 -0.3122594 -0.8586584
-0.05403692 0.20126738 0.03812472 -0.069939785 0.08042448 -0.46955386 0.23758109 0.2157394
0.29370078 0.061551888 0.21965031 0.28588325 -0.048000015 0.086571805 0.021911858 -1.1943741
-0.59102464 -0.6507335 -0.42361632 0.34673086 -0.6148926 0.45429942 0.45241442 0.45368066
-0.173173 -0.2831285 -0.24592568 -0.25131276 -0.26120633 -0.33655655 0.15414305 0.22411586
0.22399831 0.015292576 0.38853043 0.105957486 0.3109936 0.55010027 -0.44729468 0.31781727
-0.21137775 -0.2221408 0.026962016 -0.27985534 -0.24355459 0.018512089 -0.34503144 -0.26606733
0.11751535 -0.12878884 -0.09519186 0.07556888 -0.35295886 -0.05948509 -0.46096572 -0.29929236
0.23458226 -0.8105614 -0.00012552501 -0.26461107 -0.13443704 -0.092163414 -0.12861453 0.047830448
-0.47455618 -0.24637811 -0.24679936 -0.26744208 0.42607775 0.5236036 -0.04613077 -0.06435962
-0.3700712 -0.39702073 -0.37827346 0.020874165 -0.54817915 0.51054966 0.31033692 0.1639412
0.15929618 0.02967805 0.073339 0.19019064 0.015770042 0.13274278 -0.20366824 -0.5142901
-0.55573654 0.1280608 -0.3048712 0.43091503 -0.13115487 0.4074688 0.23876308 0.024490084
-0.11259796 -0.15258297 0.14133841 0.09878015 0.027337838 -0.15017195 0.104909375 -0.04422411
0.001579588 -0.101168275 -9.540389e-05 -0.18720114 0.08169257 -0.13024038 0.026047273 -0.29826432
-0.19154368 -0.1912039 -0.18196855 0.48473677 -0.73041034 -0.010383219 -0.39350358 -0.66592073
-0.103160754 -0.23512071 -0.19121078 0.11358174 0.32418913 -0.00832489 -0.29392263 -0.28323218
0.053599324 0.11481398 -0.00466751 0.06356037 -0.25495875 -0.5066299 0.091062196 -0.27973306
-0.04286484 0.35438392 -0.098686896 0.25615185 0.22116847 -0.31277624 0.12872371 0.2899846
0.06880713 0.4100486 0.24921416 0.1531714 0.14100254 0.25194672 0.25329828 0.061237346
-0.008860109 0.13966762 -0.010872795 0.016428823 0.060010083 0.2144817 0.3325198 0.25464246
-0.23542823 -0.5691174 -0.0012746605 -0.41844213 -0.37198558 -0.3685667 -0.46801966 -0.07757079
-0.795764 0.3809072 0.3799262 -0.55154175 0.38405675 0.02225849 -0.73468876 -0.72695726
-0.58680004 -0.35802758 -0.030480327 -0.25384203 -0.5734435 0.344496 0.4089331 -0.4446784
-0.48900706 0.09354425 0.114458695 -0.07887723 -0.33710963 0.27817583 0.029792381 0.06346722
0.14224194 0.114345774 0.097124115 0.4328742 -0.5232301 0.082422644 -0.35384148 -0.038543902
0.009359735 -0.04607462 -0.7109702 -0.5043321 -0.37854454 -0.16564636 0.093204886 -0.8526653

features.0.bias f4 [32]
00000000: c9aa 89bd f6f8 af3d 945f 6a3d 8024 0b3e
00000010: 0e00 ccbc 955e ae3d 3ad7 a03d 78e3 77be
00000020: fcc2 f43d 46a2 733e 3e1d 0ebb 5ce0 9d3d
00000030: 9751 1e3e 9876 263e 3332 fb3d 3929 41be
00000040: 75ac 223c 2381 f73d cdb4 7d3d 9c1a 6fbe
00000050: 3987 e83c c965 c8bd 5ade ca3d 2e50 fb3c
00000060: b0fb 3c3e f956 b4be 8ffc 96bd 079a 82be
00000070: 304a 80bd 9e8a 0fbe c3a4 4e3d 1bbe 263c
-0.06722028 0.085924074 0.057220057 0.13588142 -0.02490237 0.08514134 0.07853551 -0.24207866
0.11951253 0.23792371 -0.002168491 0.07708809 0.15460812 0.16256177 0.12265434 -0.18863381
0.009928812 0.12085178 0.061940003 -0.23349994 0.028384792 -0.09785039 0.099056914 0.030677881
0.18455386 -0.35222605 -0.073723905 -0.2550814 -0.0626415 -0.14017722 0.050450098 0.010177161

features.3.weight f4 [64, 32, 3, 3]
00000000: 371a 9b3d edcd 64bf f456 c7be f68f c0bc
00000010: 86ed 95be 0d51 8e3e 6d1b c0bd 7f29 0bbe
00000020: 7783 05bf 86be bbbd 1d7c 01be 93d1 4b3d
00000030: 0c25 c9be 553e 223e 4020 4e3c 77c4 b13e
00000040: cb83 bdbe 9699 983e 335c 2d3f 319b 3e3e
00000050: 7fb2 18bf e31e 14bc 3df6 c53e 7b87 9abd
00000060: 0a98 3ebe 2368 0e3f aeee 99be dfb1 07bf
00000070: 3488 27bf 369f a63e 9590 16be 5755 6d3e
00000080: e105 3b3f 1b67 bf3e 5f89 31be bfe6 d0be
00000090: ccf5 8b3d 7242 353e e77a 66be 7247 a2bd
000000a0: e4ed 053e 6571 373e 5416 2f3e cf3e 71be
000000b0: 8eff 5ebe 14e1 683d 6616 5cbe 1d73 2bbf
000000c0: c863 673e 74cd e73c cca8 afbb d2f2 2d3d
000000d0: e3a5 d83e 9b26 2bbe 0ba7 a8be 0a82 6fbe
000000e0: d4da 513e da4b 193e 1f6f 473e 2e40 33bf
000000f0: 1165 6dbd 3ffc 433e 27cc 6bbf 2d59 de3d
00000100: dfdf 3bbf 046f afbf 99c3 413e d563 07bf
00000110: 0326 bcbe 7667 a7bd 8001 8cbb d716 913d
00000120: 3d7b d03e 1f0a 67bc 2340 44be 2af6 a6be
00000130: c5ef 07bd dd7e 35be ae8a 803d c1ac 6c3e
00000140: 4272 1c3e bb20 023e 590e 3abf 2796 a2be
00000150: db11 833b 841c 8c3e a6fd cf3e bb1d 603c
00000160: c82f 7a3e e341 64bf fb9f 3abe c36d 7fbf
00000170: 54f5 37bf a749 eb3c 0af0 a7be f0ca 0c3e
00000180: 58c1 6c3c 2bdf 963e a385 dfbd 37ff 683e
00000190: 7423 66bf 0708 44be cb76 863e 1a0f 1abe
000001a0: 3ee4 a73a 9d79 ac3e beaf b73d c19e c8bd
000001b0: 310b 78bc c98f 91bd b513 c3bc 2b0b 03be
000001c0: 22fe a73d d6a9 ce3d a3b5 5ebe 21bb 203e
000001d0: 4895 13bc 20e5 2d3e 4e67 0d3e df06 bcbe
000001e0: 477c c43e 951b 5bbf fed6 68be 229d b83d
000001f0: 8ab3 eebd b0ef a2be 1ed2 84be 04fa 2d3e
00000200: 2018 5f3e f8ce bf3d 68fb a33e 033a 93be
00000210: 7e76 85be ac23 b1bd f47b 00bc 5022 713e
00000220: 5ce9 4fbf 96a5 eabe ff43 cb3e 5257 7b3e
00000230: cc1e 46bf 5e69 e4be 24b2 fd3d a496 92bc
00000240: 13f4 7b3d 1d11 eabd 7963 91bf a376 053e
00000250: a70e 58bf 135b 12bf fbba 433c 8dd0 dbbd
00000260: c4bc 1ebf 70fe 5d3e 0dfc 543f e6fa 2e3e
00000270: 4e21 c43e f357 c13d b95a 89be f1ac e23d
00000280: 403d cabd 63b5 013d 36a7 24bb d883 173e
00000290: 5eaa 633f 446a 2fbd 2e35 1abf ba75 9fbf
000002a0: 9b75 3abe ae83 54be 140d 0cbe 8d98 09be
000002b0: 3b16 7dbe c578 84bf b13a 323e c18a 36be
000002c0: 00a7 20bf 495e 6eba 9b75 31be d5a6 59be
000002d0: 0ece d33d 05fd a4be fd97 4fbf 1b1b f13c
000002e0: 6556 4cbd c330 083e f68e 90be 8b8e 60be
000002f0: a13a 933e b225 d0bc c254 2fbd 64e8 553c
00000300: 3ff8 0b3d b3c1 09bd 4924 5fbd 4c12 133c
00000310: 7b47 473d 875e 0dbd 7b96 d33d 574e 77be
00000320: a844 5cbe 2dc2 ecbe c5ab 6bbe 0e16 e4be
00000330: 9b8e 17bf 7278 c0be 4ed4 aa3e 080f 783d
00000340: ade9 273f 8d20 133f 1b1f c0bd dc19 adbe
00000350: e66d 95bd 99db 083e d98a 2bbe 3258 ba3e
00000360: 4a03 723f da9a b7bf e1df 1cbf 29ac cd3d
00000370: 4dec 1fbf 7103 783e e47a 913e 1e08 a83e
00000380: e5eb 90be ddb1 023e 772f 10bf 5b62 17bf
00000390: c1aa 31be d7a0 26bf 7c1e d6be b628 a53d
000003a0: c4ba 7fbe d6b6 14be 2e32 ff3e 5b49 473e
000003b0: 86da 2ebf 8bbe 1dbe 33a5 9b3e 8795 8e3e
000003c0: 7ef0 a6be 0ec7 02bf 52dd b9bf 501c 803e
000003d0: c354 96be 18eb 50bf 7d8a d83d febe 55bf
000003e0: 4c48 5f3d 6bd3 f03d e098 25be adf7 9abe
000003f0: 247a c03e 900f 2fbf 8d11 44bf e267 dd3e
0.075733595 -0.8937672 -0.38933527 -0.023506146 -0.29282779 0.27796212 -0.09380231 -0.13590048
-0.52153724 -0.09167199 -0.12645002 0.049760412 -0.39286077 0.1584409 0.012580931 0.34720203
-0.37014613 0.29804677 0.6771881 0.18613888 -0.59647363 -0.009040567 0.38664427 -0.07545372
-0.18612686 0.5562765 -0.3006491 -0.53005785 -0.65442204 0.32543343 -0.14703591 0.23177086
0.73055845 0.3738335 -0.17337559 -0.40801045 0.068339914 0.17701128 -0.22507821 -0.07923783
0.1307903 0.1791435 0.17098361 -0.23559116 -0.21777174 0.056855276 -0.2149292 -0.66972524
0.22596657 0.02829621 -0.0053606983 0.0424679 0.42314062 -0.16713946 -0.32939944 -0.2338945
0.20493633 0.14970341 0.19475983 -0.70019805 -0.057957713 0.19139193 -0.92108387 0.10856853
-0.73388475 -1.3705754 0.18922271 -0.52886707 -0.3674775 -0.081740305 -0.0042726398 0.070844345
0.40719023 -0.014101534 -0.19165091 -0.32609683 -0.033187646 -0.17724176 0.06276451 0.23112775
0.15277961 0.12707798 -0.7267814 -0.31755182 0.0039999313 0.27365506 0.40623206 0.013678963
0.2443229 -0.89163035 -0.1822509 -0.9977686 -0.71858716 0.028721644 -0.32800323 0.1374929
0.014450394 0.2946714 -0.10914161 0.22753607 -0.8989785 -0.19143687 0.26262507 -0.15044823
0.001280911 0.33686534 0.08969067 -0.09795905 -0.015139387 -0.07107503 -0.023813108 -0.12797229
0.08202769 0.100909874 -0.21748976 0.15696384 -0.009007759 0.16981936 0.13808939 -0.36723992
0.38376066 -0.8558896 -0.22738263 0.09014346 -0.11655338 -0.31823492 -0.25941557 0.16989905
0.21786547 0.09365648 0.32027745 -0.28755197 -0.26066965 -0.08649382 -0.007842053 0.23548245
-0.81215453 -0.45829457 0.39700314 0.24545029 -0.7739074 -0.4461164 0.12387493 -0.017894097
0.061512064 -0.11429045 -1.1358482 0.13033538 -0.8439736 -0.5717022 0.011946435 -0.10733137
-0.62006783 0.21679091 0.831971 0.17087898 0.3830666 0.09440603 -0.26827028 0.11068142
-0.09874964 0.031667124 -0.002512408 0.14796388 0.88931835 -0.042825952 -0.60237396 -1.2457802
-0.18208925 -0.20753357 -0.13676864 -0.134371 -0.24715512 -1.0349356 0.17405201 -0.17826368
-0.6275482 -0.0009093029 -0.17330019 -0.21255048 0.10342036 -0.3222429 -0.8109129 0.02943187
-0.04988708 0.13299851 -0.2823407 -0.21929376 0.28755668 -0.0254086 -0.04280544 0.0130558945
0.034172293 -0.03363199 -0.054477964 0.00897653 0.048652153 -0.034513976 0.10331436 -0.24150978
-0.21510565 -0.46241894 -0.23014744 -0.44548076 -0.59201974 -0.37591892 0.333651 0.06056121
0.65590936 0.57471544 -0.09380933 -0.33808792 -0.07296352 0.1336502 -0.16752185 0.36395413
0.9453627 -1.4344132 -0.6127911 0.100426026 -0.6246994 0.24220063 0.2841407 0.32818693
-0.28304973 0.12763162 -0.56322426 -0.59134454 -0.17350294 -0.6508917 -0.41820133 0.080644056
-0.24973589 -0.14522871 0.49842972 0.19461577 -0.6830219 -0.15404718 0.30399475 0.27848455
-0.32605356 -0.51084983 -1.4520667 0.250216 -0.29361543 -0.81608725 0.105732895 -0.83494556
0.054512307 0.11759075 -0.16171598 -0.30267087 0.37593186 -0.6838312 -0.7658928 0.4324332

features.3.bias f4 [64]
00000000: e81a 0a3d ed94 66bd 8317 79be 8696 91bd
00000010: 8d7a 53bd 4c68 a6be 9d91 b5bd e3ad 98be
00000020: 3921 99bd 220f bdbe b06e dcbe 9db7 b4be
00000030: 3934 29bf 42c4 55be 7078 8abe b69f b1bd
00000040: 2403 b8be 9138 df3d 74ea 35bf 8db1 cebd
00000050: b3a2 7ebe 5ac5 5f3e b8e4 043f d0ba f0be
00000060: e076 85bd f41f 31be 97cb 58bd 9030 f6bd
00000070: a909 cabe f214 6dbe 6667 dfbc fa07 ccbe
00000080: 8418 8ebd d374 8abd e71a 4a3e d3da 01be
00000090: 67b9 43be a565 d7be 94ee 2abe 7ceb c5be
000000a0: b32e c0be e486 9cbe 3226 4bbd 55e2 e7bd
000000b0: 5c11 afbe 184c e3bd 01e3 263f 1161 21be
000000c0: 517c 2dbd 2e66 9abe fe84 0dbe e71d 97bd
000000d0: 9a9c b9be c509 2fbe 1b49 bfbe 943d d0be
000000e0: b94f 083d 31dd d5bd 16dc b1be 239e 46be
000000f0: be14 9fbe be08 90be 052f 08bf 1f01 9fbe
0.033717066 -0.05629437 -0.24325375 -0.07108788 -0.051630545 -0.32501447 -0.08865664 -0.29820165
-0.0747704 -0.36925608 -0.43053198 -0.35296336 -0.6609531 -0.20875648 -0.27045012 -0.086730406
-0.35939896 0.10899461 -0.7106087 -0.10092459 -0.24866752 0.21852627 0.519115 -0.47017527
-0.06516814 -0.17297345 -0.052928533 -0.12020981 -0.39460495 -0.23152521 -0.027270984 -0.39849836
-0.0693827 -0.06760564 0.19736825 -0.12681131 -0.19113694 -0.42069736 -0.16692573 -0.38656223
-0.3753563 -0.30571663 -0.049596973 -0.11322466 -0.34192932 -0.11098498 0.6519013 -0.15759684
-0.042354885 -0.30156082 -0.13820264 -0.0737875 -0.3625229 -0.1709357 -0.37360463 -0.4067198
0.033279154 -0.104425795 -0.34738225 -0.19396262 -0.31070513 -0.2813167 -0.53196746 -0.31055543

features.6.weight f4 [128, 64, 3, 3]
00000000: 8b96 8fbf 0721 1ebd 91f3 dcbe 96f9 1c3f
00000010: 6699 203f 6a9c 413e cbe1 b43d 1f55 5cbe
00000020: 3fa2 64be 93ab 18bd c350 e7ba f1ed 02bd
00000030: e0d3 0a3c 4126 113d 57a2 24bd 5abe f73c
00000040: eac4 853c 150b 713c b113 213f 25b0 a43e
00000050: 0c09 d43b 6cd2 18bf 8692 0dbf f84b 85be
00000060: 1f6b 99bf 9e7d 41bf 6562 b5bf 2c29 c83c
00000070: e2c6 fabd 586f 253e cfd3 17bf fbce 883e
00000080: 54c9 0b3f d3fb 053f 7cdf aebe 90d8 39bd
00000090: 88ff d5ba faff 37bd 278a c8bc 4c9f 32bd
000000a0: 5587 68bd e947 e5bc de22 0d3c c297 073d
000000b0: 9b55 95bc f4bf 54bd 7014 813e dc25 923e
000000c0: 645d bdbc 3921 763d ad2c d8be 7e84 d1be
000000d0: 60b6 573e 829f 2ebe 022b 87bc 0d5d a13c
000000e0: 20cb e53a 6c10 043d 7167 533c 544d 19bc
000000f0: c433 1fbc aef4 e33c 60bd 473c 2e08 543e
00000100: ed5d 813e d437 8a3e e4fd 40bd 2fb5 d3be
00000110: e51f e1be 89f3 c1be 639b fb3d 4e99 113c
00000120: c9fc 9abd 6d5d 7abd 81c0 13bc c020 6ebd
00000130: fefb dfbc 893c 7bbd 09d4 da3b 63f8 1f3c
00000140: b3d3 bdbc bd8e cd3e db22 503c f64d 08bf
00000150: d2b5 a7be b8e7 dfbe bfb9 b4be ee3a 3cbf
00000160: 3fb7 01bf 7ded 4fbf 29b4 dd3e 7c7c 713f
00000170: ac4e 263e 0c8a 323f 2ca1 5b3e 1fa1 c83d
00000180: e880 0abe fff2 fcbd 46a2 29bf 1d2e 933e
00000190: 98e9 df3e 93f3 6d3e a7c1 9c3c ef11 cbbe
000001a0: d264 b6bd 3ff2 d7bd fa1b 43bf 0fe6 e9be
000001b0: 4476 42be da54 553d 136f c2be 7376 b13e
000001c0: 653f 76be a03b 33bd 01f9 5c3e 7105 e03d
000001d0: b78b 72bd 7699 ddbe 67e0 8539 a43d 993e
000001e0: 0e57 a4be fda9 6b3e 6665 b1be 53a0 e8be
000001f0: 68dc f5be 57af 4fbf 6a3b 6abe 662b 97be
00000200: 6560 1a3f 5119 60bf 60b7 1a3e e6b8 5cbf
00000210: b64e 8abe fc41 433d a9df c2be c4b4 18bc
00000220: 4d75 133d 3678 ab3c 9a5a 04bc 50d2 b9bc
00000230: 2eda 8fbc ca33 16bd 6be5 203d da01 da3c
00000240: eaed 0bbf 4bfb 52be e196 1abf a6c0 30be
00000250: 1b1b d8be 818b c8bd 73b2 7cbd 3fd6 b1be
00000260: 0057 abbe dc58 23bf e2d5 0abf 4e13 19bf
00000270: f3cf a73e 5fe8 973d b9dc 1f3e d208 823e
00000280: 4c92 28be af33 22bd 2fd4 0b3e e818 ac3e
00000290: 3f92 9c3d 4ab3 b1be c633 a83d 9fa1 78be
000002a0: 1c69 dcbe d422 25bf 2d42 0abf c3f6 4abb
000002b0: d7d3 d33d cbff 6abd db9f 933e c17e 47bd
000002c0: 1031 32be f03c 52be a518 cbbe 32c4 e1be
000002d0: 4226 8dbd dd85 62bd 44f3 60be 5889 34be
000002e0: e4ae f3bd 03fa 273e 9fba 4dbf 770f 3dbf
000002f0: 5e8f 1bbf 186e 213e c0fa 02bf 9cbd 76be
00000300: c148 e23e 2c39 00bf 703c b9be 5d23 87bd
00000310: 7aa8 86be 7393 c0be bea5 32be a464 f6be
00000320: 7874 b8be 065c c3be 8aac 59bf d291 0d3e
00000330: 0fd8 a7bd 77a0 01be 4d58 b0bd 3591 dd3e
00000340: 7d46 09bf 04ee 1cbd 9d60 ec3e bd93 1c3e
00000350: 3a3b a63e b43d 393e 55fb 62bf 4166 3fbf
00000360: a04f d9ba 763a c1bc 6f57 a63c ea97 c43c
00000370: 94a8 0bbd eeff 27bd 634f 9bbc 6b44 203d
00000380: 8ca7 7fbc e614 633e 00c1 c6bd feeb f23e
00000390: 14df 803e 02eb a9be 16fe 81be e970 7b3d
000003a0: 3498 a6be 8845 c9be fe79 183d d9e2 3b3d
000003b0: ce03 abbc 4206 16bd aca7 483c d7fd 073d
000003c0: 040d 23bc 1c3c 66bc e455 1b3c 4e3f 8d3e
000003d0: bf75 babe 8b01 383e 2683 833f ba4e 5c3e
000003e0: 8f3f 2abf 07df 263e 84eb f2bd ec74 a4bf
000003f0: 4276 8ebe 6d89 2dbe 75ff 623e 2ce2 a03d
-1.1217817 -0.038605716 -0.43154576 0.6131834 0.6273407 0.18907323 0.08832129 -0.21516846
-0.22327517 -0.037273 -0.001764797 -0.0319652 0.0084733665 0.035436872 -0.04019388 0.030242134
0.016329248 0.014712115 0.6292067 0.32165638 0.006470805 -0.5969608 -0.553017 -0.26034522
-1.1985816 -0.755823 -1.4170653 0.024433695 -0.12244965 0.16155756 -0.5930757 0.26720414
0.5460408 0.5233738 -0.3415488 -0.045372546 -0.0016326765 -0.044921853 -0.024479939 -0.04360895
-0.056769688 -0.027988391 0.00861427 0.033103712 -0.018229296 -0.051940873 0.25210905 0.2854451
-0.023115821 0.060090277 -0.42221585 -0.40921396 0.21065664 -0.17053035 -0.0165 0.01969769
0.001753185 0.032242224 0.01290308 -0.009356815 -0.009716932 0.027826633 0.012191147 0.20706245
0.25266972 0.26995718 -0.04711713 -0.4134917 -0.43969646 -0.37881115 0.12285497 0.008886648
-0.07567746 -0.061124254 -0.0090180645 -0.0581367 -0.027341839 -0.061337028 0.0066781086 0.00976381
-0.023172235 0.40147963 0.012703623 -0.5324396 -0.32755905 -0.43731475 -0.35297963 -0.7352742
-0.50670236 -0.81221753 0.43301514 0.94330573 0.16240948 0.6974189 0.21448201 0.097963564
-0.13525736 -0.12351035 -0.66263235 0.2874612 0.43732905 0.23237447 0.01913531 -0.3966212
-0.08905949 -0.10544252 -0.76214564 -0.45683333 -0.18990427 0.052082874 -0.37975368 0.34660682
-0.2404762 -0.043758035 0.21579362 0.10938538 -0.059215274 -0.43281144 0.0002553493 0.2992984
-0.32097667 0.23014064 -0.34647673 -0.45434818 -0.4801972 -0.8112692 -0.22874227 -0.29525298
0.60303336 -0.8753863 0.15109015 -0.8621963 -0.27013177 0.04767035 -0.38061264 -0.009320442
0.03600054 0.020931344 -0.008078242 -0.022683293 -0.01756009 -0.036670484 0.03928129 0.026612211
-0.54659903 -0.20603673 -0.6038647 -0.1726099 -0.4220818 -0.09792233 -0.06169362 -0.3473377
-0.33464813 -0.63807464 -0.5423261 -0.5979508 0.3277584 0.07417368 0.15611543 0.25397354
-0.16462058 -0.03960007 0.1365516 0.33612752 0.07645082 -0.347071 0.08213 -0.24280404
-0.43048942 -0.6450627 -0.54007226 -0.0030969835 0.103431396 -0.05737285 0.28832898 -0.048704866
-0.17401528 -0.20531058 -0.3966724 -0.44094998 -0.06892063 -0.055303443 -0.21967798 -0.17630517
-0.11898592 0.16403966 -0.80362886 -0.7385172 -0.60765636 0.15764654 -0.51163864 -0.24095768
0.44196132 -0.5008724 -0.36178923 -0.06598542 -0.26300412 -0.37612495 -0.17446038 -0.48123658
-0.3602636 -0.38156146 -0.850289 0.13825157 -0.08195507 -0.12658869 -0.08610592 0.43274847
-0.5362318 -0.038312927 0.4616746 0.15290733 0.3246706 0.18089944 -0.8866475 -0.747654
-0.0016579516 -0.023587447 0.020305363 0.02399822 -0.034096316 -0.041015558 -0.018958753 0.03912775
-0.015603911 0.22175941 -0.097047806 0.47445673 0.25170195 -0.3318711 -0.25389165 0.061386976
-0.32537997 -0.3931086 0.037225716 0.045870636 -0.020875838 -0.03662706 0.012247007 0.033201065
-0.009951834 -0.014052417 0.009480927 0.2758736 -0.36417958 0.17969339 1.0274398 0.21514407
-0.6650323 0.16296016 -0.11861327 -1.2848182 -0.278246 -0.16946955 0.22167762 0.07855639

features.6.bias f4 [128]
00000000: 1f91 20be 27cd 1cbe f48e e1be ea13 373e
00000010: 47c0 64bd 6313 debd 65a5 aebe d433 81be
00000020: 51e1 80bd e9ac 02be b578 7ebc c5b4 b0be
00000030: cc32 923d 68b9 933e 639f 86bd a1c8 80be
00000040: 4cb6 48bf 657e 7a3d 3441 2abe 026d 72be
00000050: 6a1d 86bd e6cb c8bd b1c5 90bd 4bd7 853e
00000060: aa9c 673e 006a 06bd df8d 79bd f5c4 bcbe
00000070: 1617 54be fa1e 92bd bdc2 acbe 1a74 11be
00000080: 802a 4dbe 9255 8ebe 0783 d2be b22b c2bd
00000090: 11bc debb a668 89bd c857 39be db9f 03be
000000a0: bd1c aebd f2f9 b8be a7d2 06be be0b 5b3d
000000b0: d534 d53e c36d 2bbe f941 7cbd 8cf8 dabc
000000c0: 2b94 62be 7378 9dbc 3db7 6ebe 3f33 9c3d
000000d0: 5d77 2cbe 8390 0b3c 0069 54be 54d9 a73d
000000e0: 9512 fbbe b523 42be 95f9 213d 7694 b7bc
000000f0: e445 cdbc c143 fbbd 10d8 f3bc 4de5 f23d
00000100: e7cc acbe eec4 893c d8a5 52be 960c 4dbe
00000110: fe38 2fbf 2ad2 8c3e 7b09 22bc 3969 9ebe
00000120: a955 10bd bbaf f7be e8b3 82be bac7 5bbe
00000130: f991 16bd 8df8 a0be 71b6 62be 248b 3abf
00000140: 5a0b 44bc e1d0 dbbe 0063 9e3e eb08 4fbc
00000150: eb38 68bd 5828 39be 55a4 babc bfaf 26bd
00000160: 69e3 df3c b9b1 3c3d a593 56be 423e c0be
00000170: ed18 593e 6122 b3be a134 01bf 5d51 09bf
00000180: 84ac 18be 87c7 eebe 01b4 9dbd 0afa 81bd
00000190: b38c b7be b846 71be f93e 8dbd 4a8d ecbe
000001a0: fb61 cbbd 8f14 5cbe 14d6 9ebd dcc5 febe
000001b0: 77d9 9abe 51a7 8f3e 9316 98be bdc7 32bf
000001c0: 23a9 3cbd 30fe e2bd 199d a1bd 1743 69bf
000001d0: dc0e ffbe 4c99 983e cc97 75bd a934 14be
000001e0: 9aed 47bd 6b7d bebe df32 97be 516f eebe
000001f0: 697f fabe 45d7 eabe 7c8f 34bd 48fa 9abc
-0.1568036 -0.15312634 -0.44054377 0.1787869 -0.055847432 -0.108435415 -0.3411056 -0.25234854
-0.06292976 -0.12761272 -0.0155317085 -0.34512916 0.07138595 0.2885239 -0.06573369 -0.25153068
-0.7840316 0.061155695 -0.16626436 -0.23674396 -0.06548579 -0.098045155 -0.07068957 0.26140818
0.22618356 -0.032815933 -0.060926314 -0.36869016 -0.20711932 -0.071348146 -0.33742324 -0.14204445
-0.20035744 -0.2779966 -0.4111559 -0.094809905 -0.0067973216 -0.06709413 -0.18099892 -0.12853949
-0.08501575 -0.36128193 -0.13166295 0.053477995 0.4164187 -0.1674109 -0.061586354 -0.026729845
-0.22126834 -0.019222474 -0.23312087 0.07626962 -0.16842408 0.008518341 -0.2074318 0.08195749
-0.49037614 -0.18958934 0.03954466 -0.022409659 -0.02505774 -0.122687824 -0.029766113 0.11860142
-0.33750078 0.016817536 -0.20571077 -0.20024332 -0.6844634 0.27504092 -0.009889956 -0.30939654
-0.035237942 -0.4837626 -0.25527883 -0.21462908 -0.036760304 -0.3143963 -0.22139908 -0.7286856
-0.011965597 -0.429328 0.30934906 -0.012636404 -0.056694906 -0.18081796 -0.022783438 -0.04069495
0.027330117 0.046067927 -0.2095476 -0.375475 0.21200915 -0.34987167 -0.5047093 -0.53639776
-0.1490956 -0.46636602 -0.07700349 -0.06346519 -0.35849532 -0.23562133 -0.06896777 -0.46201545
-0.09930798 -0.21492217 -0.07755676 -0.4976033 -0.30244038 0.2805734 -0.29704723 -0.69836026
-0.04605974 -0.11083639 -0.07891292 -0.91117996 -0.49816024 0.29804456 -0.059959218 -0.14473213
-0.04881058 -0.3720506 -0.29531 -0.46569303 -0.4892533 -0.45867363 -0.04408215 -0.018918172

classifier.weight f4 [9, 128]
00000000: 61df a4be ec45 50bc a74a 2a3e 96d7 f3bd
00000010: 2e6b a53d e740 043e 4bc5 91be b2a8 113b
00000020: be40 b83b 9449 c53d 13f2 37bb 3d80 a2bd
00000030: 6ca8 ffbe 95dd c23d b136 a03e 502c 0abe
00000040: 4b9f b53e ae28 123e 0258 ddbd 3486 11bf
00000050: 4df8 a13d 1b5f 563d 70b7 1f3d d2e6 1d3e
00000060: 1edb 1bbe ad5d b6bd ba1e 3dbd 629e e1be
00000070: aa9f 193e 20a4 93bd 73ce a0be 2d5e ab3d
00000080: a5df f63d 0acc c7be f70f 4ebf 2356 c93e
00000090: 66e4 403d a674 58bd fc4d 63bd 4995 11bd
000000a0: 4942 ee3d 0a76 72bd cb6e a9be 2c9a 7bbe
000000b0: 6f34 d73c f1f0 403e fb2c 453d b856 3f3c
000000c0: 207e 123e 3de0 87bd 091d 083d acc1 cdbd
000000d0: 3a7d cf3e 593b cabc f859 d2be 46cd 453e
000000e0: 529f 3bbe 7fb3 e33c 6792 d5be f755 78bc
000000f0: 2a8a 303d 7b14 423d 9cd6 0f3d a73e 213e
00000100: 5756 81be 7bf0 1b3c d125 3a3e 08de b9be
00000110: ddce b83e 0b35 533e 83de 993d a952 a0bd
00000120: 238e a33d d890 bc3a f6fc 3a3e 31b4 3dbe
00000130: eea0 0f3d 6664 8ebe bc14 c6be 6eda c53c
00000140: 8a7f a6bd 905c 0d3f 4e7d 82be fca4 403c
00000150: 1ea9 513d 15d5 11be 08b6 9bbe d653 ae3d
00000160: ba8b 99be 857b 30bd 0099 27bd e430 63bd
00000170: db89 d4bd 62dc 903d 5c56 ac3e fd3a 7c3e
00000180: fab5 9e3c 1e8f 71bc 9c8b f3be 8946 00be
00000190: a0ab 19bf 337e 8a3d 3b12 163d 4734 a53d
000001a0: 1c0b 2dbe 208d c4be 442e 44bf 705a 083e
000001b0: d7be e2be 1b0e aa3e 26c4 0dbe cb68 95bf
000001c0: dfe4 cb3d a8ec eebc e1c6 2f3d e511 823e
000001d0: f202 a83e e57f e7be 9f10 cbbd 29a6 5fbe
000001e0: bc4d db3e 7c0e b43d 4502 debe b191 e0be
000001f0: 59c9 aabe a1bb 263e c44d e6bc 5a97 3fbe
00000200: da43 5cbf 6d16 6cbe 504f f73b f1b5 4dbe
00000210: e9d2 88bd cb75 583e 7f34 fbbe d488 ca3e
00000220: a0bf 1b3c e8d2 0b3e 2795 efbd a04f 603d
00000230: 722b 06bf 1e8c 5abe 32ef 6fbe b31a efbe
00000240: ee43 d5be aa24 7cbe c410 68be 63a6 7dbe
00000250: f491 8d3c 17ad 323d 3d2b 853c 4fbe 29be
00000260: e823 24bf 0197 5b3d 3833 18bb 128a 733e
00000270: 2205 ba3e c65c 3ebd 0a49 5ebe 18f2 b3bf
00000280: 18b7 c2be 6946 31be f2ce ce3e 203c 07be
00000290: 10cd 43bd 57de 12be b2dd b3bd 18c5 0ebf
000002a0: cbe6 30bf 1592 86bc e13d 10bf f1c6 37bf
000002b0: c40e 4bbe 7fa4 48be e700 a63d 1362 10bd
000002c0: 37fd 383e 1174 843d aba8 b6be 8532 1f3e
000002d0: 510b 7ebf 07b9 8f3d 8528 14bf af07 923d
000002e0: 8ca7 353d 7794 07bf ffda 03be ea5e 493d
000002f0: e2d6 5b3d 78a8 043e b211 5cbd 5a63 c3be
00000300: 7025 b5be 9760 0fbd fb19 77be 4dbd eb3c
00000310: d189 373e 5bba 813d 91f8 8b3b 3879 a63d
00000320: f353 6b3c 2556 72be 764d bebe 8215 0b3b
00000330: 4d6e 303c 7e14 04be 968d fabe b25c 293e
00000340: ae1a c8bc b362 46be a72e a0be eb6f d63b
00000350: b332 d9bc 1a03 10bc a245 153f 5725 0cbd
00000360: fb31 49be b628 833e 1cf7 0dbd 03dd 95be
00000370: 120c 8b3d 54e9 273e dab0 febd fed2 e13e
00000380: c2e1 2bbf aaf4 833e dc9a edbe a331 2b3c
00000390: 8bfd 83bf 0373 42bf 394e 3f3d e0e3 1cbf
000003a0: bd45 1ebe 5532 b93e 781f 993e d227 27bd
000003b0: c261 8c3d eeae bbbe fd59 a1be c2bc 00bf
000003c0: 95c4 413d 3471 043d c059 7fbb 6579 3d3e
000003d0: 857b 9a3e e7f3 24ba 4f93 f8bc d893 e7be
000003e0: c873 f1be da09 c2be 6ee7 20bd ebe7 003d
000003f0: 7f44 f1be bd92 86bd f55a 34bd f85e 8bbe
-0.32201675 -0.012711983 0.1663004 -0.11906354 0.080770835 0.12915383 -0.28470835 0.0022225794
0.0056229522 0.096331745 -0.0028067871 -0.07934616 -0.49933183 0.0951492 0.31291726 -0.13493466
0.35473093 0.1427333 -0.10807802 -0.568454 0.07908688 0.052336793 0.0389933 0.15420082
-0.15220305 -0.08904586 -0.04617188 -0.4406615 0.15002313 -0.07209039 -0.31407508 0.08367572
0.120543756 -0.39022857 -0.8049311 0.3932353 0.047092818 -0.05284562 -0.055494294 -0.03554276
0.11633737 -0.059194602 -0.3309234 -0.2457053 0.02627012 0.18841912 0.0481386 0.01167839
0.14305925 -0.06634567 0.033230815 -0.100467056 0.40525228 -0.024686502 -0.41084266 0.19316587
-0.18322495 0.027795551 -0.4171326 -0.015157214 0.043100514 0.047382813 0.035116777 0.15746556
-0.25261185 0.009517784 0.18178488 -0.3630221 0.36095324 0.20625703 0.07513144 -0.07828266
0.07986095 0.0014386429 0.1826056 -0.18525769 0.035065584 -0.27810973 -0.38687694 0.024152007
-0.08129795 0.55219364 -0.25486225 0.011758085 0.051186673 -0.1424144 -0.30412316 0.08512084
-0.29989415 -0.043086547 -0.040917397 -0.055466548 -0.10377856 0.07073285 0.33659637 0.24631877
0.019373883 -0.014743594 -0.4756745 -0.12526907 -0.60027504 0.06762352 0.03663848 0.08066612
-0.16898769 -0.3838892 -0.76633096 0.13315749 -0.44286224 0.33213887 -0.13844356 -1.1672605
0.09955763 -0.02916558 0.042914275 0.25404277 0.32814747 -0.45214763 -0.099152796 -0.21840729
0.42832744 0.08791825 -0.43361107 -0.43861154 -0.3335674 0.16282512 -0.028113253 -0.1871008
-0.86041033 -0.2305543 0.0075472966 -0.20088936 -0.06680853 0.21138684 -0.4906349 0.39557517
0.009506136 0.13654673 -0.116983704 0.054763436 -0.5241004 -0.21342513 -0.2343109 -0.46700057
-0.4165339 -0.24623361 -0.22662646 -0.24770503 0.01728151 0.043622103 0.01625597 -0.16576503
-0.6411729 0.053610805 -0.0023223888 0.23783138 0.3633204 -0.046475194 -0.2170755 -1.4058256
-0.38030314 -0.17312016 0.40392262 -0.1320653 -0.047802985 -0.14342628 -0.087825194 -0.5576949
-0.6910216 -0.01642708 -0.5634442 -0.71787935 -0.19829851 -0.19594 0.08105641 -0.03524978
0.18065344 0.064674504 -0.35675558 0.15546615 -0.9923602 0.07017713 -0.5787433 0.07130372
0.04434924 -0.52960914 -0.12876509 0.049162783 0.053671725 0.1295489 -0.053727813 -0.38161737
-0.35380125 -0.035004225 -0.24131005 0.02877679 0.17923667 0.063343726 0.004271575 0.081285894
0.014363277 -0.23665674 -0.37168473 0.0021222536 0.010768485 -0.12898442 -0.48936146 0.16539267
-0.024426784 -0.19373588 -0.31285593 0.0065441034 -0.026513433 -0.008789802 0.58309376 -0.034215298
-0.19647972 0.25616997 -0.03465949 -0.2927018 0.067894116 0.16397601 -0.124360755 0.44106287
-0.67141354 0.257726 -0.4640721 0.010448846 -1.031175 -0.75956744 0.04670546 -0.6128521
-0.1545629 0.36171213 0.2990682 -0.04080946 0.06854583 -0.36656898 -0.31513968 -0.5028802
0.047306616 0.03233452 -0.0038963407 0.1850334 0.30172363 -0.0006292448 -0.03034368 -0.45229983
-0.47158647 -0.3789814 -0.03928321 0.031471174 -0.4712257 -0.06570957 -0.044032056 -0.27220893

classifier.bias f4 [9]
00000000: dc5f bc3d 28fd 52be f94d e9be 5726 85bd
00000010: e32b 47be 0b86 12bf 1cd5 9c3f 4784 343e
00000020: e3bb dc3e
0.09197971 -0.20604384 -0.455673 -0.06501453 -0.19450335 -0.57235783 1.2252536 0.17628585
0.43112096
