CNN Model Checkpoints/model4.pth (torch, 380165 bytes, 8 tensors)

features.0.weight f4 [32, 3, 3, 3]
000000 bb f6 47 3d 78 2b 03 bf 4f 47 10 bf f6 4e 1f 3e
       0.048819285 -0.51238203 -0.5635881 0.15557465
000010 93 71 5d 3f cc e5 3d 3e 35 ef 86 be 11 53 7b be
       0.86501426 0.18544692 -0.26354375 -0.24543406
000020 aa 6b d0 3e d7 4c c6 3e 5a 38 fd be d7 cf fd be
       0.4070714 0.387305 -0.49457055 -0.49572632
000030 f0 7f 38 3e 87 04 21 3e 0b ae ae bc c0 1b 84 3e
       0.18017554 0.15724383 -0.021323225 0.25802422
000040 c0 01 fd 3e 0c a1 06 bf 9c ee f7 bd d7 05 41 be
       0.49415398 -0.5258949 -0.12106058 -0.18849884
000050 13 ce 7e 3e 9b 2d 06 bd d3 d9 b0 3e 52 4e 0a be
       0.24883299 -0.032758337 0.34541187 -0.1350644
000060 10 62 ca 3e a0 fd 15 be 6c b3 72 be 49 54 83 3e
       0.3952794 -0.14647532 -0.23701257 0.25650242
000070 ed 54 ab 3e ca 3e 46 3e 71 31 64 bd e4 98 89 3e
       0.3346323 0.1935989 -0.055711213 0.2687446
000080 94 94 e7 3e 41 85 e2 3d 24 82 ae be 63 b4 12 3f
       0.45230544 0.110605724 -0.34083664 0.573065
000090 56 a3 03 3e ad 5d ab bd ba 85 ca 3e 71 97 9f be
       0.12855276 -0.083674766 0.3955515 -0.31170228
0000a0 2e db ae bd 0d e8 d5 3e d4 df 5a be ac 1b 62 be
       -0.08537899 0.41778603 -0.21374446 -0.22080868
0000b0 f3 1b 89 3e a9 ee 72 be 6e 93 9d be 80 52 87 be
       0.26779136 -0.23723854 -0.30776542 -0.2643013
0000c0 67 e5 dc 3e f9 4e 67 be cf 1e eb bd db 99 19 bf
       0.4314377 -0.2258872 -0.11480486 -0.6000039
0000d0 ff 7f fe bc 95 d9 b6 bd 80 e6 4f bd 2b 52 c5 bd
       -0.031066893 -0.08928219 -0.05075693 -0.09634813
0000e0 27 5b 68 3e dc 43 b7 3e 9f cc 8a be cf 05 10 3d
       0.22691022 0.3579396 -0.27109239 0.03516179
0000f0 cd 03 9a bd b7 79 5c 3e d6 11 28 bb 58 74 de 3d
       -0.07520256 0.21530806 -0.0025645397 0.108620346
000100 27 f2 13 be 0d 6e 7b 3e e0 cd 23 3e 72 d8 ff bd
       -0.14447843 0.245537 0.15996504 -0.124924555
000110 62 9b 1e 3e be 00 6d be 89 6d d8 be 47 bb 15 be
       0.15488961 -0.23144814 -0.4227107 -0.14622222
000120 c1 a2 37 3d 2b d7 76 3e 7f 2d 0c 3d 50 53 54 be
       0.04483295 0.24105518 0.034223076 -0.20734906
000130 56 aa df 3e 5b 4f ae be 23 0c e8 bc 70 e5 5e 3d
       0.43684644 -0.34044918 -0.0283261 0.054418027
000140 98 1f 45 be 47 6e b6 3d af 6a 3b 3f 33 57 5a 3e
       -0.19250333 0.089077525 0.7320966 0.21322326
000150 a4 cc 2c be 4c d9 01 3f 27 fd a0 3e e8 a8 53 3d
       -0.16874939 0.50722194 0.3144314 0.051674753
000160 93 07 ed 3e d5 0c 88 3e ff df c2 3d c9 ee bc be
       0.4629484 0.2657229 0.0951538 -0.3690093
000170 b4 d9 81 bd 03 4e 33 3e 4a f5 e6 3d 0a 06 4a 3e
       -0.06340352 0.17510228 0.11277254 0.19728866
000180 a4 29 18 be e3 ae 91 be b5 e1 ab 3d b8 6c 11 bf
       -0.14859635 -0.2845374 0.083926596 -0.56806517
000190 b0 10 76 3d c6 fd 9e be 2a e0 a8 be 5f e3 d8 3d
       0.06007451 -0.3105299 -0.32983524 0.105902426
0001a0 32 15 37 be 06 81 21 be fc 77 c2 3d fd ac 63 3c
       -0.17879179 -0.15771875 0.094955415 0.013896224
0001b0 84 0e 00 bd a2 7d 8f be c9 65 1f 3e d3 6f 93 be
       -0.031263843 -0.28025538 0.15566172 -0.28796253
0001c0 39 83 08 3e c9 9f 81 be 59 dc 18 3e a4 4d 96 3e
       0.13331307 -0.2531722 0.14927806 0.2935611
0001d0 72 1f a0 be b4 c4 2c be c9 d3 6d bc 60 a2 26 bf
       -0.3127399 -0.16871911 -0.014515826 -0.65091515
0001e0 d5 dd 9e 3d c4 c4 92 be 0d a1 a6 be f8 61 a2 3e
       0.07757155 -0.28665745 -0.32544747 0.3171537
0001f0 12 e2 94 3d 09 54 91 be 89 87 51 be 15 85 c3 3d
       0.07269682 -0.28384426 -0.20461859 0.09546868
000200 17 cb 8c 3e c0 3a b1 3e fb 50 40 3e 29 96 62 3e
       0.27498695 0.34615135 0.18780892 0.22127594
000210 22 aa c3 3e e1 cf f2 be 90 eb 5c 3e 4d 98 93 3d
       0.3821574 -0.47424224 0.21574235 0.072067834
000220 2f ec 2e 3f 28 41 21 3e 7f 61 0d bd c4 e2 1e bf
       0.6832914 0.15747511 -0.034516808 -0.62064767
000230 e8 1f 3e 3f 3c 7c 8a 3d 7a f7 fb 3d c9 10 e2 bc
       0.74267435 0.06761977 0.12303062 -0.027595894
000240 e4 c5 1d 3e 75 2f f5 be 9a a8 87 bc 6b 41 0f bf
       0.1540752 -0.4788777 -0.016559888 -0.55959195
000250 e5 fb 01 bf 6a f5 14 3e 2e 12 5b bd b0 d1 4b 3e
       -0.50774986 0.14546743 -0.053484134 0.19904208
000260 3a 51 1a be 6c c9 f2 bd c8 af 55 3e 6d 8d b6 be
       -0.15070048 -0.118548244 0.20867836 -0.35654774
000270 cb 38 6f be 7c 18 4a be ce 27 8e 3d f5 e3 60 3e
       -0.23361509 -0.19735903 0.06941186 0.21961959
000280 d7 90 05 3d 9d da 2d be df 37 83 3e 6e f6 63 3d
       0.032608833 -0.16977926 0.25628564 0.055654936
000290 e4 d0 2a be 3c 18 23 3d 82 89 04 be eb 82 0f be
       -0.16681248 0.039818034 -0.1294308 -0.14014785
0002a0 84 0f 9e be 44 f0 1f be e8 a9 01 3f e9 e9 0c bd
       -0.30871212 -0.15618998 0.5064988 -0.03440276
0002b0 05 cc 87 bd e1 af e6 be ad 06 a0 be 94 d8 0d 3f
       -0.066307105 -0.4505606 -0.31255093 0.55408597
0002c0 d7 7c 79 3d e7 e4 7a 3e 6f 77 ac bd 3c f2 bc 3e
       0.060910072 0.24501382 -0.08421218 0.3690356
0002d0 f9 31 50 be 2c 8b b1 3e b7 c0 c2 3e 27 ce 47 be
       -0.20331563 0.34676492 0.38037655 -0.19512235
0002e0 5d a2 c6 be 32 a1 48 3e 8f 03 94 bd 9d ea e9 bd
       -0.38795748 0.19592741 -0.07227241 -0.11421702
0002f0 c1 11 cc be 37 5b 2f be 31 2b 95 3d 68 bc 26 bf
       -0.39857295 -0.1712464 0.07283629 -0.65131235
000300 1b 37 ac 3e 62 86 55 be cb 17 87 3e 9f cd 0a 3e
       0.33635792 -0.20852044 0.2638534 0.13555
000310 6c 04 90 3e b5 03 49 3e 95 ca 5a 3e 08 dc 51 ba
       0.28128374 0.1963032 0.21366341 -0.00080055045
000320 da 82 05 3f 8d 09 a5 3b 2e 44 04 bc 17 1c 9c be
       0.5215279 0.005036539 -0.008072896 -0.3049018
000330 e1 34 e8 3e a7 ee 74 3d 37 86 b9 3e 88 43 46 bf
       0.45352843 0.05979791 0.3623521 -0.77446795
000340 ef 26 b0 3d d9 59 bd 3e b5 fb 9e be de bd 1a bf
       0.08601176 0.3698261 -0.31051412 -0.60445964
000350 8f 8e 48 3e f7 b0 ec be 08 93 9e be 28 99 9b 3c
       0.19585632 -0.46228763 -0.3097155 0.018993929
000360 e6 e0 b8 3e d6 c1 19 be cd 17 bd 3e 7a 07 86 3e
       0.36109084 -0.15015349 0.3693222 0.2617758
000370 7d 02 63 bf e8 72 20 3e b3 7b f6 bd bf 9c 7c bf
       -0.8867567 0.15668833 -0.120353125 -0.98676676
000380 10 cb d4 be f0 a0 d5 bd 69 93 e1 3e 3b d0 95 3e
       -0.41561174 -0.10431087 0.44057778 0.2926043
000390 5b 4d 94 3e de eb 5e 3e e8 84 0c bd e5 aa bf 3e
       0.28965268 0.21769664 -0.034306437 0.3743507
0003a0 42 c6 0f be 12 fc 31 3e f8 50 75 3d 4c b0 8c 3e
       -0.14040473 0.17381313 0.05989167 0.27478254
0003b0 8a 8f 32 be 40 80 36 3c 14 2a 5c 3e 05 2e 2e 3e
       -0.17437568 0.011138976 0.21500427 0.17009743
0003c0 b6 30 0c be 34 7c 95 be 6b 43 3c be de 18 89 bd
       -0.13690457 -0.29196322 -0.18385093 -0.06694196
0003d0 44 a7 7c 3d 02 2e 9b 3d de 1e 1f 3d 44 db 84 3e
       0.061682954 0.07577135 0.038847797 0.25948536
0003e0 ae a4 2a bd e2 0f 9e 3e d6 a6 f8 bc 78 e4 92 3e
       -0.041660957 0.30871493 -0.030352991 0.28689933
0003f0 7c 91 38 3f 5f 98 8d be 0d a3 38 be 4c 60 bf 3e
       0.7209699 -0.27655312 -0.18030949 0.37378156

features.0.bias f4 [32]
000000 21 08 7e bd f4 74 ea bb e9 32 0d 3d 90 60 8a 3c
       -0.06201947 -0.007155055 0.03447238 0.016891748
000010 af a8 ba 3d 81 ac f2 3c 9f 86 4a 3c 12 74 8d bc
       0.09114205 0.029623272 0.012361198 -0.01726726
000020 d4 d6 ba 3b e5 6f d7 bd c3 2a c9 bc f7 9f 97 bd
       0.005701879 -0.10519389 -0.024556523 -0.07403558
000030 64 96 13 bd c6 17 23 3d 4f 3a 48 3d 76 da eb bc
       -0.036032096 0.039817594 0.048883732 -0.028790694
000040 93 dd d9 3c 7f c3 4f 3d 55 60 8d bd c9 e1 03 3d
       0.026594913 0.05072355 -0.069031395 0.032197747
000050 df 7f 83 3c fa 9a 8d 3d c1 e7 78 bd 4c f4 6f 3d
       0.016052185 0.06914325 -0.060767893 0.05858259
000060 58 d7 58 3d 12 51 6a ba 08 79 a1 bc 16 13 b0 bc
       0.052939743 -0.0008938472 -0.019711033 -0.021493476
000070 5e 3b 40 3d 3a 06 f4 bc 8f f6 7c bb 89 70 89 bc
       0.046931617 -0.029788125 -0.0038599109 -0.016777294

features.3.weight f4 [64, 32, 3, 3]
000000 b8 4a 48 3d 01 7c 96 3d 4f ea 2c bd 5d 87 45 3c
       0.048899382 0.073478706 -0.04221564 0.012056199
000010 32 ac 04 3e ae 72 7f bd a6 1c 22 3c 7e 2b 8b bd
       0.12956312 -0.062365226 0.009894526 -0.06795405
000020 af d5 2f 3e a1 0d 85 bd 09 9a b9 3d 9f 44 ff bd
       0.17171358 -0.0649674 0.09062583 -0.1246426
000030 df 19 bb 3b dc 30 04 be c7 2d c9 3c af 63 08 be
       0.005709871 -0.12909263 0.024557961 -0.13319276
000040 c0 b7 c3 3d 5f 9f 29 bd ba c2 9d 3d 94 91 9d 3d
       0.09556532 -0.041411754 0.07703157 0.076937824
000050 aa 70 28 3e f7 25 ac 3c a6 c9 11 3d 89 5f 77 3d
       0.16449228 0.021014197 0.035592698 0.060393844
000060 27 18 0e 3e 71 7e 2c bd d3 b4 a4 3d e5 98 b7 bd
       0.13876401 -0.04211277 0.08042302 -0.08964709
000070 ee bf ac 3c 80 01 27 bd b9 25 11 3d 7a 19 66 bd
       0.021087613 -0.040772915 0.035436366 -0.05617664
000080 fa f0 d4 bc 51 46 a9 3d ec 54 23 3c b2 9f 1b be
       -0.025993813 0.08265365 0.009968977 -0.15197638
000090 39 21 06 3c d6 e4 d6 bd c7 ec ca bb c5 93 08 3e
       0.008186632 -0.10492866 -0.006192777 0.1333762
0000a0 c6 dc 9e 3e 22 e1 83 bd 11 e7 d0 bc ed d0 0d bc
       0.31027812 -0.06439425 -0.025500806 -0.008655769
0000b0 90 0a ec 3d 50 8d 12 be 6d a8 13 3d 30 71 57 3d
       0.11525452 -0.14311719 0.036049295 0.05259818
0000c0 26 ea c6 3d 6d 95 28 3e 09 17 3f 3d 6f 8b f3 3d
       0.09712629 0.16463251 0.046652827 0.11891829
0000d0 a7 b3 f3 bc b2 9d 73 3c 79 41 d2 3c b9 94 41 3d
       -0.02974875 0.01486914 0.025665985 0.047260974
0000e0 eb 11 a9 3d 59 de d9 3d 5b 87 1e 3e 3e 90 2e 3d
       0.08255371 0.106381126 0.15481322 0.04261803
0000f0 3f 1f 8d 3d b8 09 db bc 94 0a f3 bd 1f 42 08 be
       0.06890725 -0.026738033 -0.11867252 -0.13306473
000100 7f 19 14 3d 93 06 78 bd 14 1c be bc 60 86 fd 3c
       0.036157127 -0.060553145 -0.023206748 0.030947864
000110 62 a3 81 be 25 6c f7 3d 23 12 85 bc a0 77 37 be
       -0.25319964 0.12081174 -0.016244 -0.17916727
000120 f4 78 9d 3c 9f 89 8b bd 7c 9b 91 bd 6b 9c 6d bd
       0.019222714 -0.068133585 -0.071097344 -0.0580105
000130 c7 70 c1 bd d3 ec 45 bc 11 f1 b9 3d 70 9a b5 bd
       -0.09445339 -0.012080389 0.09079183 -0.08867347
000140 b1 a6 8e bd 9f b8 b0 bd e0 a9 32 3d 33 0c cf 3d
       -0.069653876 -0.08628964 0.043619037 0.10109749
000150 14 43 cc bd dd 42 12 be c9 62 88 be 8c f4 43 3d
       -0.09973732 -0.14283319 -0.26637867 0.04784064
000160 a7 04 48 bd 5e e4 3a bc c4 fd e0 bd bc 23 75 3d
       -0.04883256 -0.011406986 -0.10985902 0.059848532
000170 27 d3 6a 3c af a3 4c bd 9c 0b ef 3d 46 04 c4 bd
       0.014332569 -0.04996079 0.11672136 -0.095711276
000180 00 c9 65 bc 62 58 ce bd 48 db 1e 3d 27 bf 0e 3d
       -0.014024973 -0.100754514 0.03878334 0.034850266
000190 e8 fb 77 3c 88 ab 6c 3d ca 4c 01 bd e1 c1 38 be
       0.015135743 0.057780772 -0.031567372 -0.18042709
0001a0 a4 31 b1 3d e5 fa 62 be a9 cf 44 3d d5 9a c4 3d
       0.08652046 -0.22166021 0.048049603 0.09599844
0001b0 1f 7e 17 3d 13 55 d4 bd 16 6d e3 bd e3 39 0c 3e
       0.036985513 -0.10367789 -0.11104791 0.13693957
0001c0 e8 d7 18 bd 5b 92 2d 3b 5a fc 82 bd 9c df 0b be
       -0.03731528 0.002648494 -0.063957885 -0.13659519
0001d0 5c 70 fd bb ba b5 90 3d ac d2 49 3e c8 40 2c 3e
       -0.0077343415 0.070659116 0.19709271 0.16821587
0001e0 f3 db 59 bd 3c 55 19 3d c0 67 4e 3b c4 53 6c bd
       -0.053188276 0.0374348 0.0031494945 -0.057697073
0001f0 ad c8 f7 bc 9b 8a 2c bd 81 7b 12 3d 92 84 33 3e
       -0.030247057 -0.042124372 0.035762314 0.1753104
000200 61 ca 4e 3d ef da b5 3d 9c 49 16 3e c1 18 05 3e
       0.050485972 0.08879649 0.14676517 0.12997724
000210 d7 49 16 be 66 64 c8 bd 14 20 e5 3d ba 75 06 3e
       -0.14676605 -0.097847745 0.11187759 0.13130847
000220 86 1f 53 3d dc ad 0d 3e 8c 0d a7 bd eb 24 bf bc
       0.051543735 0.13835853 -0.08156881 -0.023333034
000230 c4 0e 94 3c 80 a4 01 be 31 71 88 bc 69 18 40 3d
       0.018073447 -0.12660408 -0.016655536 0.04689828
000240 53 31 b1 3c 86 06 71 3c 7a 2b 45 3e 88 54 1b bd
       0.021629965 0.014711028 0.19254866 -0.037922412
000250 47 5e 0f be 08 bf 80 bd fd dc 0f 3d 95 8a ff 3c
       -0.14000808 -0.06286436 0.03512286 0.03119401
000260 b8 76 55 3b 0a 51 c3 3d ea 47 01 3d 0e 2e 81 bd
       0.0032571983 0.09536941 0.031562723 -0.06307612
000270 12 ec a5 3d a8 67 13 3e 3f 6f 4c 3e d9 68 98 3e
       0.081016675 0.1439501 0.19964312 0.29767492
000280 a4 1f 02 be e9 70 ab bc 37 4e 9f bc 24 6f 18 3c
       -0.12707382 -0.020927863 -0.019446475 0.009303842
000290 4b 26 40 3e 13 81 e5 bd f8 96 3c bd 8a 06 8e bc
       0.18764608 -0.112062596 -0.046042413 -0.017337102
0002a0 17 81 96 bd 0f 23 1f be 81 6b 26 3e 69 90 27 3c
       -0.07348841 -0.15540718 0.16251947 0.010227301
0002b0 3e 44 eb 3d e5 a5 95 3c e3 fe 12 3e f6 cc 17 3e
       0.114876255 0.018267581 0.14355044 0.1482428
0002c0 aa 3d 14 bd 10 ae d0 3d 8c 7f 57 3d 09 36 b2 3c
       -0.03619162 0.1018945 0.052611873 0.021754282
0002d0 6e 45 e1 bd 61 44 78 bd 7b b8 cf bc 54 70 0d bc
       -0.10999571 -0.060612086 -0.025356522 -0.008632738
0002e0 b6 b0 a4 3c 28 39 c3 3c 4d a3 9b bd 40 c0 24 be
       0.020103794 0.023830965 -0.075995065 -0.16088963
0002f0 c2 b1 9c 3c 69 d0 4d 3e 75 a0 24 3c 22 99 2c bd
       0.01912773 0.20099033 0.010048022 -0.042138226
000300 8f 8a cd 3d 26 fa 0f be e7 d4 18 be 7b 21 26 3d
       0.100361936 -0.14060268 -0.14924966 0.040559273
000310 ed b3 74 39 f6 46 ba bc e4 9c 13 be af ff 23 3e
       0.00023336681 -0.022738915 -0.14415318 0.16015504
000320 a2 0a 92 bd dc de 55 bd 7a 7b c1 bd 6e 51 2b 3b
       -0.07130934 -0.05221449 -0.094473794 0.0026141065
000330 27 06 d9 3d 64 67 88 3d 39 d4 28 bd 30 35 04 bd
       0.105968766 0.06660345 -0.041218016 -0.032277286
000340 e3 f7 68 bd 05 eb a6 ba 2a 2f 2a 3e 9b 96 22 bb
       -0.05687703 -0.0012734836 0.16619554 -0.0024809006
000350 36 dd 48 3d 7b c6 44 3e 3a 9a 01 bc b1 30 de 3d
       0.04903909 0.1921634 -0.007910306 0.10849131
000360 00 a1 af 3d de 91 81 3d 76 15 d7 3d c5 5c 2d 3d
       0.0857563 0.0632665 0.1050214 0.0423248
000370 c5 7c c0 3c 73 41 06 be 6b f6 85 3c d4 c9 08 be
       0.023496995 -0.13110904 0.016352853 -0.13358241
000380 fe 04 40 3d 3c 8a a8 3d 13 38 53 3e 08 bf c4 3c
       0.04687976 0.08229491 0.2062686 0.024016872
000390 a6 41 46 be b9 3a dc bc 4e 2c 52 bd 6e c2 58 bd
       -0.1936098 -0.02688347 -0.051311783 -0.052919798
0003a0 ab 42 e2 3d a7 70 98 3c e6 24 03 3d 7a 2e f1 3c
       0.11047872 0.018608404 0.03201761 0.029441107
0003b0 06 0d 26 3e 92 c8 33 bd 49 fa d4 3d a4 78 00 bd
       0.16215906 -0.04389245 0.103993006 -0.031365052
0003c0 b8 e8 c6 3d 97 ad 78 3d c0 29 8b 3d ac 62 85 bc
       0.09712356 0.060712423 0.067950726 -0.016282402
0003d0 3b aa 2a 3e 35 13 31 be 74 e0 6d 3d 7e 77 ec 3d
       0.166665 -0.17292483 0.058075383 0.11546229
0003e0 a5 8d a2 bc 69 0b 00 be 92 f8 ce bd 1f 2f 30 3e
       -0.019842932 -0.12504353 -0.10106005 0.17205475
0003f0 e3 17 2e 3d 94 e8 1d bd c9 2c 0d 3e 06 39 57 bd
       0.04250325 -0.038551882 0.13786615 -0.052544616

features.3.bias f4 [64]
000000 5a 47 b0 ba 4f 5d 1b 3d 14 f1 bc bc e9 a1 ef bc
       -0.0013448999 0.037930783 -0.023064174 -0.02925201
000010 dc 20 9c bc 42 8a 11 bb ba 38 1e bc b5 2b b6 bc
       -0.019058637 -0.0022207652 -0.009657079 -0.022237638
000020 13 28 ce 3c 1f 75 38 bd 1a 2d e1 3c 1a d3 11 3d
       0.025165593 -0.04503357 0.027487326 0.035601713
000030 e9 a4 8c bc b5 11 51 bd 2e 16 27 3d d3 b4 63 bd
       -0.017168479 -0.051042277 0.040792637 -0.05559237
000040 5a 9e 1a 3d 6f 53 1a bd 1a 05 6e bb 90 1f 04 3b
       0.037748672 -0.037677225 -0.0036318959 0.0020160414
000050 c5 b9 63 3c aa 36 1a bc e0 e7 22 bb 3f ae 86 3c
       0.013899271 -0.009412447 -0.0024857447 0.016440509
000060 0f 4b 14 3d ef 52 00 3d 35 58 28 3c 01 28 99 bc
       0.036204394 0.03132909 0.010274936 -0.018695833
000070 c0 8e 2f 3b 0e 7e 14 3c e9 12 c1 3b 81 26 44 3d
       0.0026787966 0.009063257 0.005892147 0.047888283
000080 15 60 ed bc 17 02 35 bb 83 fe 95 bd f1 35 1c 3c
       -0.02897648 -0.0027619654 -0.07323935 0.009534345
000090 f2 c7 52 3b db c1 95 3c 3e 12 1a bd bb b6 5d 3c
       0.0032162634 0.018280914 -0.037615053 0.013532336
0000a0 ca 1d ac bc ce 69 79 bd 50 d9 05 bd 58 6a 04 bd
       -0.021010298 -0.06089192 -0.03267795 -0.03232798
0000b0 1b c0 32 bd 80 a1 09 3d 0c 5c d1 bc ef 61 35 3d
       -0.043640237 0.033601284 -0.025556587 0.04428285
0000c0 95 12 84 bb 94 17 0b bd ce fe 15 bd f3 4d 0d bd
       -0.0040305355 -0.033958033 -0.036619954 -0.034498166
0000d0 0e 97 20 bd 72 cf 26 3b 45 2e 1a bc c3 01 47 bd
       -0.039206557 0.0025453237 -0.009410446 -0.048585664
0000e0 86 a9 7d bb 75 2c 2d 3d 00 15 93 bd 18 bf c8 bb
       -0.003870578 0.042278726 -0.0718174 -0.006126296
0000f0 a7 f5 6d bc 10 75 2c 3c 73 e7 80 bd 6b 24 ec bc
       -0.0145239 0.010525957 -0.062941454 -0.02882596

features.6.weight f4 [128, 64, 3, 3]
000000 80 ad a8 bd a4 37 46 bc 9b 8a 2d be c8 0c ae 3c
       -0.082362175 -0.012098227 -0.16947405 0.021246329
000010 25 e4 1e 3b 86 f8 b0 3d ae d0 98 bc 14 80 c9 3c
       0.0024244871 0.08641152 -0.018654194 0.024597205
000020 88 a3 d1 3d 2a 8d 92 bd cc 60 31 3d f2 9d 3e be
       0.10236269 -0.07155831 0.043305203 -0.18614939
000030 8f 92 08 3e d8 e0 3f 3d 3d 4c 6a bd b6 68 c5 bd
       0.13337158 0.046845287 -0.057201613 -0.09639113
000040 2e f3 8f 3d 22 ea bc b8 a0 11 88 3d 9c 8e e3 bd
       0.07028805 -9.008149e-05 0.06643987 -0.11111185
000050 64 6b 5a bd f3 3a c1 3c bb d6 c0 bd db 74 89 bd
       -0.053325072 0.02358768 -0.094159566 -0.067117415
000060 fe c3 9c bc 67 4c 20 be e5 ab 87 3d 65 d5 f9 bd
       -0.019136425 -0.15654145 0.06624583 -0.12198905
000070 0b 95 af bc 4b f6 c8 bc 22 55 49 3d 5a e4 9d 3d
       -0.021433374 -0.024531504 0.049153455 0.0770957
000080 bc 64 89 3d 44 9d a3 bd 72 18 39 3d 7d 31 79 3c
       0.06708667 -0.079889804 0.04518933 0.015209553
000090 22 5a 0e 3d 54 4e 54 3d 6f 61 60 bd 88 19 b6 3d
       0.034753926 0.051832512 -0.05478042 0.088915884
0000a0 a7 43 fb bd d2 8c bd bd 8f 86 05 be 96 91 bd bd
       -0.12268763 -0.09255375 -0.13039611 -0.09256284
0000b0 e1 5d 31 be 67 fc d6 bd 98 b7 00 3d d9 09 60 3d
       -0.17320968 -0.10497361 0.03142509 0.05469689
0000c0 20 4a 42 bd 4e 93 69 3c 7f 2a 08 be aa 33 07 3d
       -0.047433972 0.014256312 -0.13297461 0.033008255
0000d0 78 35 23 3d 04 ad 30 3e fb fc f2 bc d7 79 59 bd
       0.039845914 0.172535 -0.029661646 -0.05309471
0000e0 83 61 1a be c5 df 88 3d be 5b 03 bd 6c 04 d1 3c
       -0.1507626 0.06683306 -0.032069914 0.025514804
0000f0 ea c4 5c 3c df 56 09 bb cb b5 5e be ff 16 a9 bc
       0.013474682 -0.002095632 -0.21749036 -0.020640848
000100 51 73 42 bd 31 b5 74 bd f6 a1 9f bc a6 95 59 bd
       -0.047473256 -0.05974311 -0.019486409 -0.05312123
000110 7c 9a 98 bd 97 d0 16 be 22 73 a8 bd ea 98 b7 3d
       -0.074513406 -0.14728008 -0.08225085 0.08964713
000120 0c 43 00 bd 12 b3 86 bc a8 f8 d5 bd 1e 3e 06 bd
       -0.03131394 -0.01644281 -0.10447818 -0.032774083
000130 e6 dd d1 bc 82 a7 2c bd b7 fa 4d bc 16 fd 85 3e
       -0.025618505 -0.042151935 -0.012571982 0.26169652
000140 a6 df 05 bc 1e 64 5d bc a9 e8 6c bd 98 44 72 bd
       -0.008170998 -0.013512639 -0.05783907 -0.059147447
000150 ee d4 2b 3d 04 0c 04 be bb 9c 5a bd a5 67 87 3c
       0.041951112 -0.12895209 -0.053372126 0.016528914
000160 0c ab ab 3d c6 4d e3 3c 10 cb bf bd 83 a9 cb bd
       0.08382234 0.027747046 -0.09364903 -0.09944441
000170 bf 13 bc bd bd 7a aa bc db ea e9 bb 63 54 63 be
       -0.09183454 -0.02081048 -0.0071385927 -0.2220016
000180 2a 21 24 3e 6c b6 27 be 2f eb 18 3e 8b 67 f2 bd
       0.16028276 -0.16378182 0.14933465 -0.118361555
000190 7b 48 00 be 50 ea 9c bd 4e 29 10 3c 27 7a 06 be
       -0.12527649 -0.07661879 0.00879891 -0.13132535
0001a0 83 ac 03 bd 71 39 ae bd 34 bc 83 bc 2f 5b c4 bc
       -0.032146942 -0.0850705 -0.016080953 -0.023969261
0001b0 59 59 77 bd de 8f 64 bd 23 6b 6d bc 38 df aa bd
       -0.060387943 -0.055801265 -0.014490875 -0.08343357
0001c0 d6 20 a4 bb d3 c3 08 be 45 97 3e bd 0c e4 bc 3b
       -0.005008797 -0.13355951 -0.04653098 0.00576449
0001d0 aa 4d df bd 61 17 83 3c a8 3e 5b 3d f8 2c 91 bd
       -0.10903485 0.016002359 0.05352655 -0.07088655
0001e0 a3 37 8a 3d 4e 37 cd 3d 47 f2 7f 3d bc c4 96 3d
       0.06748893 0.10020314 0.062486913 0.07361743
0001f0 b3 e4 a5 bd 0a 98 a9 bd 60 9d 0d 3d 08 4f 7b 3d
       -0.081002615 -0.08280952 0.034573913 0.061354667
000200 c3 33 44 bd 41 63 29 bd 3b b3 b0 bd 00 9f e0 bc
       -0.047900926 -0.04135442 -0.086279355 -0.027419567
000210 28 14 43 3c a6 73 0c be 40 7c a6 ba 74 23 c1 bd
       0.011906661 -0.13715991 -0.0012701824 -0.0943059
000220 d0 6b 2d bd ad ab 36 3d a9 83 2a 3e ce 0f b9 3c
       -0.042339146 0.044597317 0.16651787 0.022590544
000230 78 ca cd 3d 17 a6 7b 3d 4d 5f a7 bb 85 61 19 be
       0.100483835 0.061437692 -0.0051077963 -0.14978607
000240 bc e7 13 be c0 0d 9f bd 49 59 30 bd 37 31 85 3c
       -0.14443868 -0.077662945 -0.0430539 0.016258819
000250 33 9a 34 bd d1 31 2f bd bf 91 13 bd f6 3e 35 3d
       -0.04409237 -0.042772118 -0.036027666 0.044249497
000260 7f 48 24 3e 74 18 29 3d 6f 3a e3 3c 3e 47 12 bd
       0.1604328 0.041283086 0.027737824 -0.035712473
000270 24 8b 37 be b9 24 6b bd 96 e6 b4 3b b4 51 e3 3b
       -0.17924172 -0.05740807 0.005520652 0.00693723
000280 ac 8a 94 be b5 bd d4 bc a2 dc 00 3e f5 9e 86 3d
       -0.29012048 -0.025969366 0.12584165 0.065732874
000290 e9 ec 64 bd 26 85 a9 3b 24 7e 93 3b a3 32 ab 3d
       -0.055889998 0.0051733432 0.004501121 0.083592676
0002a0 ed 56 0c 3e 68 df 4f bd 1c da 97 3d be 99 a3 bc
       0.13705035 -0.050750166 0.07414648 -0.01997077
0002b0 1a 26 9c 3d 5d 3e 75 bd 82 37 38 3d d6 30 d3 bc
       0.07624455 -0.059873927 0.04497481 -0.025780123
0002c0 13 15 cf bd a5 3f 49 be d0 be ab b9 82 2d 3c 3d
       -0.101114415 -0.19653185 -0.00032757828 0.045941837
0002d0 62 95 3c be 96 68 47 be 19 13 21 be 26 1a 66 3c
       -0.1841636 -0.1947349 -0.15729941 0.01404432
0002e0 9d 1d 44 bd 13 85 e2 bd 96 24 21 bd 4b ce c8 bd
       -0.047879804 -0.11060538 -0.03934153 -0.09804972
0002f0 f6 45 94 bd 70 b8 1b 3d 63 60 9b bc 73 15 04 bd
       -0.072399065 0.03801769 -0.01896686 -0.032247018
000300 f8 f0 20 bd 60 4a 3e be 59 ba 4d 3d 89 d0 46 bd
       -0.039292306 -0.1858306 0.050226543 -0.04853872
000310 76 e1 31 bc de d2 1b bc 1e 0c 3d bd 6a c8 dd 3c
       -0.010856977 -0.009510724 -0.046154134 0.027073104
000320 13 19 1d be 6e ce 04 3e 68 3e 18 be 7d 5f 1a bb
       -0.15341596 0.12969372 -0.14867556 -0.002355545
000330 0b 1a 8a 3d f6 4e 5f be 03 c9 ed 3d c3 84 be 3d
       0.067432486 -0.21807465 0.116106056 0.09302666
000340 cc 5f 1d 3e c3 ed e9 bd 8f 55 73 bb 00 60 48 bd
       0.15368575 -0.114223026 -0.0037129854 -0.048919678
000350 63 ee 6f 39 f5 34 0d 3d 17 c5 ac bc ac 58 0d 3e
       0.00022881622 0.034474332 -0.021090074 0.13803357
000360 1c ce 31 bd 3f ed c9 bd 36 4d 0c be 48 b7 cf 3d
       -0.04340945 -0.09859704 -0.13701329 0.1014238
000370 6d 67 8c 3b 31 bb 41 bd 74 9a ab 3d 11 24 e3 bd
       0.0042847903 -0.04729766 0.08379069 -0.110908635
000380 d7 47 2a 3d 8f eb c6 bd de 5b 52 3e 2e e5 97 bd
       0.041572418 -0.09712898 0.20542857 -0.074167594
000390 b8 78 10 3e 99 84 f2 3c d4 9f 09 3d 57 07 8e bd
       0.1410855 0.029604243 0.03359969 -0.06934994
0003a0 d8 1c a4 bd 0b 61 a0 bd 67 08 7e 3c e7 d9 7a 3c
       -0.08013314 -0.078310095 0.015504933 0.015310741
0003b0 1d 38 3a be 5e a0 e4 3d b8 b2 9d 3c b9 b3 65 be
       -0.18185468 0.111634 0.019250259 -0.2243184
0003c0 09 27 11 bd 50 e1 83 3d 1c 1c e5 3d 47 3b 0a 3e
       -0.035437617 0.06439459 0.11187002 0.13499175
0003d0 55 46 22 be 83 b8 e9 bc ab 7e 67 be 0e 23 a3 bd
       -0.15847142 -0.028530365 -0.22606914 -0.079656705
0003e0 62 bf 10 be 18 85 d3 bd 3b 04 98 be c3 05 d9 3d
       -0.14135507 -0.1032812 -0.29690728 0.10596802
0003f0 86 40 2e 3d c7 8f 07 3e 2e 12 a0 bd 5b 89 18 bd
       0.042542003 0.1323844 -0.078159675 -0.037240367

features.6.bias f4 [128]
000000 e6 ed 86 bc 63 75 b6 bc 19 9c 31 ba c8 72 24 bc
       -0.01647086 -0.022272771 -0.00067752745 -0.010037132
000010 e1 ea 87 b8 a5 6b f3 bc c3 4e b6 3b b8 69 83 3c
       -6.481051e-05 -0.029714415 0.0055635883 0.016041622
000020 10 c9 dc 3b 1d 34 24 bd a8 fc 08 bd a5 c5 bd bc
       0.0067378357 -0.04008876 -0.033444077 -0.023165533
000030 42 4d a6 3c 3b 18 33 bb b7 85 2a bb 37 0c 01 bc
       0.020300511 -0.0027327675 -0.0026019642 -0.007876447
000040 69 55 d7 bb be 37 2a bc ad 37 43 3c 37 af e5 3b
       -0.006571461 -0.010389267 0.01191513 0.0070094126
000050 ed 17 38 bc 88 ee e6 3a 63 77 4e bc 44 68 7d bb
       -0.011236173 0.0017618695 -0.012601706 -0.0038666883
000060 76 49 94 ba 74 46 69 bc 54 c2 00 ba 14 c2 1f 3d
       -0.0011313397 -0.014237989 -0.00049117696 0.039003447
000070 ca 45 90 3b 61 e7 6a bc ff 5f b6 bc 8e 9f 02 ba
       0.0044028508 -0.014337392 -0.022262571 -0.0004982882
000080 72 1d 92 bc df 99 e6 3c 29 7a 3c 3c ba d4 f7 bb
       -0.017836306 0.028149543 0.011503735 -0.007563201
000090 8d 38 6a bc d9 07 83 bc 1e 17 bf 3b 1e ec 7c bc
       -0.014295709 -0.015994953 0.005831613 -0.015437154
0000a0 b0 85 8a 3c 51 88 c3 3b 05 e2 b9 bc 2a 9e f9 3b
       0.01690945 0.005967178 -0.022690782 0.0076177316
0000b0 c5 af 7a bc ed 7f 35 3c cf 34 7d bc a2 25 11 3c
       -0.015300696 0.011077863 -0.015454485 0.00885907
0000c0 52 15 30 bc 72 2d d8 bc 1c 76 7a bc 86 b8 40 bc
       -0.010747271 -0.026388858 -0.0152869485 -0.011762744
0000d0 58 78 2e bd c4 db 88 bc bf 41 5e 3c 1c 92 27 bd
       -0.042595237 -0.016706355 0.01356548 -0.040910825
0000e0 ba bb df bb 80 ff 1e 3c 80 a5 06 bd 75 8f cc 3b
       -0.0068277987 0.009704471 -0.032872677 0.0062426873
0000f0 ee be 84 3b 64 8d 30 bc 1d 4b 14 bd 0d b7 55 bd
       0.004051081 -0.010775898 -0.036204446 -0.052176524
000100 e6 85 a7 3b e1 b3 61 bc f9 f8 07 bd 7e 38 8c bc
       0.0051123975 -0.013775797 -0.033196423 -0.017116781
000110 bd 75 2e 3c 0e 18 0d 3c c1 53 1e 3c 99 1d 1d 3c
       0.010648188 0.008611692 0.009663523 0.009589576
000120 8c 99 30 3c 97 cd b8 bc b8 a7 d4 bc 68 79 05 bd
       0.010778796 -0.02255897 -0.02595888 -0.032586485
000130 81 ca e6 3b 97 b1 60 3c cf 64 6d 3d ec 61 61 3c
       0.0070431833 0.013714216 0.057957467 0.013756257
000140 af 69 22 bd 8c 90 08 3c 24 76 18 bd d4 d4 bb bc
       -0.03965157 0.008335244 -0.037222043 -0.022928633
000150 cc c4 b6 bc d6 23 77 bc f1 e1 ff bb 79 8d c4 bc
       -0.022310637 -0.015084228 -0.0078089167 -0.02399324
000160 67 ce 76 bb 12 db e7 bb 01 f1 8e 3b fa 6e 5b 3c
       -0.0037659646 -0.0070756758 0.004362226 0.013393158
000170 0b d5 6c bd c8 31 93 3c 51 04 9f 3c bd f6 92 3c
       -0.05782036 0.017968073 0.019411238 0.01793992
000180 fa a0 ac bc e9 16 97 bc 03 f0 27 bd d1 d2 09 3c
       -0.021072853 -0.018443542 -0.041000377 0.008412079
000190 c0 6e 20 bb 29 5e ef 3b ac 04 08 3d fc f9 4b 3b
       -0.0024480075 0.007304926 0.03320758 0.0031124344
0001a0 ce 85 8d bb 72 88 32 3c ab 09 0e bc f4 16 6a ba
       -0.0043189293 0.010896789 -0.008669297 -0.0008929812
0001b0 9b 26 47 bc 45 03 95 bc 48 55 ae bb fb 7b 05 bd
       -0.0121552 -0.018190036 -0.005320225 -0.03258894
0001c0 66 31 e1 bb c1 35 82 bc e7 f3 97 bc 0a d1 78 bc
       -0.006872344 -0.015894772 -0.018548919 -0.015186558
0001d0 68 cf cc 3b f0 70 74 3c 77 c8 26 bd d6 5e a0 3b
       0.0062503107 0.0149195045 -0.040718522 0.004894118
0001e0 7a 31 22 bd 39 16 e1 bb ce e6 cb bc 00 a7 85 bc
       -0.039597966 -0.006869104 -0.02489033 -0.016314983
0001f0 aa 0e d9 bc 75 99 af bc e2 f3 a7 bb 57 5c 08 bd
       -0.02649625 -0.021435479 -0.0051255086 -0.033291187

classifier.weight f4 [9, 128]
000000 e5 38 ed 3d 73 14 28 be 87 7e 47 be 2f 4a 87 bc
       0.115831174 -0.16414051 -0.1948186 -0.016514866
000010 7d 70 ca 3d 27 86 43 bd 2b 47 2d be 20 8e 05 be
       0.09884737 -0.04773536 -0.1692168 -0.13042498
000020 5a f9 21 be 95 ef 30 be 49 e1 21 3d ec 9c e7 bd
       -0.15817776 -0.17278893 0.03952149 -0.11309227
000030 b8 68 e7 3d c2 2a 43 be 17 5d 87 bd fd 61 49 3e
       0.112992704 -0.1905928 -0.06609552 0.19666286
000040 ce 97 81 be a0 d2 b4 3d 5e 15 f7 bc 1e 30 07 3e
       -0.2531113 0.08829236 -0.030161556 0.13201949
000050 54 98 20 bc 7c db 89 3e 59 38 63 3e 3b c9 47 be
       -0.009801943 0.26925266 0.22189464 -0.19510357
000060 b4 c5 f7 bc ec 9f e5 bc 00 61 1a bd a8 ea 55 be
       -0.03024564 -0.028030358 -0.037690163 -0.20890296
000070 ea 91 81 3e c7 71 9a 3c 21 46 0d be 5c 39 7f 3d
       0.25306636 0.018853081 -0.13796283 0.06231056
000080 fd 1f 80 be cd 96 ea 3d 43 4c a1 bd 0b 63 09 bd
       -0.25024405 0.11454544 -0.07875874 -0.03354172
000090 ab 5f 89 bd 2f 80 80 3e 6d 1e 9c bc d5 0b 4e bd
       -0.067077 0.25097796 -0.019057477 -0.050304253
0000a0 b4 e6 41 be 5a a6 54 3d 01 c2 85 3d 0d 09 80 be
       -0.18935663 0.051916458 0.06531144 -0.25006905
0000b0 de 11 64 be d5 0c 4a be 31 6b 6e 3d cf bb 8e 3e
       -0.22272441 -0.19731458 0.058207694 0.27877662
0000c0 30 ca 77 3d 04 e5 8b bc 5d 07 81 3e a3 7e 61 bd
       0.060495555 -0.017076977 0.2520093 -0.05505241
0000d0 5b 19 83 be c8 41 ea bd db 10 0b be 4c 40 53 be
       -0.25605282 -0.11438328 -0.13580649 -0.20629996
0000e0 0d d1 9e be 64 5a 10 3e 83 cf 86 be d3 a7 30 3d
       -0.31018868 0.14096981 -0.26330194 0.0431288
0000f0 29 8a 4c bd 84 05 1b be e7 40 16 be 50 59 24 3e
       -0.049936447 -0.15138823 -0.14673196 0.16049695
000100 0a df 93 bc da 7b 33 be 72 07 b9 3d cf 8f 01 3e
       -0.01805069 -0.17527714 0.09034623 0.12652515
000110 5c 79 96 be d7 21 08 bd cb a6 6e 3e 77 46 c1 3d
       -0.29389465 -0.033235397 0.23305814 0.09437268
000120 ed 3b b9 3b 2e 1c 15 be 0a a4 bc 3d 2e 1e b8 3d
       0.0056528957 -0.14561531 0.092109755 0.08990131
000130 0e 7c 95 3c 4d 4f 0f bd 93 3c 8f bd 5c 17 83 3e
       0.01824763 -0.034987736 -0.069939755 0.2560376
000140 da 83 ae 3d cd 58 36 bd 82 ff 79 3d e4 ce 37 be
       0.085212424 -0.04451828 0.061034687 -0.17950016
000150 79 95 5c 3e ae 45 5a 3e fe ba 40 3e e8 d6 1a 3e
       0.21541394 0.21315643 0.18821332 0.15121043
000160 ef 72 2d be 7f c5 62 3e 86 a8 0f be 89 ad 0d be
       -0.16938375 0.22145651 -0.1402913 -0.1383573
000170 ca 2a 3d be 1b 29 a8 3d b1 1a ba 3d 85 a3 8b be
       -0.18473354 0.08210965 0.09087122 -0.27273193
000180 8c e2 88 bd db 16 84 3e 7c 46 5e 3c da d6 fa 3d
       -0.066838354 0.25798687 0.0135666095 0.12248011
000190 69 c3 3f 3e 61 c7 f6 3c b7 76 e0 3d b2 35 8b bd
       0.18726887 0.030124368 0.10960143 -0.06797351
0001a0 ac b1 1d 3e f6 8a 0d 3e 65 72 9f 3d 75 38 0d be
       0.15399808 0.1382254 0.07785491 -0.13791068
0001b0 ce 3b 4f bd 6a c2 09 3e ac ef 07 be fe 61 74 be
       -0.050594144 0.1345307 -0.13275021 -0.23865506
0001c0 4d 84 4b be 9a e4 46 bd 75 29 98 3d fc ac d5 3d
       -0.19874687 -0.048557855 0.07429782 0.10433385
0001d0 49 17 57 3e 4c 50 d0 bd ec 44 74 3e ad 3b 69 3e
       0.21004976 -0.101715654 0.23854417 0.22776671
0001e0 20 8a 28 be cf 38 20 be a2 83 b5 bd a0 06 9c be
       -0.1645894 -0.15646671 -0.088629976 -0.30473804
0001f0 ee 41 59 be 24 f4 56 bd e4 32 b8 bd e9 4f 16 bd
       -0.21216556 -0.052478924 -0.089940816 -0.036697302
000200 ce ee 23 be 84 bd a1 bc eb 06 69 be 5e 7e 75 be
       -0.16009066 -0.019743688 -0.22756545 -0.23973987
000210 87 0d 4b 3e 02 be 03 3e 0f 4f 58 be a6 4f ad bd
       0.19829379 0.12865451 -0.21123908 -0.08462457
000220 65 80 3e be 9f 6e 86 3d 47 b4 94 3d cd 66 8b be
       -0.18603666 0.06564068 0.07260948 -0.27226868
000230 39 57 9d 3d 16 0d e4 3d 93 89 50 3e b2 1b d5 3d
       0.07682652 0.111353084 0.2036498 0.10405673
000240 23 0e 06 3e 56 71 27 bd c3 7d 26 be fe 3c 64 be
       0.1309133 -0.04087957 -0.16258912 -0.22288892
000250 16 10 bf 3d 64 e1 8b be 77 b1 b9 3d 47 34 89 3d
       0.0932924 -0.27320397 0.09067052 0.06699424
000260 62 94 97 3d 3f 58 be bd c3 5b b7 3d 05 c7 a4 bd
       0.07401349 -0.09294175 0.08953049 -0.080457725
000270 b8 88 4b be 10 a5 26 3e 70 38 76 3c 49 50 01 be
       -0.19876373 0.16273904 0.015028104 -0.12628283
000280 78 50 5a be 6f 11 3e 3d 89 d9 ae bc 0b fe 1c be
       -0.21319759 0.046403345 -0.021343963 -0.15331285
000290 bb 14 3c 3e 95 eb 95 3c bf 6e 92 be ac 28 f9 3d
       0.18367283 0.01830081 -0.28600118 0.12165961
0002a0 3c e6 91 be aa 94 46 be c8 cd ca be b7 45 3c 3e
       -0.28495967 -0.19392648 -0.39610124 0.18385969
0002b0 9f 9e bf bd 4e 47 30 3d 7d d5 b0 3e 87 90 92 3c
       -0.093564264 0.04303675 0.3453788 0.017891182
0002c0 6b 1f 57 3e 11 55 40 3d 20 98 18 3e 25 b3 30 3e
       0.21008079 0.046956126 0.14901781 0.17255838
0002d0 6a c6 2f bd eb 69 c5 bc df 36 12 3e 6b d3 de bd
       -0.04291383 -0.024098357 0.14278744 -0.108801685
0002e0 a8 ff 0e 3e 49 c3 58 3e 51 3e e4 bd 74 b6 82 bd
       0.13964713 0.21168245 -0.111446984 -0.063824564
0002f0 ee 3c 19 3e 7a f5 10 3e 90 c5 f6 3d cc f1 8f 3d
       0.14964649 0.14156142 0.12049401 0.07028541
000300 79 08 1a 3d 06 63 76 bc e8 74 2a bd 30 b4 44 be
       0.037605736 -0.015038257 -0.041615397 -0.19209361
000310 3b 9a c8 bd aa a0 be 3d 86 97 33 3e cb 50 28 3d
       -0.09795042 0.09307988 0.1753827 0.041092675
000320 d3 ea 82 be c8 3a f1 bd 62 7e 97 be c1 92 0c 3e
       -0.25569782 -0.1177879 -0.2958861 0.13727857
000330 2f 24 f6 bd c8 2b 05 be f0 49 75 be cd 78 ee bd
       -0.1201862 -0.13004982 -0.23953986 -0.11644135
000340 da 7c 4e 3e c0 9f 0d 3e 1a ad 7b be 40 b0 db bd
       0.20164815 0.13830471 -0.24577752 -0.107269764
000350 2a 61 3e bb bc 7c 1a bd 6c aa 8e bb 9a 2f 20 be
       -0.0029049614 -0.037716612 -0.004353812 -0.15643159
000360 1b 26 23 3e 9b 85 14 be 43 46 92 bc b3 92 74 be
       0.15932505 -0.14504091 -0.017855769 -0.23884086
000370 7e ee aa bc 08 33 b0 be 7c 50 ff bd f9 00 48 be
       -0.020865675 -0.34413934 -0.12466523 -0.19531621
000380 1c 2f 0e be 87 32 64 be c3 82 04 3d 31 e2 69 be
       -0.13885158 -0.222849 0.032351267 -0.22840191
000390 d9 68 f0 bd 75 99 f6 3d 67 11 7c be ee 52 77 be
       -0.11738748 0.12040988 -0.24616013 -0.24152729
0003a0 29 95 57 bd 0b 25 f9 3d f3 91 49 3d ad e1 6a 3d
       -0.052632485 0.121652685 0.049211454 0.057344127
0003b0 10 7d d8 3c 4b 23 68 3e 93 e7 85 be 09 b4 71 bd
       0.026426822 0.22669713 -0.2615324 -0.059009586
0003c0 9b b6 58 3e 88 10 92 bc 4e 01 26 3e f7 56 31 be
       0.21163408 -0.017830148 0.16211435 -0.1731833
0003d0 0a 55 49 be 4b 32 37 3d ce c5 38 3e 44 40 1a bd
       -0.19661346 0.044725697 0.18044207 -0.037658945
0003e0 6d d1 f5 3d b7 0f a6 bd 45 7d b0 3d 27 3d cc bd
       0.120028354 -0.08108466 0.08617643 -0.099726014
0003f0 be 58 08 be a2 0a c6 3a 1c cc 78 bd c1 5d 12 3e
       -0.13315102 0.001510937 -0.06074153 0.14293577

classifier.bias f4 [9]
000000 6a e4 bf 3c 2f 41 be bc e9 45 1a bc 1f 23 81 bc
       0.023424346 -0.023224441 -0.009416082 -0.015763817
000010 d4 f2 cd 3b 0c d4 86 bd d0 d7 45 3d f6 1d fb 3c
       0.006285051 -0.065834135 0.048301518 0.030653935
000020 13 fd 92 bc
       -0.01794294
