CNN Model Checkpoints/model6.pth (torch, 387015 bytes, 20 tensors)

features.0.weight f4 [32, 3, 3, 3]
0	0xbdcdfaf7	-0.10057633
1	0x3e56a17d	0.2096004
2	0xbea0c6c5	-0.3140165
3	0x3e6b69ee	0.22989628
4	0xbdc269e4	-0.09492853
5	0x3e276d73	0.16350345
6	0x3de2050d	0.110361196
7	0xbd642278	-0.055696934
8	0x3df52169	0.11969263
9	0xbe6790de	-0.22613856
10	0x3e387388	0.18012822
11	0x3e89ecef	0.26938578
12	0xbe3617a4	-0.17782456
13	0xbe5d3f38	-0.21606147
14	0x3d8a3900	0.06749153
15	0xbe5e0c16	-0.21684298
16	0x3e3965b3	0.18105201
17	0xbf14696b	-0.57973355
18	0xbe26dda6	-0.1629549
19	0xbdfa9aea	-0.12236579
20	0xbe851f11	-0.26000264
21	0x3e18bc58	0.14915597
22	0x3ea18b3a	0.31551534
23	0x3e39013d	0.18066879
24	0x3e43569d	0.19076009
25	0xbd5a5afc	-0.053309426
26	0xbdd2afab	-0.10287412
27	0xbece987a	-0.40350705
28	0xbf088222	-0.53323567
29	0x3e7723bc	0.24134725
30	0xbea6517d	-0.32484046
31	0xbead255c	-0.33817565
32	0x3f23c079	0.63965565
33	0xbe858ada	-0.26082498
34	0xbeb8bc59	-0.36081198
35	0xbdbfe6b4	-0.09370175
36	0xbe5ab1e6	-0.21356925
37	0x3d843a46	0.06456427
38	0xbe95a1c6	-0.29224986
39	0xbe05d36d	-0.13068934
40	0x3f07737a	0.5291058
41	0xbdcef6b5	-0.101056494
42	0xbd70ad79	-0.058759186
43	0xbb79a375	-0.0038091813
44	0xbbad49f2	-0.005288356
45	0x3df390a5	0.11892823
46	0x3e0667bf	0.13125513
47	0xbea03188	-0.3128779
48	0x3d853aea	0.065053776
49	0x3e5142bf	0.20435618
50	0x3d15b7b6	0.036552154
51	0xbcab3684	-0.020900019
52	0xbe4eab46	-0.20182523
53	0xbd6c7189	-0.057725463
54	0xbe5f93e8	-0.21833766
55	0xbeeb1d70	-0.45920897
56	0xbc559817	-0.013036749
57	0x3dbe4c78	0.09291929
58	0xbe0e0dfe	-0.13872525
59	0x3e4edf86	0.20202455
60	0x3cca3d7d	0.024687523
61	0x3e185472	0.14875963
62	0x3d2e8fe1	0.042617682
63	0xbdeb6d67	-0.11495476
64	0xbd64b421	-0.055835847
65	0xbe00e4bf	-0.1258726
66	0x3d962397	0.07331007
67	0x3ec2ecdd	0.38071337
68	0xbecb94d1	-0.39761975
69	0x3f101fe4	0.5629866
70	0xbdf56197	-0.119815044
71	0xbbe012f3	-0.0068381964
72	0xbe996413	-0.29959163
73	0xbeb2bd12	-0.34909874
74	0x3f06a99a	0.5260254
75	0x3e7fe87f	0.24991034
76	0xbdddd279	-0.1083116
77	0xbe51eba7	-0.2050005
78	0x3ea819be	0.3283214
79	0xbca64693	-0.020297324
80	0xbe3ba414	-0.1832431
81	0xbd707a6a	-0.058710493
82	0xbe04224d	-0.1290371
83	0x3e33ee54	0.17571384
84	0x3e5d1624	0.21590477
85	0x3e3984d8	0.18117082
86	0x3df5ba30	0.11998403
87	0xbd91be01	-0.071163185
88	0x3e678720	0.2261014
89	0xbeabddae	-0.33567566
90	0xbec5608c	-0.38550222
91	0xbc632906	-0.013864761
92	0x3d561692	0.05226762
93	0xbe631798	-0.22176969
94	0xbe5d9580	-0.21639061
95	0x3d9e3c04	0.07726291
96	0x3df4972a	0.11942895
97	0xbe506e67	-0.20354615
98	0x3dda97e4	0.10673502
99	0xbe932c8f	-0.28744933
100	0x3cca27d1	0.024677189
101	0x3eb6bc05	0.35690323
102	0x3d8f5dc6	0.07000308
103	0xbe1c6504	-0.1527291
104	0x3e62b689	0.22139944
105	0x3d761439	0.06007788
106	0x3f1c581b	0.6107194
107	0x3e0f2892	0.1398032
108	0xbe7e1168	-0.24811327
109	0x3df8f9b3	0.12157001
110	0x3dfc049f	0.12305569
111	0x3d0b41e0	0.03399837
112	0xbd64b6b5	-0.055838306
113	0xbeb62070	-0.35571623
114	0xbe14a1b1	-0.14514805
115	0x3e0ba341	0.13636495
116	0x3d6b5263	0.057451617
117	0x3d0431c1	0.03227401
118	0x3d028982	0.03186942
119	0xbe8ac3f7	-0.27102634
120	0x3e0aab41	0.1354189
121	0xbeb24375	-0.3481709
122	0xbd5d75d8	-0.054067463
123	0x3d5f02dc	0.054446086
124	0x3e02514c	0.12726325
125	0xbe74c159	-0.23901881
126	0x3e558807	0.20852672
127	0x3dc103ab	0.09424528
128	0xbe7620a0	-0.24035883
129	0x3ebcf05a	0.36902124
130	0xb811b1db	-3.4736335e-05
131	0xbebf0bc4	-0.37313664
132	0x3ea279d1	0.31733564
133	0x3e8a1a3e	0.26973146
134	0xbd97290c	-0.07380876
135	0x3e718c06	0.23588571
136	0xbe8dea4e	-0.27717823
137	0x3d6104a3	0.054936063
138	0x3d1e076a	0.03858129
139	0xbef94717	-0.4868705
140	0xbc9f6750	-0.019458443
141	0xbe222db3	-0.15837745
142	0x3db7708b	0.08957013
143	0x3e2a09df	0.16605328
144	0x3d0ea70d	0.03482728
145	0xbea660eb	-0.32495818
146	0x3ec534f8	0.38516974
147	0xbec34038	-0.38134933
148	0xbe4c4148	-0.19946778
149	0x3e4fd3d0	0.20295644
150	0xbd96ef60	-0.07369876
151	0xbbb499a8	-0.0055114813
152	0x3e5f242e	0.21791145
153	0xbe27d622	-0.16390279
154	0x3ebbf637	0.36711285
155	0xbd9f04fc	-0.077646226
156	0x3da5cd26	0.080957696
157	0x3e00ffab	0.1259753
158	0xbe9b529a	-0.30336457
159	0x3eea9a6e	0.45820946
160	0xbe73b81f	-0.23800705
161	0x3e613677	0.21993433
162	0xbe63a7b0	-0.22231936
163	0x3e9847c5	0.29742256
164	0xbe9105e5	-0.2832481
165	0xbd6bcfbc	-0.057571158
166	0x3cc003b1	0.02343926
167	0xbec61dad	-0.38694516
168	0xbe3fc733	-0.18728332
169	0xbe62a3eb	-0.22132842
170	0xbdfba53e	-0.12287377
171	0x3e3e795d	0.18600984
172	0x3e3cc6fe	0.18435284
173	0x3e167f62	0.1469703
174	0x3e4a223d	0.19739623
175	0x3db38e88	0.0876742
176	0x3e2554d8	0.16145647
177	0x3ea11740	0.3146305
178	0x3d9a8aad	0.075459816
179	0xbdc6f56d	-0.0971478
180	0xbd39ec16	-0.045391165
181	0xbe139e68	-0.14415896
182	0x3d7a7f6f	0.061156686
183	0xbe44783c	-0.19186491
184	0x3e824a5f	0.25447366
185	0x3e2933f8	0.16523731
186	0xbe35b7a1	-0.1774583
187	0x3d87d449	0.06632287
188	0x3def022b	0.116703354
189	0xbe13522a	-0.14386812
190	0x3d6032aa	0.054735817
191	0x3e54b6b1	0.20772816
192	0x3e95b563	0.2923995
193	0x3da0b60e	0.07847224
194	0x3e030501	0.12794878
195	0xbe8dac4e	-0.2767052
196	0x3e93cf58	0.28869128
197	0x3e14accc	0.14519042
198	0xbf28a263	-0.6587278
199	0xbeb1ea18	-0.34748912
200	0xbdb4a684	-0.08820823
201	0xbc38e871	-0.011285887
202	0xbc83e5ba	-0.016100753
203	0x3ee646f3	0.44976005
204	0xbe627d15	-0.22118028
205	0xbdefd5a4	-0.117106706
206	0xbe7d8ea7	-0.24761449
207	0x3d4eea64	0.0505165
208	0x3d153bc3	0.036433946
209	0x3e3ae24d	0.1825039
210	0x3e0cabaa	0.1373736
211	0xbe3e4296	-0.18580088
212	0xbe388561	-0.1801963
213	0xbb78c2de	-0.0037957947
214	0xbe8b2545	-0.27176872
215	0xbd75cb22	-0.060008176
216	0xbdda4188	-0.1065703
217	0x3bade74f	0.005307115
218	0xbe9bf1cb	-0.3045791
219	0xbe0d98c3	-0.13827805
220	0xbed4a987	-0.4153559
221	0xbe6a722a	-0.22895113
222	0x3e3997c5	0.18124302
223	0xbd652b99	-0.05594978
224	0x3d52d7c8	0.051475316
225	0x3d7d7055	0.061874706
226	0x3e8b2f61	0.27184585
227	0x3ed9a8df	0.4251165
228	0x3dce8f6a	0.10085948
229	0x3d79d664	0.060995474
230	0x3c7718b5	0.015081574
231	0xbdfdb18f	-0.12387382
232	0x3ee4f371	0.4471698
233	0xbdd5a931	-0.10432661
234	0x3d3ba7c3	0.045814287
235	0x3e8391b2	0.25697094
236	0xbd9801aa	-0.074221924
237	0xbcf70638	-0.030154333
238	0x3cc170a1	0.023613276
239	0xbd75d4a6	-0.06001725
240	0x3da5d5d5	0.08097426
241	0x3dc1a9b6	0.09456198
242	0xbe06f9f2	-0.13181284
243	0xbddac9d0	-0.10683024
244	0xbdaaacdd	-0.08333752
245	0xbd96ace2	-0.073571935
246	0x3e8fc71d	0.280816
247	0x3e4a31ae	0.19745514
248	0xbe0abf88	-0.13549626
249	0x3e4112b6	0.18854794
250	0x3ec93173	0.3929554
251	0x3f0c809b	0.54883736
252	0x3dbcad33	0.09212723
253	0xbe713081	-0.23553659
254	0xbdcc40ce	-0.09973298
255	0xbe795542	-0.2434893

features.0.bias f4 [32]
0	0x394b70be	0.00019401588
1	0xbb172281	-0.0023061337
2	0xba5d5399	-0.0008442938
3	0x3af7a098	0.0018892465
4	0x3b085db7	0.0020807812
5	0x3a08ddea	0.0005221056
6	0xbb48d39b	-0.0030643705
7	0xbb9fbb30	-0.0048746094
8	0xbb5889ae	-0.0033041048
9	0xbac97c26	-0.0015372082
10	0xbad3aab7	-0.00161489
11	0xb9e80a81	-0.00044258314
12	0xbb174a8e	-0.002308521
13	0x3aaf7cb8	0.001338861
14	0xbaab6d8e	-0.0013078914
15	0x3ae16be1	0.0017198288
16	0x39961864	0.00028628402
17	0xbb400643	-0.0029300607
18	0x3a9f233c	0.0012141238
19	0x3b53b6cc	0.0032305
20	0xb909b40c	-0.00013132411
21	0x3b9e663b	0.004833964
22	0xba4ec9f7	-0.00078883715
23	0xba3e29a8	-0.0007254132
24	0xbb4f21d0	-0.0031605847
25	0x3a63a293	0.0008683588
26	0xb812ae01	-3.4971166e-05
27	0x39647f2f	0.00021791154
28	0x39e8fdd0	0.00044439593
29	0x3aa557f8	0.0012614718
30	0xbabaaa96	-0.0014241512
31	0x3a75946d	0.00093681255

features.1.weight f4 [32]
0	0x3f6af0bd	0.9177359
1	0x3f5a3423	0.85235804
2	0x3f6673b7	0.90020317
3	0x3f774021	0.9658223
4	0x3f86b27a	1.0523217
5	0x3f5d532a	0.86455023
6	0x3f511b5c	0.8168237
7	0x3f807aac	1.0037436
8	0x3f74997d	0.95546705
9	0x3f68da6b	0.9095828
10	0x3f69cd19	0.9132858
11	0x3f6f4131	0.9345885
12	0x3f867cc3	1.0506824
13	0x3f70647d	0.9390333
14	0x3f6f4cdc	0.93476653
15	0x3f6805a6	0.9063362
16	0x3f6eacd1	0.93232447
17	0x3f7d154b	0.98860615
18	0x3f6313ea	0.8870226
19	0x3f8125bc	1.0089641
20	0x3f7fcf27	0.99925464
21	0x3f625e8e	0.8842553
22	0x3f85414d	1.0410553
23	0x3f85c743	1.0451435
24	0x3f54ad28	0.83076715
25	0x3f849b8c	1.0359969
26	0x3f8002c8	1.0000849
27	0x3f7091ad	0.93972284
28	0x3f64b929	0.8934503
29	0x3f785a67	0.97012943
30	0x3f5d6d3c	0.86494803
31	0x3f5aeb69	0.8551546

features.1.bias f4 [32]
0	0x3c152e51	0.009105281
1	0xbd96b13f	-0.07358026
2	0xbd8a6c1c	-0.067589015
3	0x3b9003c8	0.004394982
4	0x3c17a0c3	0.009254637
5	0x3d03e5e7	0.032201674
6	0xbd1c2c08	-0.03812793
7	0xbdf8887a	-0.12135406
8	0x3cc014ba	0.023447383
9	0xbcb0423d	-0.02151596
10	0x3b399f4c	0.0028323708
11	0xbd8cfcc5	-0.068841495
12	0x3c82b962	0.015957538
13	0x3cba7a69	0.022763448
14	0xbb647584	-0.0034860084
15	0xbde61603	-0.11234667
16	0xbda6fca4	-0.08153656
17	0x3d9382af	0.0720266
18	0xbdbf8384	-0.093512565
19	0xbe0095eb	-0.12557189
20	0x3de1073d	0.10987709
21	0xbcb51f41	-0.02210963
22	0xbd081943	-0.033227216
23	0x3d4252d6	0.04744228
24	0xbdbe1678	-0.09281629
25	0xbc0fe418	-0.008782409
26	0x3cfeb3b0	0.031091541
27	0x3bde4c7d	0.0067840205
28	0xbca33b29	-0.01992567
29	0x3cff21ca	0.031144042
30	0x3cbb8b86	0.022893678
31	0x3da62c1b	0.08113881

features.1.running_mean f4 [32]
0	0xbd916e61	-0.07101131
1	0xbef9f08c	-0.48816335
2	0xbd828bcc	-0.063743204
3	0x3e96f4b9	0.29483584
4	0xbcea74c7	-0.028620137
5	0x3cd46fa1	0.025932135
6	0x3d801f0d	0.062559225
7	0xbe7ea94a	-0.24869266
8	0x3ddb2232	0.106998816
9	0xbeb7f814	-0.35931456
10	0xbd1a12be	-0.03761553
11	0x3d472883	0.04862262
12	0xbf1f1aac	-0.62150073
13	0x3d31919f	0.043351766
14	0x3e6d8c1e	0.23197982
15	0x3f7e2f1d	0.9929064
16	0xbd2a64a7	-0.041599896
17	0x3d53c497	0.051701155
18	0x3f76e196	0.96437967
19	0xbebcc661	-0.368701
20	0x3e1e9c19	0.15489234
21	0xbf14d0e8	-0.58131266
22	0xbeb35618	-0.35026622
23	0xbf21f753	-0.6326801
24	0x3ee4d4f0	0.44693708
25	0xbc9948a6	-0.0187114
26	0xbd579a97	-0.052637663
27	0xbe84db17	-0.25948402
28	0x3d531628	0.0515348
29	0x3f9b6e93	1.214312
30	0xbdf2818c	-0.11841115
31	0xbf1f7502	-0.62287915

features.1.running_var f4 [32]
0	0x3d5a603d	0.053314436
1	0x3de8464b	0.11341532
2	0x3cba4c6a	0.022741515
3	0x3d0b3e56	0.033994995
4	0x3d4ac239	0.04950163
5	0x3d548360	0.0518831
6	0x3e1a9cd2	0.15098885
7	0x3e2fa232	0.17151716
8	0x3e068075	0.1313494
9	0x3e100d38	0.14067543
10	0x3deaf2ed	0.11472116
11	0x3e0dd81e	0.13851973
12	0x3e197c7e	0.14988896
13	0x3d18ab6e	0.037272863
14	0x3ddd9007	0.10818487
15	0x3e86727e	0.26259226
16	0x3ccaf322	0.024774138
17	0x3dcd18a7	0.10014468
18	0x3e6965e6	0.22792777
19	0x3e53b858	0.2067579
20	0x3dbf3f92	0.09338297
21	0x3d9c4e17	0.07632082
22	0x3dddfeb0	0.108395934
23	0x3df3b424	0.118995935
24	0x3df6569d	0.12028239
25	0x3e096c73	0.13420276
26	0x3e0249db	0.12723486
27	0x3da6f18f	0.081515424
28	0x3dbbf167	0.09176903
29	0x3e89f809	0.26947048
30	0x3da414d9	0.08011789
31	0x3d593775	0.053031404

features.4.weight f4 [64, 32, 3, 3]
0	0x3da84713	0.08216681
1	0x3c15f51e	0.009152679
2	0x3d3a8c88	0.045544177
3	0xbc4c6831	-0.012476013
4	0xbd5b0a85	-0.05347683
5	0x3d540664	0.051763907
6	0x3cf04a05	0.02933217
7	0xbc97b9c7	-0.018521203
8	0x3c8a1f7a	0.016860712
9	0xbdd0d53d	-0.10196922
10	0xbcdd4f88	-0.027015463
11	0x3d67d40a	0.0565987
12	0xbbf34ec5	-0.0074251615
13	0xbd655f3b	-0.055999022
14	0x3ca2c9bf	0.01987159
15	0xbd134673	-0.035955857
16	0x3d2346d3	0.039862465
17	0xbd9b1f51	-0.075743325
18	0x3b3c6b7e	0.0028750594
19	0xbdb2bac7	-0.08727031
20	0xbd4ffe65	-0.05077972
21	0xbcda2f88	-0.026633993
22	0x3d9795bb	0.07401606
23	0xbe2732f4	-0.16328031
24	0xbd8862b6	-0.066594526
25	0x3c038bd8	0.008028947
26	0x3d84d5ab	0.064860664
27	0xbd8f084d	-0.06984005
28	0xbdde00a0	-0.10839963
29	0x3b152ad7	0.002276113
30	0x3d27ed04	0.04099752
31	0xbd4b45ac	-0.04962699
32	0x3ca779b5	0.020443777
33	0x3c22d54c	0.009938549
34	0xbde2ea7b	-0.1107988
35	0x3c3f28a3	0.011667403
36	0xbda348eb	-0.079728924
37	0x3d824f39	0.06362767
38	0x3d5fc62a	0.054632343
39	0x3b21d2de	0.0024692337
40	0x3a42131d	0.0007403361
41	0xbdd389b5	-0.10329
42	0xbd96b3b5	-0.07358495
43	0xbd9ff58b	-0.078105055
44	0xbc9d72c0	-0.019219756
45	0x3de2d555	0.11075846
46	0x3d62be49	0.05535725
47	0x3d246750	0.04013759
48	0x3d1e215a	0.038606025
49	0x3de68f7a	0.11257835
50	0xbae93cc6	-0.0017794601
51	0xbd87a333	-0.06622925
52	0x3e2103d5	0.15724118
53	0xbe4abd4d	-0.19798775
54	0x3c55a597	0.013039968
55	0x3d1bccfe	0.038037293
56	0x3da2971e	0.079389796
57	0xbcc9824c	-0.024598263
58	0xbd8ebed5	-0.06969992
59	0x3d121612	0.03566558
60	0x3d94057b	0.07227608
61	0x3c993fa4	0.018707104
62	0xbe45dd25	-0.19322641
63	0x3cc7a266	0.02436943
64	0xbcafe4fc	-0.021471493
65	0xbd60f618	-0.054922193
66	0x3da7f2f9	0.0820064
67	0x3d0428c5	0.032265443
68	0x3e7fb422	0.24971059
69	0xbe039bd9	-0.1285242
70	0x3df82b75	0.12117664
71	0xbe4b5a18	-0.19858587
72	0xbda0439b	-0.07825395
73	0x3d2183d6	0.03943237
74	0xbd920398	-0.07129592
75	0xbb1b53b7	-0.002370102
76	0x3ddd8656	0.10816638
77	0xbd97d8ba	-0.07414384
78	0x3bd6d542	0.006556184
79	0x3cb038c9	0.021511452
80	0xbc2fd3aa	-0.010731617
81	0xbdba53e3	-0.09098031
82	0x3d3e7600	0.046499252
83	0xbcebc885	-0.028782139
84	0x3da893cd	0.08231316
85	0x3cec2511	0.028826268
86	0x3d861012	0.06546034
87	0xbc3cdcda	-0.0115272645
88	0x3d3ef3fc	0.0466194
89	0xbd782863	-0.06058539
90	0x3cd026fb	0.025409212
91	0x3c49b121	0.012310297
92	0xb92da463	-0.00016559804
93	0x3e6e6a1d	0.23282667
94	0x3c4e5886	0.012594348
95	0xbdd85d60	-0.10564685
96	0x3ce6f710	0.02819398
97	0xbd9a07c5	-0.07521013
98	0x3d60b15e	0.05485665
99	0xbc9de81b	-0.019275716
100	0xbd02b112	-0.03190715
101	0x3d4de1ee	0.05026429
102	0x3da8a239	0.082340665
103	0xbd41213f	-0.047150847
104	0xbd0c66c7	-0.034277704
105	0xbc072ee2	-0.008250924
106	0xbd83cae7	-0.06435185
107	0x3e0b9ba5	0.13633592
108	0xbc7acf2a	-0.015308181
109	0xbdda5335	-0.10660402
110	0xbc44eeff	-0.012019872
111	0xbd87eb0a	-0.06636627
112	0x3c8d2c2c	0.017232977
113	0xbd9fa5e9	-0.07795317
114	0x3d174de7	0.036939528
115	0x3e2d75f9	0.16939534
116	0x3d5caa00	0.053873062
117	0x3db85433	0.09000435
118	0x3df29b60	0.11846042
119	0xbd6fffa8	-0.058593422
120	0x3d71a854	0.05899842
121	0x3df62e9b	0.12020608
122	0xbd9619a0	-0.07329106
123	0xbc4e5496	-0.012593409
124	0x3d1c031b	0.0380889
125	0x3c871017	0.016487164
126	0x3cac03dc	0.020997934
127	0x3c64421c	0.013931777
128	0xbcc6d6d5	-0.024272362
129	0xbb16134e	-0.002289969
130	0x3dec7c4f	0.115471475
131	0xbc9b7f47	-0.018981589
132	0xbd6724e3	-0.056431662
133	0xbd4822fa	-0.04886148
134	0xbd37282a	-0.044716038
135	0x3c5304d4	0.012879569
136	0x3cffd42c	0.031229101
137	0xbcd28028	-0.025695875
138	0x3d207643	0.039175283
139	0xbdb49740	-0.08817911
140	0xbd7eab84	-0.06217529
141	0x3dcba5e8	0.099437535
142	0x3de6862f	0.11256062
143	0x3dda58e9	0.106614895
144	0x3c84092c	0.016117655
145	0xbd086dd5	-0.03330787
146	0xbd342620	-0.04398167
147	0xbe01a108	-0.12659085
148	0x3d9bb3bb	0.0760264
149	0xbd98e07f	-0.07464694
150	0x3d9c9b6f	0.07646834
151	0xbd6c89c6	-0.05774858
152	0xbd187e74	-0.03722997
153	0x3c7b14b7	0.015324763
154	0x3d0ba763	0.03409518
155	0x3d26c9b9	0.04071972
156	0xbd0850d9	-0.033280227
157	0xbcf86abb	-0.03032433
158	0xba83be55	-0.001005123
159	0x3aec8a4b	0.0018046586
160	0xbc56e057	-0.01311501
161	0x3cd6e69b	0.026233008
162	0xbdaed776	-0.0853719
163	0xbd6d67f1	-0.057960454
164	0xbc63f135	-0.013912489
165	0x3c8a0f0d	0.01685288
166	0xbe036015	-0.12829621
167	0xbd1d1904	-0.038353935
168	0x3c31a8b2	0.010843443
169	0xbd2eec69	-0.042705927
170	0x3d2cc3aa	0.042178787
171	0x3d54c58c	0.051946208
172	0x3d0d19a2	0.034448273
173	0x3c912ed7	0.01772253
174	0xbe57ffbf	-0.21093653
175	0x3dc9bed0	0.09850848
176	0x3d657d4c	0.056027696
177	0xbbcfe9e3	-0.00634502
178	0x3e4b10ca	0.19830623
179	0x3df720f5	0.12066833
180	0xbd943ebe	-0.072385296
181	0x3cf151b7	0.02945791
182	0xbd7f35fb	-0.06230734
183	0xbd4c54be	-0.049885504
184	0xbcd17f1e	-0.02557331
185	0xbdc57515	-0.09641472
186	0x3e2c7197	0.16840206
187	0x3caca140	0.021072984
188	0x3d4e3a98	0.050348848
189	0x3c2ddfc5	0.010612433
190	0x3df963a5	0.12177209
191	0x3cfe55ad	0.031046713
192	0xbdacc0db	-0.08435222
193	0xbc9576e5	-0.01824517
194	0x3dbdd207	0.09268575
195	0x3da800fb	0.08203312
196	0x3c8937dc	0.016750269
197	0xbd8616bd	-0.06547306
198	0xbd2af639	-0.041738722
199	0x3d0253af	0.03181809
200	0xbd32152e	-0.04347723
201	0x3e1e77eb	0.15475433
202	0x3b747b2b	0.003730486
203	0xbc3acbae	-0.0114011
204	0xbd44a6f2	-0.048010774
205	0x3e0e4cac	0.13896435
206	0x3c8e2a5f	0.017354188
207	0xbd698b0a	-0.057017364
208	0xbd702e0d	-0.058637667
209	0xbb899f51	-0.0041999
210	0x3d9a1a5f	0.07524561
211	0xbd1b9c88	-0.037991077
212	0x3e70cc94	0.2351554
213	0x3de02578	0.109446466
214	0x3dab470e	0.08363162
215	0xbd433934	-0.047661975
216	0x3d55d7ad	0.052207638
217	0x3e251b4d	0.16123696
218	0xbd128138	-0.035767764
219	0x3d714ebf	0.05891299
220	0xbd3c7fa6	-0.046020173
221	0xbda7f4f3	-0.08201017
222	0x3d29e7bf	0.041480776
223	0xbde70fb2	-0.112822905
224	0xbd215d64	-0.039395705
225	0xbd1eadb8	-0.03873989
226	0x3b10062e	0.002197634
227	0x3d5d78e4	0.05407037
228	0xbcbd19fb	-0.023083678
229	0xbb378032	-0.0027999994
230	0x3dfff5ff	0.12498092
231	0x3d03a109	0.032135997
232	0x3dd5567b	0.104168855
233	0xbdbfd431	-0.09366644
234	0x3c2d8956	0.0105918255
235	0x3d6b28d5	0.057411987
236	0x3e23f9f8	0.16013324
237	0xbcddc6d5	-0.02707235
238	0x3e383ba6	0.17991504
239	0x3e1ca060	0.15295553
240	0xbc9b4d9a	-0.018957902
241	0x3d6d0750	0.057868302
242	0x3d389934	0.04506798
243	0x3e121e16	0.1426929
244	0x3d03b02a	0.032150425
245	0xbe2ec64b	-0.1706783
246	0xbe41a6b9	-0.18911256
247	0xbcca1333	-0.024667358
248	0xbe2d8b33	-0.16947632
249	0xbd3c194c	-0.045922562
250	0xbe2c9a24	-0.16855675
251	0xbe2f5b9a	-0.17124787
252	0x3c99f1cb	0.018792054
253	0xbe14c38a	-0.14527717
254	0x3df20dae	0.118190154
255	0xbd7b9d51	-0.061429325

features.4.bias f4 [64]
0	0xb899496e	-7.309286e-05
1	0x391670a0	0.00014347071
2	0x386c83a8	5.63894e-05
3	0xb9f7a8f4	-0.0004723739
4	0x39118d80	0.0001388099
5	0x37b10e85	2.1106805e-05
6	0x397a6e52	0.00023882955
7	0xb9937de4	-0.0002813182
8	0x389011d5	6.8697766e-05
9	0x39116525	0.00013865957
10	0x394bf951	0.00019452466
11	0xb973076d	-0.00023177052
12	0x38d8ace7	0.00010331888
13	0xb9566b75	-0.00020448661
14	0x368453e0	3.943671e-06
15	0x39dbfe76	0.00041960523
16	0xb806daaf	-3.2151755e-05
17	0x3821657d	3.847991e-05
18	0x37e291b2	2.7009144e-05
19	0xb99d330d	-0.0002998341
20	0x38c9d524	9.6241274e-05
21	0xb82973fe	-4.0400766e-05
22	0xb9466589	-0.00018920576
23	0xb8bc9690	-8.992583e-05
24	0x38efe162	0.00011438389
25	0xb9a77b13	-0.0003194442
26	0x39b06439	0.00033644008
27	0x383449a0	4.2983913e-05
28	0xb98e4563	-0.00027136048
29	0xb95883b0	-0.00020648423
30	0xb7cb6e7a	-2.425093e-05
31	0x3a0677c3	0.000512954
32	0xb9b8df04	-0.00035261374
33	0xb910ae7e	-0.00013797914
34	0xb9a1ac9c	-0.00030836917
35	0x395101c8	0.00019932457
36	0x389f9700	7.609837e-05
37	0x387a2903	5.964284e-05
38	0xb98aa8a6	-0.00026447064
39	0x3797cc28	1.809567e-05
40	0x39ff4a49	0.00048692737
41	0xb991b7c7	-0.0002779348
42	0xb8b68282	-8.702745e-05
43	0xb8f24a0a	-0.0001155325
44	0xb96fda73	-0.00022874195
45	0x39746959	0.00023308898
46	0xb86c4d70	-5.6338904e-05
47	0xb8c28563	-9.275486e-05
48	0x398bfc8c	0.00026700308
49	0x3801c940	3.0943425e-05
50	0x38198650	3.660313e-05
51	0x399f57d4	0.0003039228
52	0xb9a01d54	-0.0003053943
53	0x39a30878	0.00031096092
54	0x3959597c	0.00020728068
55	0xb9aabf02	-0.0003256724
56	0x38cf4e8c	9.88516e-05
57	0x3952ab6d	0.00020091022
58	0x3868ae25	5.5475295e-05
59	0x38d39458	0.00010088895
60	0xb8fa42cd	-0.000119333716
61	0xb8639674	-5.4261138e-05
62	0xb9539056	-0.00020176297
63	0xb8c25ee0	-9.268313e-05

features.5.weight f4 [64]
0	0x3f6d7817	0.9276137
1	0x3f4990e0	0.78736687
2	0x3f71e124	0.9448416
3	0x3f45657a	0.77107966
4	0x3f7b8fe2	0.9826642
5	0x3f630cde	0.8869151
6	0x3f6cffee	0.9257802
7	0x3f5440a0	0.8291111
8	0x3f7fbc7d	0.99896985
9	0x3f6ee696	0.93320596
10	0x3f57ce85	0.842995
11	0x3f6d5cc9	0.92719704
12	0x3f5b6812	0.85705674
13	0x3f79d5ee	0.97592056
14	0x3f762699	0.96152645
15	0x3f6a392a	0.91493475
16	0x3f7a5f45	0.9780162
17	0x3f554de2	0.83321965
18	0x3f5a8544	0.853596
19	0x3f5f451c	0.8721483
20	0x3f776dbb	0.9665181
21	0x3f50ad3b	0.8151433
22	0x3f443d9f	0.76656526
23	0x3f60eb32	0.8785888
24	0x3f721813	0.94567984
25	0x3f46054d	0.7735184
26	0x3f55b9bd	0.8348654
27	0x3f606ee6	0.8766922
28	0x3f62612b	0.88429517
29	0x3f58a6b7	0.84629387
30	0x3f73cca8	0.95234156
31	0x3f57415e	0.8408412
32	0x3f614029	0.87988526
33	0x3f832474	1.02455
34	0x3f585c87	0.84516186
35	0x3f571448	0.8401532
36	0x3f6c8b99	0.9240051
37	0x3f632ea1	0.88743025
38	0x3f69fe8f	0.9140405
39	0x3f6b38dc	0.91883636
40	0x3f46bd53	0.77632636
41	0x3f659065	0.89673454
42	0x3f5d86cb	0.865338
43	0x3f614056	0.87988794
44	0x3f6f49e6	0.93472135
45	0x3f5b0815	0.8555921
46	0x3f63f280	0.890419
47	0x3f6dcb56	0.9288839
48	0x3f4f53bc	0.80987144
49	0x3f7057a6	0.9388374
50	0x3f63dfbe	0.8901328
51	0x3f68c202	0.9092103
52	0x3f5d92da	0.865522
53	0x3f43e019	0.7651382
54	0x3f7be90c	0.98402476
55	0x3f7168c6	0.94300497
56	0x3f6346df	0.88780016
57	0x3f5fe528	0.8745904
58	0x3f5821fd	0.8442686
59	0x3f3fb9ba	0.7489277
60	0x3f47f522	0.7810842
61	0x3f7261bf	0.946804
62	0x3f5d286f	0.8638982
63	0x3f545b33	0.8295166

features.5.bias f4 [64]
0	0xbe173ac6	-0.14768514
1	0xbddfd552	-0.109293595
2	0xbe8f321e	-0.27967924
3	0xbe4e9b97	-0.2017654
4	0xbe62508e	-0.22101042
5	0xbdddbf62	-0.10827519
6	0xbd215db0	-0.039395988
7	0xbe426576	-0.18984017
8	0xbe4bd73d	-0.19906326
9	0xbd3c9d84	-0.046048656
10	0xbe05b6a0	-0.13057947
11	0xbddd6a65	-0.10811309
12	0xbe0dbaef	-0.13840841
13	0xbeb7361d	-0.35783473
14	0xbe237a32	-0.15964583
15	0xbd8d9b85	-0.069144286
16	0xbd6ac9c6	-0.057321332
17	0xbe7217e6	-0.23641929
18	0xbe22d001	-0.1589966
19	0xbddb7e80	-0.10717487
20	0xbdf725eb	-0.12067779
21	0xbe654253	-0.22388582
22	0xbe880d84	-0.26572812
23	0xbd95eac6	-0.0732017
24	0xbe3eb5ce	-0.1862404
25	0xbe634130	-0.22192836
26	0xbe0fb439	-0.14033593
27	0xbe3edd4c	-0.18639106
28	0xbe878ec1	-0.264761
29	0xbdfe9fe8	-0.124328434
30	0xbdd456c5	-0.103681125
31	0xbe3bcb40	-0.18339252
32	0xbdfc0aaa	-0.123067215
33	0xbe9b777a	-0.3036459
34	0xbe858493	-0.2607771
35	0xbe161ecd	-0.14660187
36	0xbeab2344	-0.33425343
37	0xbe9df97a	-0.30854398
38	0xbe39cf67	-0.18145524
39	0xbe771509	-0.24129118
40	0xbe477f47	-0.19482146
41	0xbe4aa7c3	-0.19790559
42	0xbe47a3d0	-0.19496083
43	0xbe0aadbd	-0.13542838
44	0xbe3bff33	-0.1835907
45	0xbe950964	-0.29108727
46	0xbe0dc994	-0.13846427
47	0xbd81dbda	-0.063407615
48	0xbe3ccc17	-0.18437229
49	0xbe00936a	-0.12556234
50	0xbd7a6393	-0.061130118
51	0xbdc9595b	-0.09831496
52	0xbe47f625	-0.1952749
53	0xbe0e9df9	-0.1392745
54	0xbe0ba461	-0.13636924
55	0xbdf6c833	-0.12049904
56	0xbe5ada50	-0.21372342
57	0xbd8bcac0	-0.06825781
58	0xbe89f03d	-0.269411
59	0xbe97f979	-0.2968252
60	0xbe252087	-0.1612569
61	0xbe8eb145	-0.2786962
62	0xbe956f68	-0.2918656
63	0xbe29c2c5	-0.16578205

features.5.running_mean f4 [64]
0	0x3e84900a	0.25891143
1	0x3efc9a37	0.49336407
2	0xbeca5460	-0.39517498
3	0xbf11eb54	-0.5699971
4	0xbef9bcf4	-0.48776972
5	0xbf5a42cd	-0.8525818
6	0xbf8d1ccc	-1.1024413
7	0x3e8544fb	0.2602919
8	0xbf386532	-0.7202941
9	0xbd68ab4d	-0.05680399
10	0x3f0d6559	0.5523277
11	0xbedeee08	-0.43540978
12	0x3ed21a25	0.41035572
13	0xbf52b258	-0.8230338
14	0xbd604b5d	-0.054759372
15	0x3e65ddb3	0.22447853
16	0xbfade82f	-1.3586482
17	0x3e45997f	0.19296835
18	0xbbe151ae	-0.006876192
19	0xbe96c027	-0.29443476
20	0xbf206d77	-0.6266703
21	0x3f707da9	0.9394174
22	0xbe1509cb	-0.14554517
23	0x3ee6da58	0.45088458
24	0x3b68b368	0.0035507325
25	0x3f0c874f	0.54893965
26	0x3ea4135b	0.32046017
27	0xbea7a159	-0.32740286
28	0x3e9e6525	0.30936542
29	0x3d8c0570	0.068369746
30	0xbef38e0f	-0.4756932
31	0x3ee706c9	0.45122364
32	0xbec88a66	-0.3916809
33	0xbe2633e8	-0.16230738
34	0x3f5490e6	0.830336
35	0x3e81493c	0.25251186
36	0xbf2d76fc	-0.6775968
37	0x3cb9517d	0.022621864
38	0xbefa88a2	-0.48932368
39	0xbeea338e	-0.45742458
40	0xbedd7969	-0.4325669
41	0xbf28b3bc	-0.6589925
42	0xbec7bd93	-0.3901182
43	0xbf43e967	-0.7652802
44	0x3eb1df30	0.3474059
45	0xbf0685c1	-0.5254784
46	0x3f26322a	0.64920294
47	0x3f359156	0.7092489
48	0x3f86a8d2	1.052027
49	0xbf6c7400	-0.923645
50	0xbefd2936	-0.49445504
51	0xbe87c97b	-0.26520905
52	0xbeaa0f7e	-0.33214945
53	0x3e5409aa	0.20706812
54	0xbfb80b4b	-1.4378446
55	0x3f0fada0	0.56124306
56	0x3e0f2c17	0.13981663
57	0xbf254e5d	-0.645727
58	0x3f3f3736	0.7469362
59	0xbe4fd49c	-0.20295948
60	0xbd5f90d3	-0.054581475
61	0xbf052b40	-0.5201912
62	0xbd95b63a	-0.073101476
63	0xbe3a761d	-0.18209119

features.5.running_var f4 [64]
0	0x3f36c7e4	0.7139876
1	0x3f762716	0.9615339
2	0x3f73c5bf	0.9522361
3	0x3f00425f	0.50101274
4	0x3f19be2d	0.6005581
5	0x3f5e383a	0.86804545
6	0x3f64aeee	0.8932942
7	0x3f503fef	0.81347555
8	0x3f811649	1.0084926
9	0x3fa9c51d	1.3263279
10	0x3f8f4cc1	1.1195298
11	0x3f21ceee	0.63206375
12	0x3f28c8ab	0.65931195
13	0x3fb0feb4	1.3827729
14	0x3fe2b840	1.7712479
15	0x3f41894d	0.7560013
16	0x3f8ca2f0	1.0987225
17	0x3fb6ad57	1.4271649
18	0x3f7765d1	0.96639735
19	0x3f5a8f15	0.85374576
20	0x3f953942	1.1658099
21	0x3f24bd92	0.6435176
22	0x3f2e397f	0.6805648
23	0x3f835691	1.0260793
24	0x3f156842	0.5836221
25	0x3f5b63fb	0.85699433
26	0x3f1c3ea5	0.6103309
27	0x3f4f2e02	0.8092958
28	0x3f09bc82	0.53803265
29	0x3f2c2130	0.6723814
30	0x3f01cb73	0.50701064
31	0x3f0392c5	0.5139583
32	0x3f6d5f4a	0.92723525
33	0x3fe78568	1.8087587
34	0x3f53f570	0.8279638
35	0x3fd30ccd	1.6488281
36	0x3f452fc4	0.7702601
37	0x3f6976d9	0.9119697
38	0x3f1c2f65	0.6100982
39	0x3f4a04ac	0.7891338
40	0x3f177a65	0.59171134
41	0x3f3c7347	0.736134
42	0x3f2860cb	0.65772694
43	0x3f3e6722	0.7437612
44	0x3f2395d2	0.6390048
45	0x3ec7f751	0.39055875
46	0x3f5d1af8	0.86369276
47	0x3fa0b242	1.25544
48	0x40021eed	2.0331376
49	0x3f4505eb	0.76962155
50	0x3f32cc85	0.6984332
51	0x3f2b9033	0.67016906
52	0x3f1a4600	0.6026306
53	0x3f3f609e	0.747568
54	0x3f434852	0.7628223
55	0x3f77cea4	0.96799684
56	0x3f701cd5	0.93793994
57	0x3fb17739	1.3864509
58	0x3fa57299	1.2925597
59	0x3f9bc4a3	1.2169384
60	0x3f1cc6df	0.61240953
61	0x4006e698	2.1078243
62	0x3f2144b4	0.6299546
63	0x3f13d531	0.5774718

features.8.weight f4 [128, 64, 3, 3]
0	0x3c362432	0.011117028
1	0x3c9329f7	0.017964346
2	0xbd45e629	-0.0483152
3	0xbdcfd4aa	-0.10147984
4	0xbd2973f4	-0.041370347
5	0xbdc6f088	-0.097138464
6	0xbcddd92e	-0.027081098
7	0xbcc5d98f	-0.024151592
8	0xbd2aede7	-0.041730788
9	0x3e048a53	0.12943392
10	0x3d6a8b07	0.057261493
11	0xbd62aaff	-0.055338856
12	0x3ab96712	0.0014145097
13	0x3ce1a964	0.027546592
14	0xbda84215	-0.08215729
15	0x3caf3e67	0.02139206
16	0x3d4c0f09	0.049819026
17	0xbd9b1e02	-0.07574083
18	0x3d44dbef	0.048061308
19	0xbdc29b91	-0.09502328
20	0x3d6e2650	0.058142006
21	0xbd3a78c6	-0.045525335
22	0x3d989622	0.074505106
23	0x3db2a20d	0.08722315
24	0xbe148cff	-0.1450691
25	0xbd28eba5	-0.041240353
26	0xbd025e5a	-0.031828262
27	0xbc4cbf90	-0.012496844
28	0xbd54ab35	-0.05192109
29	0x3d439a42	0.047754534
30	0xbd484da9	-0.048902187
31	0xbc93dde7	-0.018050147
32	0xbd129ae5	-0.03579225
33	0x3c91c870	0.017795771
34	0x3d6cd259	0.05781779
35	0x3e1046c4	0.14089495
36	0x3cd0a50f	0.025469331
37	0xbdbf5757	-0.09342831
38	0x3bcc210c	0.0062295254
39	0x3ba6e99a	0.0050937654
40	0xbb102ef9	-0.0022000654
41	0xbcc16a55	-0.023610273
42	0xbcf35bfd	-0.02970695
43	0xbd89f52d	-0.06736217
44	0x3dc11c4a	0.09429224
45	0x3cb6aa4a	0.022297997
46	0x3be73650	0.007056035
47	0xbd621183	-0.05519248
48	0x3d85e350	0.06537497
49	0x3cfcf56e	0.030878749
50	0x3ccbb968	0.024868682
51	0x3cd5b93f	0.026089309
52	0x3e4325ec	0.19057435
53	0xbd4ebe71	-0.050474588
54	0x3da5fc01	0.081047066
55	0xbcb6c970	-0.02231285
56	0xbcbaface	-0.022824671
57	0xbb48cd0f	-0.0030639803
58	0xbd35cd17	-0.044385042
59	0xbbdd3d2a	-0.006751676
60	0xbd4509b6	-0.048104964
61	0xbdecd6a4	-0.11564377
62	0x3d733a38	0.059381694
63	0xbd06b10b	-0.032883685
64	0x3d33f795	0.043937284
65	0xbc6a6e37	-0.014308504
66	0x3daa87e3	0.083266996
67	0x3d406eac	0.046980545
68	0x3b4a23d0	0.00308441
69	0xbdc7c03c	-0.09753463
70	0xbc51fe4f	-0.01281698
71	0xbbfe5e96	-0.0077627404
72	0xbd8d0f09	-0.06887633
73	0xbdecf187	-0.11569505
74	0xbca5e0f9	-0.020248877
75	0xbcbe7607	-0.02324964
76	0xbd222d11	-0.03959376
77	0xbd0f3f84	-0.034972683
78	0x3ad6af85	0.0016379213
79	0x3d1f6bdb	0.03892122
80	0x3ccfb18c	0.025353216
81	0x3d898a0e	0.06715785
82	0x3bc87f92	0.006118723
83	0xbdb09bff	-0.08623504
84	0x3d178ff5	0.037002522
85	0xbcfad64d	-0.030619765
86	0x3d1353ab	0.035968464
87	0xbcf67bed	-0.03008839
88	0xbce840a6	-0.02835114
89	0xbb85c5b3	-0.0040824055
90	0xbbe3d7e0	-0.0069532245
91	0x3d1c5c68	0.038174063
92	0x3d00c41f	0.031437036
93	0xbd18f7fd	-0.037345875
94	0x3c9a2026	0.018814158
95	0x3d8e5ba9	0.069510765
96	0x3d433f66	0.047667883
97	0xbb624ecc	-0.003453183
98	0xbae4f47f	-0.0017467885
99	0x3b7e1f37	0.003877593
100	0x3d993801	0.07481385
101	0x3de4b20b	0.111667715
102	0xbd7c2136	-0.06155511
103	0xbd68c332	-0.056826778
104	0x3d10ffda	0.03540025
105	0x3de98fc6	0.11404376
106	0x3d472517	0.048619356
107	0xbccd746b	-0.025079926
108	0x3dad92c5	0.0847526
109	0x3dc253e6	0.094886586
110	0xbd90daa3	-0.07072952
111	0x3cb78f93	0.022407329
112	0xbdaaa91a	-0.08333035
113	0x3ce5886c	0.028019153
114	0xbdb91fd2	-0.09039272
115	0x3df89814	0.121383816
116	0x3c4c1e0e	0.0124583375
117	0xbd9103c7	-0.070807986
118	0xbd018742	-0.031623133
119	0x3d3f8745	0.046759862
120	0x3cdbb947	0.026821746
121	0xbd63b49d	-0.055592168
122	0xbd93e2b4	-0.072209746
123	0xbcf1cbb8	-0.029516086
124	0x3c08391e	0.008314399
125	0x3cead36f	0.028665273
126	0x3c30a6ff	0.0107820025
127	0xbd817063	-0.06320264
128	0xbd808ab7	-0.06276458
129	0xbce620d3	-0.028091824
130	0xbd62a5a9	-0.055333767
131	0xbc13ecee	-0.009028656
132	0x3ce46665	0.027880857
133	0xbc5e4a23	-0.01356748
134	0x3d62b6e5	0.055350203
135	0x3d071734	0.032981113
136	0x3d6d2b61	0.057902697
137	0x3c8ed26a	0.017434318
138	0xbcb66b87	-0.02226807
139	0x3dde49d8	0.10853928
140	0xbdd51ad9	-0.104055114
141	0x3e1b7f05	0.15185173
142	0xbcbb9009	-0.02289583
143	0x3d1847ec	0.037177965
144	0x3e0de792	0.13857868
145	0xbd9a1c01	-0.075248726
146	0x3c0d2144	0.008613888
147	0x3da38c5e	0.07985757
148	0xbde2e9b2	-0.1107973
149	0xbd6d4556	-0.057927452
150	0x3d4a09aa	0.049325623
151	0x3c876d14	0.016531505
152	0xbb77ecce	-0.0037830356
153	0x3cbe3927	0.023220612
154	0x3cd8ba34	0.026455976
155	0x3d948606	0.072521254
156	0xbd9f0b27	-0.07765799
157	0xbcc75412	-0.02433208
158	0xbd3ef417	-0.0466195
159	0xbcdf8dc0	-0.027289271
160	0x3df2e134	0.1185936
161	0x3d538051	0.051636044
162	0x3d682952	0.05668003
163	0x3cbf10c3	0.023323422
164	0x3cbd104d	0.023079062
165	0xbd48802c	-0.04895036
166	0x3d0c0ae7	0.034190085
167	0x3c7081c6	0.014679378
168	0x3b94f13c	0.004545359
169	0xbd616eae	-0.055037193
170	0xba89caa7	-0.0010512666
171	0x3d49a7d0	0.049232304
172	0x3aee7d6e	0.001819534
173	0xbc7c7dbe	-0.015410839
174	0xbc5f553c	-0.013631161
175	0x3c8ffa0c	0.017575286
176	0x3d98363e	0.07432221
177	0x3d0163fb	0.03158949
178	0xbe4fb343	-0.20283227
179	0xbd2f6ebb	-0.04283021
180	0xbc92ec7b	-0.017935028
181	0x3df7ef40	0.1210618
182	0xbdb4960b	-0.08817681
183	0x3c80c18c	0.01571729
184	0xbd1d758e	-0.038442187
185	0xbdaab1df	-0.083347075
186	0x3d3c77ee	0.04601281
187	0x3deb3ba9	0.11485989
188	0x3d8e4b50	0.069479585
189	0xbcb3b2bb	-0.021935811
190	0x3d960cb6	0.07326643
191	0xbbba4d96	-0.0056855185
192	0x3c9fe572	0.019518588
193	0x3bc0a1c1	0.0058786576
194	0xbcf40ef9	-0.029792296
195	0xbd9888f3	-0.07447996
196	0xbc2ca3ed	-0.01053713
197	0xbd5544f0	-0.052067697
198	0xbc3bf0ec	-0.0114710145
199	0xbe006739	-0.12539376
200	0xbca1e474	-0.019762255
201	0xbc84cc4a	-0.016210694
202	0x3d64ca52	0.05585701
203	0x3dd6d940	0.10490656
204	0xbdf84bef	-0.12123858
205	0x3d1a8e6b	0.037733477
206	0xbc195458	-0.009358488
207	0x3cf5e861	0.030018033
208	0x3cd10cbc	0.025518768
209	0xbb208ba2	-0.002449729
210	0xbd44dff9	-0.04806516
211	0x3daa7f33	0.083250426
212	0x3cf77e78	0.030211672
213	0x3d94fa9f	0.07274365
214	0xbdd279dc	-0.10277149
215	0x3c341b74	0.010992873
216	0xbb6c4ad0	-0.0036055334
217	0x3d92936b	0.07157024
218	0xbd37983c	-0.044822916
219	0xbc1e3cf0	-0.009658083
220	0xbd95dd14	-0.07317558
221	0xbcb37167	-0.02190466
222	0x3d027e30	0.031858623
223	0xbd8d505e	-0.069000944
224	0xbc6a3f1e	-0.014297275
225	0x3da2b5a5	0.07944802
226	0xbcdc652c	-0.026903711
227	0xbd9725bb	-0.073802434
228	0xbb66b798	-0.0035204645
229	0xbd49fde6	-0.049314402
230	0xbc56cb19	-0.013109946
231	0xbc90b995	-0.017666617
232	0xbd018142	-0.03161741
233	0x3b06c35d	0.0020563223
234	0xbcbbddf7	-0.02293299
235	0x3d04bba6	0.032405518
236	0xbd398053	-0.045288395
237	0xbc53f327	-0.01293639
238	0xbc8e4b97	-0.017370028
239	0xbcf133fa	-0.02944373
240	0xbe00c023	-0.12573294
241	0x3d114f31	0.035475913
242	0x3d8e636a	0.069525555
243	0xbd3e9387	-0.04652741
244	0xbc93041f	-0.017946301
245	0xbc52d18e	-0.012867345
246	0x3ccf9256	0.025338333
247	0x3aa8c21c	0.0012875232
248	0xbd35b4f1	-0.044362012
249	0x3c7a8450	0.015290335
250	0xbcd6da7e	-0.026227232
251	0x3c165f98	0.009178065
252	0xbbac6987	-0.0052616033
253	0xbd065b72	-0.032802053
254	0x3cbd9e48	0.023146763
255	0xbd970e5f	-0.07375788

features.8.bias f4 [128]
0	0xb7961777	-1.789232e-05
1	0xb822ade2	-3.878575e-05
2	0x362e2cf6	2.5954191e-06
3	0x37d48c80	2.5337795e-05
4	0x38084e79	3.249801e-05
5	0xb793ec9e	-1.7633949e-05
6	0xb7ac6879	-2.0552647e-05
7	0xb76f1de4	-1.425247e-05
8	0xb36f3500	-5.5694727e-08
9	0xb65cb830	-3.2889766e-06
10	0xb71ce8f3	-9.352562e-06
11	0x36e107b6	6.70642e-06
12	0xb621c928	-2.4107958e-06
13	0x3746aec3	1.184241e-05
14	0x348582c0	2.4868314e-07
15	0x36e8e282	6.940508e-06
16	0xb78790ba	-1.6160648e-05
17	0xb70db1cc	-8.4456515e-06
18	0xb65a9a17	-3.2574223e-06
19	0xb6a5238a	-4.9215205e-06
20	0xb7ca2410	-2.409707e-05
21	0x3763698c	1.3554829e-05
22	0xb73a1362	-1.1090977e-05
23	0xb7f2d27c	-2.8946662e-05
24	0xb654da45	-3.1717511e-06
25	0xb82658c5	-3.9660157e-05
26	0xb752b264	-1.255851e-05
27	0xb8420eb6	-4.6266905e-05
28	0xb7672082	-1.3776242e-05
29	0xb7804bc7	-1.5294076e-05
30	0xb74712f0	-1.18657335e-05
31	0x36d8e5a8	6.464037e-06
32	0xb737ac6b	-1.0947794e-05
33	0xb794a6f5	-1.772072e-05
34	0xb818a1f3	-3.639045e-05
35	0x37b9258f	2.2071208e-05
36	0xb7e85a3a	-2.769857e-05
37	0xb6d4868a	-6.3337548e-06
38	0x3720b57a	9.5789965e-06
39	0xb7895886	-1.6372895e-05
40	0x374a045e	1.2041155e-05
41	0xb3bfb5c0	-8.927191e-08
42	0xb8125887	-3.489156e-05
43	0xb85d7aee	-5.2804993e-05
44	0xb5ce9700	-1.5392143e-06
45	0x381e6e4e	3.7772865e-05
46	0xb7b1506a	-2.113749e-05
47	0x3893c5d6	7.046356e-05
48	0xb7eef114	-2.8484072e-05
49	0x33716780	5.6206318e-08
50	0x379405fb	1.764576e-05
51	0xb6f2516a	-7.22164e-06
52	0xb83c0903	-4.4831086e-05
53	0xb76c234e	-1.4074916e-05
54	0x36ccdf74	6.105687e-06
55	0xb7b5917f	-2.1644633e-05
56	0xb6adf815	-5.1846823e-06
57	0xb8041c4c	-3.1497606e-05
58	0x373c1c29	1.121223e-05
59	0x370a8131	8.255521e-06
60	0x375638f1	1.2768652e-05
61	0xb81dc32a	-3.7613478e-05
62	0xb756d128	-1.2804092e-05
63	0x372ee594	1.0424661e-05
64	0x367a0588	3.7256123e-06
65	0x37227f7e	9.6856365e-06
66	0x37a64c43	1.9824254e-05
67	0xb6f2135c	-7.2144157e-06
68	0xb7811058	-1.5385609e-05
69	0x372c4915	1.0269015e-05
70	0x3674f634	3.6502142e-06
71	0xb783c749	-1.5709216e-05
72	0xb76d1b3b	-1.4132641e-05
73	0x3690c57e	4.3145255e-06
74	0x3780a54c	1.5335761e-05
75	0xb7d1431f	-2.4945997e-05
76	0xb7c59ea8	-2.355811e-05
77	0x37b1543c	2.1139269e-05
78	0x36eb3ff0	7.010989e-06
79	0x353c7a7e	7.021371e-07
80	0xb692ab6d	-4.3710957e-06
81	0x3751ad92	1.2497783e-05
82	0xb773a3eb	-1.4522094e-05
83	0xb8405fb4	-4.5865498e-05
84	0xb7adf059	-2.0735128e-05
85	0x360f18f7	2.1323192e-06
86	0x37cd84ef	2.4499806e-05
87	0x3814174f	3.5307658e-05
88	0x3864dc7b	5.4564774e-05
89	0xb7699803	-1.3923275e-05
90	0xb76ac2dc	-1.3992856e-05
91	0xb8524151	-5.0128732e-05
92	0x376b89c2	1.4039166e-05
93	0xb7bf8e21	-2.2835158e-05
94	0x371a0e74	9.18248e-06
95	0xb6823eec	-3.881627e-06
96	0xb7ea3d7e	-2.7923608e-05
97	0x36d70d6e	6.4090627e-06
98	0xb761e29e	-1.34638085e-05
99	0xb702e468	-7.801784e-06
100	0x3597c320	1.1307166e-06
101	0xb600b41e	-1.9178328e-06
102	0x37f1b908	2.88156e-05
103	0x370a5dac	8.247251e-06
104	0xb7d8bc5d	-2.583692e-05
105	0xb82041ef	-3.8208378e-05
106	0xb84b27a8	-4.8435904e-05
107	0x35c27b14	1.4489947e-06
108	0x36262b34	2.4761075e-06
109	0x372d5012	1.0330246e-05
110	0x36746f1c	3.6423507e-06
111	0xb775340b	-1.4615255e-05
112	0xb6e21ce2	-6.7386873e-06
113	0x380033ef	3.0565945e-05
114	0x37dd5dba	2.6388898e-05
115	0x366f2a89	3.5638534e-06
116	0xb7409e0c	-1.148089e-05
117	0xb806bae2	-3.2122138e-05
118	0x3760e3a6	1.3404444e-05
119	0xb72ba602	-1.0231046e-05
120	0x38381700	4.389044e-05
121	0xb6093fe1	-2.0451773e-06
122	0x37b446be	2.1490614e-05
123	0x3724b1d9	9.81657e-06
124	0x3737c3e2	1.09532575e-05
125	0x37f5b7a2	2.9291787e-05
126	0xb6037980	-1.9591243e-06
127	0x38248780	3.922684e-05

features.9.weight f4 [128]
0	0x3f85bd11	1.0448323
1	0x3f91713f	1.1362685
2	0x3f92a677	1.1457051
3	0x3f8105b9	1.0079871
4	0x3f8c336e	1.0953195
5	0x3f8bc2b0	1.0918789
6	0x3f8b69e8	1.0891695
7	0x3f8d3af0	1.1033611
8	0x3f97702e	1.183111
9	0x3f89c0e1	1.0761987
10	0x3f90d0fb	1.1313776
11	0x3f936a4d	1.1516815
12	0x3f8b0d25	1.0863386
13	0x3f84545e	1.0338247
14	0x3f8d87f7	1.1057118
15	0x3f854d17	1.0414151
16	0x3f7fc840	0.9991493
17	0x3f9310b7	1.1489476
18	0x3f859514	1.043612
19	0x3f922870	1.141859
20	0x3f8dd011	1.1079122
21	0x3f87bfb9	1.0605384
22	0x3f8dbfd4	1.1074166
23	0x3f8a1059	1.0786239
24	0x3f87151a	1.0553315
25	0x3f8eb2e3	1.1148342
26	0x3f8e9527	1.1139268
27	0x3f912344	1.1338887
28	0x3f899e13	1.0751365
29	0x3f6d2525	0.92634803
30	0x3f8e70ec	1.1128211
31	0x3f8af65a	1.085643
32	0x3f8272b9	1.019126
33	0x3f8ddb0b	1.1082472
34	0x3f88701b	1.0659212
35	0x3f838c2b	1.0277151
36	0x3f8bbb2e	1.0916498
37	0x3f8af910	1.0857258
38	0x3f8240ee	1.0176065
39	0x3f8d4fd7	1.103999
40	0x3f790ad2	0.97282135
41	0x3f8a81fa	1.0820916
42	0x3f951b9a	1.1649048
43	0x3f8ddef5	1.1083666
44	0x3f80cf5a	1.0063279
45	0x3f8ebd85	1.1151587
46	0x3f848a1d	1.0354649
47	0x3f93bdeb	1.1542333
48	0x3f954690	1.1662159
49	0x3f856ea2	1.0424387
50	0x3f8a3c26	1.0799606
51	0x3f86b0de	1.0522726
52	0x3f8811c5	1.0630423
53	0x3f8c1f70	1.0947094
54	0x3f866507	1.0499581
55	0x3f912904	1.1340642
56	0x3f7f6cc5	0.99775344
57	0x3f89a8c2	1.0754626
58	0x3f85be15	1.0448633
59	0x3f845f0c	1.0341506
60	0x3f93e57f	1.1554412
61	0x3f8ceb19	1.1009246
62	0x3f8a1e96	1.0790584
63	0x3f8c367d	1.0954129
64	0x3f85973f	1.0436782
65	0x3f8687eb	1.0510229
66	0x3f653ea5	0.8954871
67	0x3f89eb18	1.077487
68	0x3f8b5d26	1.0887802
69	0x3f876691	1.0578176
70	0x3f8b266e	1.0871103
71	0x3f8561cb	1.0420469
72	0x3f8dc550	1.107584
73	0x3f7974c8	0.9744382
74	0x3f78bc83	0.97162646
75	0x3f846ec5	1.0346304
76	0x3f8ac846	1.0842369
77	0x3f89d949	1.0769435
78	0x3f8e9150	1.1138096
79	0x3f826dd3	1.0189766
80	0x3f8ccef6	1.100066
81	0x3f8c4749	1.0959255
82	0x3f8dc561	1.107586
83	0x3f8b0cc5	1.0863272
84	0x3f92148c	1.141252
85	0x3f7bcf5a	0.9836327
86	0x3f743d5b	0.9540612
87	0x3f825c2d	1.018438
88	0x3f8787e7	1.0588349
89	0x3f838962	1.0276301
90	0x3f8ae875	1.085219
91	0x3f928836	1.1447818
92	0x3f8afbd0	1.0858097
93	0x3f9447b1	1.1584378
94	0x3f84a8f8	1.0364065
95	0x3f82a204	1.0205693
96	0x3f8e1416	1.109988
97	0x3f864c30	1.0492
98	0x3f905a08	1.1277475
99	0x3f84644a	1.0343106
100	0x3f8af6d7	1.085658
101	0x3f93587d	1.151138
102	0x3f9885a7	1.1915787
103	0x3f70bba6	0.9403633
104	0x3f859c16	1.0438259
105	0x3f8a58ac	1.080831
106	0x3f8b8037	1.0898503
107	0x3f84c591	1.0372792
108	0x3f7feb11	0.9996806
109	0x3f87774a	1.0583279
110	0x3f8299a1	1.0203134
111	0x3f8fdabc	1.1238627
112	0x3f8281af	1.0195826
113	0x3f834b20	1.0257301
114	0x3f88bce1	1.0682641
115	0x3f88a9b1	1.0676786
116	0x3f8cc51e	1.0997655
117	0x3f889739	1.067115
118	0x3f8b81ba	1.0898964
119	0x3f90b8fa	1.130645
120	0x3f850a7b	1.0393823
121	0x3f81cdc5	1.0140921
122	0x3f949eeb	1.1610998
123	0x3f8f0f8a	1.1176617
124	0x3f83d383	1.0298923
125	0x3f8c0981	1.09404
126	0x3f8acb70	1.0843334
127	0x3f8f767d	1.1208035

features.9.bias f4 [128]
0	0xbbba3ed3	-0.0056837588
1	0xbc2636cb	-0.0101449
2	0xbcc39531	-0.023874851
3	0xbc1e3d53	-0.0096581755
4	0xbc107875	-0.008817782
5	0xbcb2e97e	-0.021839853
6	0x3c15d8fa	0.0091459695
7	0xbbbe6c10	-0.005811222
8	0xbbfc9e25	-0.007709282
9	0xbc68f30d	-0.014218104
10	0xb9bf8091	-0.00036526148
11	0xbbd22409	-0.006412987
12	0xbc93362e	-0.01797017
13	0xbc3148e9	-0.010820606
14	0xbc7f1a42	-0.015570225
15	0xbc365f78	-0.01113116
16	0xbc8c1fde	-0.01710504
17	0xbc07015f	-0.008240073
18	0xbc818586	-0.01581074
19	0xbbb6f620	-0.0055835396
20	0x3b6d3b04	0.0036198506
21	0xba2bd337	-0.0006554606
22	0x3c9dd114	0.019264735
23	0xbca214ee	-0.01978537
24	0xbce97770	-0.028499335
25	0xbc23d530	-0.009999558
26	0xbc7ee728	-0.015558042
27	0xbc487a3b	-0.012236173
28	0xbceb37e3	-0.028713172
29	0xba69c24b	-0.00089171965
30	0xbc8fd0b4	-0.017555572
31	0xbcaeafa0	-0.021323979
32	0xbcfceb51	-0.030873926
33	0xbb4a00fa	-0.0030823336
34	0xbb91ecc9	-0.004453276
35	0x3b867d12	0.004104265
36	0x3bc47467	0.0059953216
37	0x3c9f5fd2	0.01945487
38	0xbba8905b	-0.0051441616
39	0x3b37aff4	0.002802846
40	0xbc9293e8	-0.017892793
41	0xbc8efa31	-0.017453285
42	0xbc626457	-0.013817868
43	0x3c1410f6	0.009037247
44	0xbac86747	-0.0015289568
45	0xbae3e7e4	-0.0017387834
46	0xbb746caf	-0.0037296226
47	0xbc9cf9fd	-0.019162172
48	0x3c7183ba	0.014740879
49	0xbc5329d7	-0.012888393
50	0xbceb5462	-0.02872676
51	0xba8ac80c	-0.0010588183
52	0x3bc8057a	0.0061041685
53	0xbcc06eab	-0.02349027
54	0xbc8be0a9	-0.0170749
55	0xbcce9a62	-0.0252201
56	0xbc00d533	-0.007863331
57	0xbce6a4b2	-0.028154705
58	0xbab5969f	-0.0013854093
59	0xbcb5c27c	-0.022187464
60	0xbc9de8f3	-0.019276118
61	0xbc228a80	-0.009920716
62	0xbc6961af	-0.014244481
63	0xbcccf6a7	-0.025019957
64	0xbd14d2ec	-0.036333963
65	0x3acb0384	0.0015488719
66	0xbd08396e	-0.033257894
67	0xbbd5b5c3	-0.006521912
68	0xbc6d20c7	-0.014473147
69	0xbc9c34a8	-0.019068077
70	0xbc1986cb	-0.009370516
71	0x3842a413	4.640601e-05
72	0x3b007490	0.0019600727
73	0xbcc1d499	-0.023660945
74	0xbbadbce0	-0.0053020567
75	0xbd0cec27	-0.0344049
76	0xbce7d50b	-0.028299829
77	0x3c541307	0.01294399
78	0xbbe64ede	-0.0070284447
79	0xbb68a3fc	-0.0035498133
80	0xbc7783cd	-0.015107107
81	0xbcfaef1a	-0.03063159
82	0xbc6f3bae	-0.014601631
83	0xbce2578c	-0.027629636
84	0xbccfc148	-0.025360718
85	0x3bbea902	0.005818487
86	0xbc03da39	-0.008047634
87	0xbcafaa91	-0.021443637
88	0xbc844278	-0.016144976
89	0xbcd715a6	-0.02625544
90	0xbc184a45	-0.009295051
91	0xbc161188	-0.009159453
92	0x3a18e45e	0.0005832369
93	0x3a9bb6fc	0.0011880095
94	0xbc8220d4	-0.015884794
95	0xbc9ee241	-0.019394996
96	0xbca0c2b9	-0.019624101
97	0xbc5f2b12	-0.013621109
98	0x3cd82de4	0.02638907
99	0xbceb1dc1	-0.028700711
100	0x3b55f6d0	0.0032648332
101	0xbc978cb0	-0.018499702
102	0xbb3e63d8	-0.002905121
103	0xbcbc398a	-0.022976656
104	0xbc299ce0	-0.010352343
105	0xbcb608a2	-0.022220913
106	0xbcb9712c	-0.022636972
107	0xbcf2efa8	-0.029655293
108	0x3c47b380	0.012188792
109	0x3bd44145	0.0064775073
110	0x3bc0de97	0.00588591
111	0xba7b25bd	-0.00095805136
112	0x3ccdee1b	0.025137952
113	0xbcbe4dac	-0.023230396
114	0xbc6e5322	-0.014546188
115	0x3c0bafd8	0.008525811
116	0x3bc64b9a	0.006051493
117	0xbc948fb9	-0.018134939
118	0xbca06bcd	-0.019582653
119	0xbbbf440c	-0.0058369692
120	0xbd1dc268	-0.03851548
121	0xbb8ea2ad	-0.0043528886
122	0xbc550584	-0.013001803
123	0xbc88a0e7	-0.016678287
124	0xbca102ef	-0.01965472
125	0x3c0d9629	0.008641758
126	0xbcf38eb0	-0.029731125
127	0x3af7e720	0.0018913485

features.9.running_mean f4 [128]
0	0xbaf3e96f	-0.0018608997
1	0xbe9167b1	-0.28399423
2	0xbd30618c	-0.043061778
3	0xbebe2144	-0.37134755
4	0x3e29c7b8	0.16580093
5	0xbeb17124	-0.34656632
6	0x3ea643b3	0.32473525
7	0xbd8e01f3	-0.069339655
8	0x3f367ea3	0.7128698
9	0x3f21a77e	0.631462
10	0x3f61fe26	0.88278425
11	0xbeebb0b1	-0.46033242
12	0x3dcd5a21	0.10026956
13	0x3f37b258	0.71756506
14	0x3f83a828	1.0285692
15	0x3eb8aa94	0.3606764
16	0x3f418ae5	0.7560256
17	0x3e0e802f	0.13916086
18	0x3f4bcc20	0.79608345
19	0xbdf217cc	-0.11820945
20	0x3f059e6a	0.52194846
21	0x3da85b57	0.08220547
22	0x3e59a17c	0.21253008
23	0x3e267ca3	0.16258483
24	0x3f145a6b	0.57950467
25	0x3eb3cdd0	0.3511796
26	0x3f2f46da	0.68467486
27	0xbf0fc534	-0.56160283
28	0x3ee79e44	0.45237935
29	0x3dc860b4	0.0978407
30	0x3ee3f992	0.44526345
31	0x3f180735	0.59386
32	0x3f859351	1.0435582
33	0xbe80800a	-0.25097686
34	0x3e817ff6	0.2529294
35	0x3f337590	0.7010126
36	0x3dcbaba4	0.09944847
37	0xbe6c77bd	-0.23092552
38	0xba6519c8	-0.00087394984
39	0x3ea78ee0	0.32726192
40	0x3e889c25	0.2668163
41	0x3f672816	0.9029554
42	0xbec67245	-0.38759056
43	0xbf1d4475	-0.6143258
44	0xbe4b48f2	-0.19852045
45	0xbe75a182	-0.23987392
46	0x3e284fde	0.16436717
47	0x3ee1ecb7	0.44125912
48	0xbe6116b1	-0.21981312
49	0xbf273a7b	-0.6532361
50	0x3f74b1d7	0.9558386
51	0x3e0a8755	0.13528188
52	0xbe5239ef	-0.20529912
53	0x3e811277	0.252094
54	0x3e9f372e	0.31096786
55	0x3f37d186	0.7180408
56	0xbcaa19db	-0.020764282
57	0xbe5541e6	-0.2082592
58	0x3d0d9e1b	0.03457461
59	0x3cf7210f	0.03016713
60	0x3f2d9b58	0.6781516
61	0x3eb89fd8	0.3605945
62	0x3e9a95c5	0.3019239
63	0x3e0b84da	0.13624898
64	0x3f87e686	1.0617225
65	0xbea0eae8	-0.3142922
66	0x3f3378b5	0.7010606
67	0xbd813e9d	-0.06310771
68	0x3ee9cb03	0.45662698
69	0x3f3a3d17	0.72749466
70	0xbdf6b896	-0.12046926
71	0xbeb1c29f	-0.34718797
72	0x3d997279	0.07492537
73	0x3e2591f5	0.1616896
74	0xbe4b6a96	-0.19864878
75	0x3f786799	0.9703308
76	0x3fa6e096	1.3037288
77	0xbe22a6f9	-0.15884008
78	0xbf317348	-0.6931653
79	0xbe2ddfe3	-0.16979937
80	0x3eed29e3	0.4632102
81	0x3e464ba4	0.19364792
82	0x3f0aa0bd	0.5415152
83	0x3f279aae	0.654704
84	0x3eee63de	0.46560568
85	0x3e0354cd	0.12825318
86	0xbe87f715	-0.26555696
87	0x3e011d71	0.12608887
88	0x3e742da4	0.23845536
89	0x3c9d05cc	0.019167803
90	0x3ea4ac18	0.32162547
91	0x3e998e21	0.29991248
92	0xbec75b34	-0.3893677
93	0x3ebf1c81	0.37326434
94	0xbe8d0a16	-0.27546757
95	0x3e7f6ff0	0.24945045
96	0x3dfdf0a1	0.12399412
97	0x3e73b77c	0.23800462
98	0xbe784e44	-0.24248606
99	0x3e2c0b8f	0.16801284
100	0x3e86ab6f	0.26302668
101	0x3e8af52e	0.27140182
102	0x3cc07eca	0.023497958
103	0xbe4c7b92	-0.19969013
104	0xbe7ca089	-0.24670614
105	0x3d90a4ca	0.07062681
106	0x3e0c2fd3	0.13690118
107	0x3cb73d09	0.022367971
108	0xbe89c8a2	-0.26910883
109	0xbde90544	-0.113779575
110	0x3e30cc5d	0.17265458
111	0x3e4f0895	0.20218118
112	0x3eefe4b4	0.46854174
113	0x3ea8ab1b	0.32943043
114	0x3eb39734	0.35076296
115	0x3e69a626	0.22817287
116	0xbe1e137f	-0.15437125
117	0x3e7e1706	0.2481347
118	0x3f170a65	0.59000236
119	0xbb74bf70	-0.003734555
120	0xbcf9c289	-0.03048827
121	0x3e93c544	0.2886144
122	0x3ef8fcce	0.48630375
123	0x3c5cb9fc	0.0134720765
124	0xbd4e4152	-0.050355263
125	0xbec5f92e	-0.38666672
126	0x3e8ed3a6	0.2789585
127	0xbd4f5075	-0.05061384

features.9.running_var f4 [128]
0	0x3ee94803	0.45562753
1	0x3eae12af	0.3399863
2	0x3eed25c4	0.46317875
3	0x3eb7ad78	0.35874534
4	0x3ecd51d3	0.4010149
5	0x3eecdee0	0.4626379
6	0x3f16ff4f	0.5898332
7	0x3effa69c	0.499318
8	0x3eb7af27	0.35875818
9	0x3f2e2edc	0.6804025
10	0x3f350adb	0.7071969
11	0x3f2e1f3a	0.680164
12	0x3ee5e0c2	0.4489804
13	0x3e882be2	0.2659598
14	0x3ec2c04f	0.38037345
15	0x3ebebd7b	0.37253937
16	0x3ee24419	0.4419258
17	0x3eb65422	0.35611063
18	0x3eba8572	0.36429936
19	0x3ebd0591	0.3691831
20	0x3eaada3a	0.3336962
21	0x3ea7d741	0.32781413
22	0x3ecbd31d	0.39809504
23	0x3f1399a6	0.57656324
24	0x3ed9594b	0.42450938
25	0x3f0a6ee6	0.5407547
26	0x3f0a682b	0.540652
27	0x3ef354db	0.47525677
28	0x3ecda70a	0.40166503
29	0x3ed1a9dd	0.40949908
30	0x3ece03a5	0.40237156
31	0x3ebbaca0	0.3665514
32	0x3eded010	0.43518114
33	0x3ec53010	0.3851323
34	0x3ec67549	0.38761356
35	0x3ebdc7bb	0.37066445
36	0x3eaba673	0.33525428
37	0x3ec12692	0.3772474
38	0x3ec5aa52	0.38606507
39	0x3eea2d66	0.4573776
40	0x3ed5d102	0.41761023
41	0x3f760539	0.9610172
42	0x3efe1967	0.49628755
43	0x3ed681a0	0.4189577
44	0x3ef55077	0.47912952
45	0x3f4f91ac	0.8108165
46	0x3eb12e56	0.34605664
47	0x3eb2c4e7	0.3491585
48	0x3e8b97be	0.27264208
49	0x3f04af22	0.5182973
50	0x3eb869b9	0.3601816
51	0x3eedc99a	0.46442872
52	0x3ee9a1e9	0.4563134
53	0x3e95f263	0.2928649
54	0x3eef323a	0.46718007
55	0x3efe03bf	0.49612233
56	0x3eb2f90d	0.34955636
57	0x3efe3cef	0.49655864
58	0x3ea75f61	0.32689956
59	0x3ec8e922	0.39240366
60	0x3e98737f	0.29775617
61	0x3ecfd332	0.40590817
62	0x3ec072cc	0.37587583
63	0x3eeb9cc9	0.46018055
64	0x3f0dd32c	0.5540035
65	0x3ed3680d	0.41290322
66	0x3ec49f6d	0.38402882
67	0x3eb95776	0.3619954
68	0x3ede7190	0.43446016
69	0x3ed68231	0.41896203
70	0x3ea90136	0.33008736
71	0x3ec72350	0.3889413
72	0x3ee09ba8	0.43868756
73	0x3f0f9c53	0.56097907
74	0x3ea83b61	0.32857803
75	0x3ed32fca	0.41247398
76	0x3ed5f629	0.41789368
77	0x3ec58d30	0.3858428
78	0x3f02959e	0.5100955
79	0x3e8eef4c	0.27916944
80	0x3ec9ce7a	0.39415342
81	0x3ea28e77	0.31749317
82	0x3ea52a41	0.322588
83	0x3eef73d7	0.46768066
84	0x3ea37ccf	0.3193116
85	0x3ea8d598	0.3297546
86	0x3ec17b32	0.37789303
87	0x3efe8138	0.4970796
88	0x3eebc37c	0.4604758
89	0x3e83ed4d	0.25766984
90	0x3efa9b5e	0.4894666
91	0x3ed87b84	0.42281735
92	0x3f1462e6	0.5796341
93	0x3f1800fc	0.593765
94	0x3f2f364f	0.68442243
95	0x3efaf99b	0.4901856
96	0x3ed0804b	0.4072288
97	0x3f0c8c92	0.54901993
98	0x3f100bba	0.56267893
99	0x3e8d42f0	0.27590132
100	0x3f039f3e	0.5141486
101	0x3ea48594	0.32133162
102	0x3f28debc	0.65964866
103	0x3eb15a12	0.3463903
104	0x3eb71168	0.35755467
105	0x3eda3eee	0.42626137
106	0x3ea508a4	0.32233155
107	0x3ed00d93	0.40635356
108	0x3ec0e7ce	0.37676853
109	0x3eaf7e04	0.3427583
110	0x3ef7763b	0.4833239
111	0x3eb3d8e4	0.35126412
112	0x3e9f1004	0.31066906
113	0x3eef2dd3	0.4671465
114	0x3ed16c65	0.4090301
115	0x3ebbe729	0.366998
116	0x3ec23c91	0.37936834
117	0x3ed96fe8	0.4246819
118	0x3ed684f1	0.418983
119	0x3eb2ea96	0.349446
120	0x3e818c91	0.25302556
121	0x3eb5cce9	0.35507897
122	0x3f22df82	0.63622296
123	0x3f169caf	0.5883283
124	0x3eec10d1	0.4610658
125	0x3ebb1a37	0.36543438
126	0x3ef3cfcc	0.47619474
127	0x3ec5e581	0.3865166
